model/Experiment/Channel_Importance.pt (torch, 754230 bytes, 90 tensors)

conv_spa.weight f4 [32, 3, 3, 3]
0	0x3d577d41	0.052609686
1	0x3e47b13c	0.19501203
2	0xbd574608	-0.05255702
3	0xbdb52df6	-0.08846657
4	0x3dac4974	0.084124476
5	0xbb80edb1	-0.003934585
6	0x3d495c40	0.049160242
7	0xbac7a1fc	-0.001523077
8	0xbe061f95	-0.13097985
9	0xbdd27dbe	-0.1027789
10	0xbde4eefb	-0.111783944
11	0xbca8c7e0	-0.02060312
12	0x3e3b9530	0.1831863
13	0x3e2d961a	0.1695179
14	0x3bcef907	0.0063163075
15	0x3df81c53	0.121147774
16	0xbd763f06	-0.060118698
17	0xbe527d6e	-0.2055566
18	0xbd6e6b46	-0.058207773
19	0xbe1211c8	-0.14264596
20	0x3e1c9764	0.15292126
21	0xbe0f34a4	-0.13984925
22	0x3b620d66	0.003449285
23	0xbd65fa30	-0.0561468
24	0x3c438e86	0.011935836
25	0xbcf21f28	-0.029555872
26	0x3e2b1bbe	0.16709802
27	0xbdde1a2a	-0.10844834
28	0x3cc3feb9	0.023925172
29	0xbc00942f	-0.00784783
30	0x3e30c824	0.17263848
31	0xbb480785	-0.003052206
32	0x3dc33ba7	0.09532862
33	0xbe3479e7	-0.17624627
34	0xbdf97f4c	-0.12182483
35	0xbd38b807	-0.045097377
36	0x3cc3934f	0.023873953
37	0xbde65a28	-0.11247665
38	0x3e1de22e	0.15418312
39	0x3e21f93b	0.1581773
40	0xbd4ed899	-0.050499532
41	0x3e53fbb3	0.20701484
42	0x3db8de6d	0.09026799
43	0xbe3d9b28	-0.18516219
44	0xbde8d989	-0.113696165
45	0x3c7d6775	0.015466561
46	0xbe43fc24	-0.19139153
47	0xbd9923cd	-0.074775316
48	0xbe24b81f	-0.16085862
49	0x3e20af11	0.15691783
50	0x3e161c06	0.14659128
51	0x3d452098	0.048126787
52	0xbe236fcb	-0.15960614
53	0x3e401fdd	0.18762155
54	0x3d224ac7	0.039622094
55	0xbe45cf97	-0.1931747
56	0x3d48aecc	0.048994824
57	0xbd394236	-0.04522916
58	0x3dda5657	0.10660999
59	0xbde456d2	-0.11149372
60	0x3e2685d9	0.16261996
61	0x3df713e3	0.1206434
62	0x3e1892a5	0.1489969
63	0xbdd6ee54	-0.10494676
64	0xbd4c1c24	-0.049831524
65	0xbdd9ab40	-0.106283665
66	0xbbee67e1	-0.007275567
67	0x3e0405b4	0.128928
68	0xbdf5393f	-0.119738095
69	0x3dab8a20	0.08375955
70	0xbe6ba2a7	-0.23011266
71	0xbd698333	-0.057009887
72	0x3e15aac4	0.14615923
73	0x3e600440	0.21876621
74	0xbdc6bd27	-0.09704047
75	0xbde3141a	-0.110878184
76	0xbe1801ab	-0.14844386
77	0x3e1b34bc	0.15156835
78	0x3d671d5e	0.05642449
79	0xbd096066	-0.0335392
80	0x3d2bd677	0.041952576
81	0x3dc6dc7d	0.097100236
82	0x3d3fbe20	0.046812177
83	0x3d00f4eb	0.031483572
84	0x3dbee488	0.093209326
85	0x3decf579	0.11570258
86	0xbde1ede4	-0.11031702
87	0x3c7356da	0.01485225
88	0x3cad6177	0.021164639
89	0x3d7cfd50	0.061765015
90	0xbd285682	-0.041098125
91	0xbe586b5a	-0.21134701
92	0xbd79f275	-0.06102224
93	0x3ce0e2c5	0.027451882
94	0x3aed33c9	0.0018097098
95	0xbe3fe961	-0.1874137
96	0xbdee0af5	-0.11623184
97	0xbd101c8b	-0.03518347
98	0xbd39a778	-0.045325726
99	0x3dec8e1c	0.11550543
100	0x3e0a08ca	0.13479915
101	0x3e29b4d8	0.16572893
102	0x3e448a3e	0.1919336
103	0xbd83630c	-0.06415376
104	0xbd661471	-0.05617184
105	0x3cbd2cad	0.023092592
106	0xbe2092ff	-0.15681075
107	0xbd663a5d	-0.056208003
108	0x3c6ca17e	0.0144428
109	0xbe0a46cd	-0.13503571
110	0xbdea3633	-0.11436119
111	0x3d89b544	0.06724027
112	0x3d64e0b4	0.055878356
113	0x3d8c9c53	0.06865754
114	0xbd8d90ab	-0.06912359
115	0x3d5d535c	0.054034576
116	0x3da8189c	0.08207819
117	0xbe3d899c	-0.18509525
118	0xbe27e7de	-0.16397044
119	0x3d6b02d8	0.05737576
120	0xbbac0d22	-0.005250589
121	0xbe49c247	-0.19703017
122	0x3cb34a2c	0.021885954
123	0x3e3e933a	0.1861085
124	0x3e12f196	0.1434997
125	0x3dde7229	0.10861618
126	0x3d83357f	0.06406688
127	0x3dde207d	0.108460404
128	0xbe11c2b3	-0.14234428
129	0xbd855b05	-0.06511501
130	0x3d645146	0.05574157
131	0x3dceca39	0.10097165
132	0x3da17a06	0.07884602
133	0xbcfc7118	-0.030815646
134	0xbe3affaa	-0.1826159
135	0x3e2c6d89	0.1683866
136	0xbd8d5167	-0.06900292
137	0xbdddd020	-0.10830712
138	0xbd050389	-0.032474075
139	0xbc679637	-0.014134935
140	0xbdfffacf	-0.1249901
141	0xbdd5ae37	-0.104336195
142	0xbe0fb132	-0.14032438
143	0xbd95f917	-0.07322901
144	0xbe5d1c94	-0.21592933
145	0xbe555130	-0.20831752
146	0xbd65b8d4	-0.05608447
147	0xbdbde7ec	-0.09272751
148	0xbd845dd0	-0.06463206
149	0xbbd7466e	-0.006569675
150	0x3d0550ce	0.032547764
151	0xbd9b58b1	-0.07585276
152	0x3ba6b157	0.0050870585
153	0x3e0e332e	0.13886711
154	0x3e71d55a	0.23616543
155	0x3d506fad	0.050887752
156	0xbdb05f58	-0.086119354
157	0x3e74c0cf	0.23901676
158	0x3e3627e2	0.17788652
159	0x3e1c400d	0.15258808
160	0x3daea547	0.08527618
161	0x3e178c16	0.14799532
162	0xbe83b2f9	-0.25722483
163	0x3d3f2001	0.04666138
164	0xbdba0f5a	-0.09084959
165	0x3df56e51	0.11983932
166	0x3ca964fa	0.020678032
167	0x3d71ce3e	0.05903458
168	0x3c153650	0.009107187
169	0x3e795b3f	0.24351214
170	0x3e3080ee	0.17236683
171	0x3db91184	0.09036544
172	0x3dbc83c7	0.09204822
173	0x3dec6a6d	0.115437366
174	0xbe7b3f9a	-0.24535981
175	0xbe38a33d	-0.1803102
176	0xbdaaae73	-0.08334055
177	0xbe4e50c6	-0.20148
178	0xbd586a52	-0.05283577
179	0xbe5a0c52	-0.21293762
180	0x3cb1d10c	0.021706127
181	0x3dd532d3	0.104100846
182	0xbdb5b2c9	-0.08871991
183	0x3e0b8c45	0.13627727
184	0x3dd0987b	0.10185333
185	0x3ca7cc3d	0.02048313
186	0x3d4fe1cd	0.05075245
187	0x3d265e41	0.04061723
188	0xbd015458	-0.031574577
189	0xbe1e1bb1	-0.15440251
190	0x3d8ffed6	0.07031028
191	0xbe75c3f0	-0.24000525
192	0xbd26c632	-0.040716358
193	0x3d21651b	0.039403062
194	0xbe47f23d	-0.19526
195	0xbdfe7718	-0.12425059
196	0xbd8cf9ae	-0.0688356
197	0x3bfe6a7e	0.0077641597
198	0x3e4c586d	0.19955607
199	0x3e6ada5a	0.22934857
200	0x3e0e8ec1	0.13921644
201	0xbda0c7e9	-0.0785063
202	0x3ded6256	0.11591022
203	0x3d3751b1	0.04475564
204	0xbd2c5210	-0.04207045
205	0x3bd3d839	0.0064649847
206	0x3dea536b	0.11441692
207	0xbe5ee62e	-0.21767494
208	0x3d838c9b	0.06423303
209	0xbe281d92	-0.1641753
210	0x3e162683	0.14663129
211	0x3d5e0b14	0.054209784
212	0x3d8bd01c	0.06826803
213	0x3ba5d3a2	0.005060629
214	0xbe50ec6e	-0.20402691
215	0x3e22d836	0.1590279
216	0x3dbcab78	0.092123926
217	0xbd6132ba	-0.054980017
218	0xbd3947b9	-0.045234416
219	0x3d6992a8	0.057024628
220	0x3c9bdfda	0.01902764
221	0xbe18a813	-0.14907865
222	0x3de8beb7	0.11364501
223	0x3de9decc	0.11419448
224	0xbe336779	-0.1751994
225	0xbe05b42c	-0.13057011
226	0xbe66d43d	-0.225419
227	0xbda22df8	-0.07918924
228	0x3e218b5d	0.15775819
229	0xbdbc126e	-0.09183203
230	0xbd74ce9b	-0.059767347
231	0x3e3da5cf	0.18520282
232	0x3e4a0802	0.19729617
233	0x3e31c428	0.17359984
234	0x3d255eaf	0.0403735
235	0x3e1613ed	0.14656039
236	0x3e9eabb4	0.30990374
237	0xbdabaf2d	-0.083830215
238	0x3dae561b	0.08512517
239	0x3cb160d6	0.02165262
240	0xbe7ed39a	-0.24885407
241	0xbe415f07	-0.18883906
242	0xbe38760a	-0.18013778
243	0x3e2926ce	0.16518709
244	0xbd8f7577	-0.070048265
245	0xbcd62365	-0.026139924
246	0xbd1e1026	-0.03858962
247	0x3dba4830	0.090958
248	0xbdbfef14	-0.093717724
249	0xbd84061a	-0.06446476
250	0xbd49bb41	-0.049250845
251	0x3dd55bc6	0.10417895
252	0x3e161f39	0.14660348
253	0x3e0c1337	0.13679205
254	0x3d9d8a84	0.076924354
255	0xbdbca174	-0.09210482

conv_spa.bias f4 [32]
0	0x3e882649	0.2659171
1	0xbecf7798	-0.4052093
2	0xbc9b839b	-0.018983653
3	0xbcbb86b6	-0.022891384
4	0x3d6162c7	0.055025842
5	0xbd45f9f6	-0.048334084
6	0xbd4816df	-0.048849937
7	0xbe1ad032	-0.15118483
8	0x3c735e8b	0.014854084
9	0xbd284693	-0.04108293
10	0xbe3e3337	-0.18574224
11	0xbd4b3bb5	-0.049617488
12	0xbdb39294	-0.08768192
13	0xbe6bde3e	-0.23033997
14	0x3f2ccbb1	0.6749831
15	0xbe9b33b1	-0.30312875
16	0x3d9610f9	0.07327456
17	0x3e209a32	0.15683821
18	0xbf34a296	-0.70560586
19	0xbe2c3d4e	-0.16820261
20	0x3e7c783d	0.24655242
21	0x3f478626	0.7793907
22	0xbea6295b	-0.32453427
23	0xbde41f74	-0.11138812
24	0x3d0bc604	0.03412439
25	0x3d54944f	0.05189925
26	0xbefa56fd	-0.48894492
27	0xbdbff419	-0.0937273
28	0xbea39074	-0.31946146
29	0x3daa90a9	0.08328373
30	0x3e86ff51	0.26366666
31	0xbe82c385	-0.25539795

conv_spa2.weight f4 [64, 32, 3, 3]
0	0xbcf5e6f5	-0.030017355
1	0x3dffa957	0.12483471
2	0x3c8efee3	0.017455524
3	0x3d34da1d	0.04415332
4	0xbcd90341	-0.02649081
5	0x3d386ee1	0.045027617
6	0xbd015867	-0.031578448
7	0xbd91c6da	-0.07118006
8	0xbcfeb668	-0.031092837
9	0x3dce1060	0.10061717
10	0x3d6c3494	0.05766733
11	0x3d89402f	0.06701695
12	0x3d5ff40d	0.054676104
13	0xbd7cc315	-0.061709482
14	0xbd8caab9	-0.068685
15	0xbd3945e1	-0.045232657
16	0xbd41caeb	-0.04731266
17	0xbd731ba3	-0.05935253
18	0xbba276e9	-0.004958023
19	0xbd16dc85	-0.036831398
20	0x3cfd93b4	0.03095422
21	0xbbb9f42f	-0.005674861
22	0x3ce56b0d	0.028005147
23	0xbca6e3a5	-0.020372221
24	0x3d7b1ed4	0.061308697
25	0x3ccb31f2	0.02480409
26	0xbc7bf8f2	-0.015379177
27	0xbc3c3d06	-0.0114891585
28	0xbcbc1c11	-0.022962602
29	0x3dfe0d97	0.12404936
30	0xbd9065d8	-0.07050675
31	0x3d49c251	0.04925758
32	0x3d6179fe	0.05504798
33	0xbd8bf0df	-0.06833052
34	0xbd2b2e34	-0.04179211
35	0x3bc3cdd5	0.005975465
36	0x3cd3a332	0.025834654
37	0x3c13fa26	0.009031808
38	0xbd155c01	-0.036464695
39	0x3cc4d826	0.024028849
40	0xbd5c10e3	-0.053727042
41	0xbc375dc2	-0.011191787
42	0x3d16a4ad	0.03677814
43	0x3c4cf603	0.012509826
44	0xbd2bd841	-0.041954283
45	0x3cc1f1e2	0.023674909
46	0x3e04fe89	0.12987722
47	0x3ccda486	0.025102865
48	0x3cf82698	0.03029184
49	0x3d1c3f8e	0.038146548
50	0xbb056299	-0.0020352958
51	0xbd779a64	-0.060449973
52	0xbd8ca161	-0.06866718
53	0xbe11eb6c	-0.14249963
54	0xbd4b04d8	-0.049565166
55	0xbba1e3ee	-0.0049405014
56	0x3d946008	0.07244879
57	0xbd06e9a9	-0.03293768
58	0xba772d2e	-0.00094290345
59	0x3d805f45	0.06268171
60	0x3ba2dfbd	0.0049705193
61	0x3d8bbe82	0.06823446
62	0xbd445161	-0.04792917
63	0xbbbc4f1c	-0.0057467353
64	0x3d547f60	0.051879287
65	0xbd2a05ca	-0.041509427
66	0x3ceb4f38	0.028724298
67	0x3ce075bc	0.02739989
68	0xbd93e9d5	-0.07222334
69	0x3d175bd6	0.036952816
70	0xbd0c996b	-0.034326
71	0xbc70e9d1	-0.014704184
72	0xbe0dda2e	-0.1385276
73	0xbdeabfb8	-0.11462349
74	0xbda00cf3	-0.0781497
75	0xbd72eb72	-0.05930657
76	0x3c9334f4	0.017969586
77	0x3cc9c450	0.024629742
78	0x3dd51689	0.10404689
79	0x3d92209b	0.07135125
80	0x3d9cbb37	0.07652896
81	0x3d0ebdbc	0.034848914
82	0x3cc036e0	0.023463666
83	0x3c271dc3	0.010199967
84	0x3d807a8f	0.06273376
85	0x3b70cd90	0.0036743619
86	0xbd049556	-0.03236898
87	0x3d51e167	0.05124035
88	0xbd97d15f	-0.07412981
89	0xbd10bce9	-0.03533641
90	0xbd5dcdf6	-0.054151498
91	0xbce619ab	-0.028088411
92	0x3ce8e5f4	0.028429963
93	0x3d92948e	0.07157241
94	0xbd1fc377	-0.03900477
95	0xbd0597d3	-0.032615494
96	0x3cf9c253	0.030488169
97	0x3d4350f4	0.047684625
98	0x3d267e01	0.04064751
99	0xbe0b6255	-0.1361173
100	0xbe422c86	-0.18962297
101	0xbe2250b0	-0.15851092
102	0x3d78e9a0	0.060769677
103	0x3cd22355	0.025651613
104	0x3da5daa5	0.08098344
105	0x3dd0e1a6	0.10199289
106	0x3de7c0b5	0.11316053
107	0x3de9abb3	0.11409702
108	0xbcc2c681	-0.023776295
109	0xbcaf50ee	-0.021400895
110	0xbdace670	-0.0844239
111	0x3dbd67ba	0.092483
112	0x3d1b9603	0.03798486
113	0xbc9cc414	-0.019136466
114	0x3d970980	0.07374859
115	0xbd490cbe	-0.049084418
116	0xbd8bfe9a	-0.06835671
117	0x3d5db395	0.05412634
118	0x3d9c0ba1	0.076194055
119	0x3d94c12f	0.07263409
120	0xbd2368e0	-0.03989494
121	0xbd379534	-0.044820026
122	0x3d8d0420	0.068855524
123	0xbc0edf7b	-0.008720274
124	0xbd9cd659	-0.07658071
125	0xbe11e6f0	-0.14248252
126	0x3d9ba319	0.07599468
127	0x3e7bf068	0.24603426
128	0x3e53f2c1	0.20698072
129	0xbdfba7ce	-0.122878656
130	0xbe1966a9	-0.14980568
131	0xbd2c7388	-0.042102367
132	0x3d94abe7	0.0725935
133	0xbd5f73c9	-0.05455378
134	0xbd359491	-0.044331137
135	0xbd02f0a9	-0.031967793
136	0x3c89c163	0.016815847
137	0x3d141cba	0.03616021
138	0x3b2a21f8	0.0025960188
139	0xbd230d86	-0.03980782
140	0x3c8370e8	0.016045049
141	0x3cd85866	0.02640934
142	0xbd503681	-0.05083323
143	0xbcc20509	-0.023684042
144	0xbd12d41c	-0.035846815
145	0x3d35424a	0.04425267
146	0x3dd03d45	0.10167936
147	0xbc2803e0	-0.01025483
148	0x3d4f1464	0.050556555
149	0x3d82b17d	0.063815095
150	0xbd0fa996	-0.03507384
151	0x3c1048cb	0.008806418
152	0xbdad581f	-0.084640734
153	0x3e483c0c	0.19554156
154	0xbb0ca3c2	-0.0021459912
155	0xbdec5eba	-0.11541505
156	0x3c1f8d72	0.009738313
157	0xbd7408c7	-0.059578683
158	0xbe0836ee	-0.13302204
159	0xbdd4ec05	-0.1039658
160	0x3c2e60da	0.010643208
161	0x3da80f0a	0.082059935
162	0x3da1a26e	0.07892309
163	0xbc330b3a	-0.01092797
164	0xbcaab5aa	-0.020838577
165	0xbd3a2a5d	-0.045450557
166	0x3ce58b21	0.028020443
167	0x3c7874d0	0.015164569
168	0xbe0fdb9f	-0.14048623
169	0x3d879e66	0.06622009
170	0x3e2ecd75	0.17070563
171	0xbcb59efb	-0.022170534
172	0xbd7cd5bc	-0.06172727
173	0xbcc77b56	-0.024350803
174	0x3c2635d7	0.010144672
175	0x3d642f66	0.055709265
176	0x3c6e392b	0.014539997
177	0x3da173e8	0.078834355
178	0x3d2d9ad0	0.04238397
179	0xbdc61c2a	-0.096733406
180	0xbd6e213d	-0.058137167
181	0xbda54b81	-0.08071042
182	0x3c954e0b	0.01822569
183	0xbdab9db1	-0.083796866
184	0xbcde51c2	-0.027138595
185	0xbd529c51	-0.051418606
186	0x3d9a8dbb	0.07546564
187	0x3dc3afba	0.095550016
188	0x3cfe7586	0.031061899
189	0x3e2c4fdd	0.1682734
190	0x3dda636c	0.106634945
191	0x3d4534c0	0.04814601
192	0x3d3a2459	0.04544482
193	0x3a49bb16	0.00076954195
194	0xbcdc2e2e	-0.026877489
195	0xbdd99f4e	-0.10626088
196	0xbe00e8b1	-0.12588765
197	0xbe1d74ba	-0.15376559
198	0x3ac8802a	0.0015296985
199	0xbb47b6a3	-0.003047385
200	0x3d126402	0.035739906
201	0x3c67cab8	0.014147453
202	0xbc1bb080	-0.00950253
203	0xbbd45a11	-0.0064804633
204	0x3cd1c41a	0.025606204
205	0xbd31c5e1	-0.043401603
206	0x3d500a59	0.05079112
207	0x3d5c7b16	0.05382832
208	0x3e04ec47	0.12980758
209	0x3c3179ef	0.010832294
210	0x3d673827	0.056450035
211	0x3d3fbcc3	0.046810877
212	0x3cc5ec01	0.024160387
213	0xbd922b23	-0.07137134
214	0xbc415678	-0.011800401
215	0xbdda2e83	-0.10653403
216	0x3dd8e4ae	0.10590492
217	0x3d9ce89b	0.076615535
218	0x3d8d03ce	0.06885491
219	0xbc3963a4	-0.01131526
220	0xbd675321	-0.056475762
221	0xbd30541b	-0.04304896
222	0xbd93bdec	-0.07213959
223	0xbda1a58f	-0.07892906
224	0xbba08bf4	-0.004899496
225	0xbd215d3a	-0.03939555
226	0x3b11cd00	0.0022247434
227	0xbd088e81	-0.033339027
228	0x3d04d5e3	0.03243054
229	0xbd12aeaf	-0.035811123
230	0xbd70e4ab	-0.058811825
231	0x3d3cf6d9	0.04613385
232	0xbc29eec6	-0.010371869
233	0x3d05fc0e	0.03271108
234	0xbda11919	-0.07866115
235	0xbc9af22a	-0.018914301
236	0x3dfeb469	0.12436754
237	0x3b75e5e8	0.0037521068
238	0xbcee662b	-0.029101452
239	0x3d4f5f3e	0.05062794
240	0xbd8d3b51	-0.06896079
241	0x3a850afe	0.0010150371
242	0xbc419f6f	-0.011817797
243	0xbdb48579	-0.088145204
244	0x3db1855d	0.08668015
245	0x3dba8bca	0.09108694
246	0xbdc75350	-0.097326875
247	0xbcc7015d	-0.024292642
248	0x3c2948da	0.010332311
249	0x3d01230c	0.031527564
250	0x3cb92fd4	0.022605814
251	0xbd95c2df	-0.07312559
252	0x3e03aa8f	0.12858032
253	0x3e107433	0.14106826
254	0x3d9015a8	0.070353806
255	0xbd60d9ba	-0.05489514

conv_spa2.bias f4 [64]
0	0x3e636adf	0.22208737
1	0x3e20856d	0.15675898
2	0x3e9eabb9	0.3099039
3	0x3c9fa926	0.019489836
4	0x3def6272	0.11688699
5	0xbc63b6a9	-0.01389853
6	0x3efe183c	0.49627864
7	0x3ea5f901	0.32416537
8	0xbdc160c3	-0.09442284
9	0x3e907673	0.2821537
10	0x3d821ca6	0.063531205
11	0xbf308a24	-0.68960786
12	0x3e23eb8e	0.16007826
13	0x3db1f722	0.08689715
14	0xbce182b3	-0.027528143
15	0x3e41cd11	0.18925883
16	0x3e92a2fd	0.28639975
17	0x3d7d896b	0.06189863
18	0x3eb052f3	0.34438285
19	0x3f3b02a3	0.730509
20	0x3d261151	0.040543858
21	0x3e01cb8a	0.126753
22	0xbf8e7b06	-1.1131294
23	0x3da464f7	0.0802707
24	0x3cf8d610	0.03037551
25	0xbea18218	-0.31544566
26	0x3f3a14c3	0.7268793
27	0xbf0c1ce7	-0.547316
28	0x3efc6583	0.49296197
29	0x3e747082	0.23871043
30	0x3e914075	0.2836949
31	0xbe242929	-0.16031326
32	0xbe448950	-0.19193006
33	0xbf26a371	-0.6509314
34	0x3f8ffdc7	1.1249322
35	0x3ccd3efd	0.02505445
36	0x3eb0de44	0.34544575
37	0xbe9abbb9	-0.30221346
38	0x3f07b44d	0.5300949
39	0x3f88918c	1.0669417
40	0x3ecf4246	0.4048025
41	0xbe24ddd8	-0.16100252
42	0xbe704c17	-0.23466526
43	0x3ea9704f	0.33093497
44	0x3e19285b	0.149568
45	0xbd59fb52	-0.053218193
46	0xbd9a4ea0	-0.07534528
47	0xbdabeb8a	-0.08394535
48	0x3e29ec97	0.16594158
49	0xbf2d134b	-0.67607564
50	0xbd653582	-0.055959232
51	0xbf1f9fe3	-0.6235334
52	0xbd71460f	-0.058904704
53	0x3f0f6650	0.5601549
54	0xbd8186c9	-0.06324536
55	0x3ec29307	0.38002798
56	0xbeafdf47	-0.34350035
57	0x3eadc4b6	0.3393914
58	0x3eacbb83	0.3373681
59	0x3d248652	0.04016716
60	0x3dffbad9	0.1248681
61	0x3e2dfae8	0.16990244
62	0xbc48be00	-0.012252331
63	0xbd72c485	-0.059269447

conv_fre.weight f4 [32, 3, 3, 3]
0	0xbc61dc59	-0.013785445
1	0xbdb388ec	-0.0876635
2	0x3e16aed6	0.14715132
3	0x3d9338f0	0.07188594
4	0xbbeb4624	-0.0071799923
5	0xbe2d0ac2	-0.16898635
6	0xbdd75d3b	-0.10515829
7	0x3dd6414c	0.10461673
8	0xbce8a839	-0.028400527
9	0xbe3602c5	-0.17774494
10	0x3e3f3d99	0.18675841
11	0xbe87eda4	-0.26548493
12	0xbde26130	-0.11053693
13	0xbd7b8432	-0.06140537
14	0x3e831ac9	0.25606373
15	0x3d29df45	0.041472692
16	0xbe4afb8f	-0.19822524
17	0x3df445d8	0.11927384
18	0x3e4d0e46	0.20024976
19	0xbe271e4c	-0.16320151
20	0x3e67c1bf	0.22632502
21	0x3d46d75f	0.048545238
22	0x3c6f6230	0.014610812
23	0xbe022097	-0.12707745
24	0x3e0191c6	0.12653264
25	0x3e593cd7	0.21214615
26	0xbd43331b	-0.04765616
27	0xbd6b2f36	-0.05741807
28	0xbe4f17b7	-0.2022389
29	0xbdb11e9b	-0.08648416
30	0x3e1d3e86	0.15355882
31	0x3e01e491	0.12684847
32	0x3e01bd8f	0.12669967
33	0x3dff69f8	0.12471384
34	0x3e60463c	0.21901792
35	0xbd19e9af	-0.037576374
36	0xbdf2b485	-0.118508376
37	0xbd25e618	-0.040502638
38	0x3ce8ff90	0.028442174
39	0xbe19cd96	-0.15019831
40	0x3cb4a4f3	0.02205131
41	0x3dfd9f89	0.123839445
42	0xbc349e43	-0.011024061
43	0xbb48f30d	-0.0030662448
44	0xbda7568c	-0.081708044
45	0x3e32e3c6	0.17469701
46	0x3e7b3b37	0.24534307
47	0x3d4c04c4	0.049809232
48	0x3befd54f	0.0073191295
49	0xbe14f973	-0.14548282
50	0xbe803e5e	-0.25047582
51	0xbdf1eafb	-0.11812397
52	0xbe5cbbb6	-0.21555981
53	0x3e021e61	0.12706901
54	0x3d10f220	0.03538716
55	0x3dda83ba	0.10669656
56	0xbd127dd6	-0.035764538
57	0x3e9cb964	0.30610192
58	0x3da8ee1f	0.08248543
59	0xbe4a296a	-0.1974236
60	0xbe653069	-0.22381748
61	0x3e1d44e2	0.15358308
62	0xbdeab511	-0.11460317
63	0x3de47fb1	0.11157168
64	0x3dd31362	0.10306431
65	0xbc9db39d	-0.019250685
66	0xbe814519	-0.2524803
67	0xbe197b48	-0.14988434
68	0xbdae8d57	-0.08523052
69	0x3dada6b3	0.08479061
70	0xbe0f0320	-0.13966036
71	0xbd814a48	-0.06312996
72	0xbdd67dcb	-0.10473212
73	0xbe1a6f6a	-0.15081564
74	0x3c32761b	0.010892416
75	0xbda761ea	-0.081729725
76	0xbc5cfda6	-0.013488209
77	0x3e841a3b	0.25801262
78	0x3e0db249	0.13837542
79	0x3e1c3d82	0.15257838
80	0x3deb580c	0.11491403
81	0xbd6a871a	-0.05725775
82	0x3e3abba8	0.18235648
83	0x3b6e0cef	0.0036323627
84	0xbc8144e7	-0.015779926
85	0xbdbdf94c	-0.09276065
86	0xbd9d24d6	-0.076730415
87	0x3e38dea2	0.18053678
88	0x3dbefb90	0.093253255
89	0xbe05167e	-0.12996861
90	0x3cf7f40f	0.030267743
91	0xbe0aff83	-0.13574032
92	0xbe10ce39	-0.14141168
93	0xbda05726	-0.07829122
94	0xbe3a76d7	-0.18209396
95	0x3c2c81ba	0.010528976
96	0xbe5eac3f	-0.21745394
97	0xbe3258cb	-0.17416684
98	0xbe233387	-0.15937625
99	0x3e0736fb	0.13204567
100	0x3e4570a9	0.19281258
101	0x3dde646f	0.10859
102	0x3df549f1	0.11976994
103	0x3d1c3d56	0.038144432
104	0x3e34a7a4	0.17642075
105	0x3a03f0b1	0.0005033119
106	0x3e34fbac	0.1767413
107	0xbc3fbeb3	-0.011703181
108	0xbe0b126b	-0.13581245
109	0xbde993e3	-0.1140516
110	0xbde15a74	-0.11003581
111	0xbdea92f4	-0.1145381
112	0xbe10b6f6	-0.14132294
113	0xbd9d4c62	-0.076805845
114	0xbd5a63f8	-0.053317994
115	0xbe1afc42	-0.15135291
116	0x3d4f3358	0.050586075
117	0xbdabf2bc	-0.08395907
118	0x3e362dd1	0.17790915
119	0x3d9ab924	0.07554844
120	0x3c84ea92	0.016225133
121	0xbc99dadf	-0.018781124
122	0xbab11511	-0.0013510307
123	0xbe1dd53f	-0.15413378
124	0x3e18b214	0.14911681
125	0x3e675c17	0.22593723
126	0x3de03cde	0.109491095
127	0xbb9ee321	-0.004848853
128	0x3e32b5ba	0.17452136
129	0xbdea3fed	-0.11437974
130	0x3e5ba3e9	0.21449246
131	0xbdeb7fe8	-0.114990056
132	0x3c67dd82	0.014151933
133	0x3e1eb939	0.15500344
134	0xbd836a98	-0.064168155
135	0xbc214379	-0.009842747
136	0x3d647282	0.055773266
137	0xbd5a12f6	-0.05324074
138	0xbe5be176	-0.21472725
139	0xbe09b41b	-0.13447611
140	0xbe40aa67	-0.18815003
141	0xbe08a975	-0.13345893
142	0x3c8075c4	0.015681155
143	0x3d61205e	0.05496251
144	0x3e51c32d	0.2048461
145	0xbde7b658	-0.11314076
146	0x3e120b4c	0.14262122
147	0x3e2b1ec3	0.16710953
148	0x3dca8183	0.09887984
149	0xbe0684e7	-0.13136636
150	0xbe412413	-0.18861417
151	0xbd0da652	-0.034582444
152	0xbdc53c5d	-0.09630654
153	0xbdf7c030	-0.12097204
154	0xbe500d53	-0.20317583
155	0x3da0cdbe	0.07851742
156	0x3e3d48da	0.18484822
157	0x3e19cab7	0.15018736
158	0x3e3e3391	0.18574359
159	0x3d574c8c	0.052563235
160	0x3db82af6	0.08992569
161	0x3e56cf93	0.20977621
162	0xbb8ca00d	-0.0042915405
163	0xbd77602b	-0.060394447
164	0xbe505b0f	-0.20347236
165	0xbd68986b	-0.056785982
166	0xbe30abc3	-0.17253022
167	0xbe1afe07	-0.15135966
168	0x3de848e7	0.1134203
169	0xbcf2b4f3	-0.029627299
170	0x3e34e9cd	0.17667313
171	0xbd8ec3ec	-0.06970963
172	0xbe63f9be	-0.22263238
173	0xbe3e49da	-0.1858286
174	0xbc12f379	-0.008969181
175	0xbb955161	-0.0045568203
176	0x3b9d63fa	0.004803178
177	0xbdcc81fd	-0.09985731
178	0x3e1d2dc2	0.15349486
179	0x3dec4d8e	0.1153823
180	0x3e48a27a	0.1959323
181	0x3e42b20a	0.19013229
182	0xbd108a09	-0.03528789
183	0x3df3762f	0.11887776
184	0x3dbe27e7	0.092849545
185	0xbdda06ca	-0.10645826
186	0xbb07d94d	-0.0020728887
187	0x3d2d95eb	0.0423793
188	0x3e5545b6	0.20827374
189	0xbe7c9b37	-0.24668585
190	0x3d62f146	0.055405878
191	0xbb55b067	-0.0032606365
192	0x3e3cd8fb	0.18442146
193	0xbe4fc23e	-0.20288941
194	0xbe73e49c	-0.23817676
195	0x3e3b0f03	0.18267445
196	0x3be6d8ca	0.0070448862
197	0xbdb5f7a9	-0.08885128
198	0x3e627440	0.22114658
199	0xbd2f683e	-0.042824022
200	0xbd808cbf	-0.06276845
201	0xbda09575	-0.07841007
202	0x3e7cc671	0.24685074
203	0x3e203e3c	0.1564874
204	0x3b137bae	0.0022504139
205	0xbe093d52	-0.13402298
206	0x3e0028fe	0.12515637
207	0x3d3aa899	0.045570944
208	0xbc8b72a3	-0.017022436
209	0x3db4a2c8	0.088201106
210	0xbdde868f	-0.10865509
211	0xbc79f615	-0.015256424
212	0x3e24e923	0.1610456
213	0xbe517e27	-0.2045828
214	0x3e01a584	0.12660795
215	0x3ae72b6a	0.001763684
216	0xbe2d4915	-0.1692241
217	0x3d587dfa	0.052854516
218	0xbc83617b	-0.016037693
219	0xbdff048a	-0.12452038
220	0x3e3007d8	0.17190492
221	0xbdb5fa94	-0.088856846
222	0xbd9b429b	-0.07581063
223	0x3d886237	0.06659358
224	0x3e0a4045	0.1350108
225	0x3edafdee	0.42771858
226	0xbe352a56	-0.17691931
227	0xbd9f6d92	-0.07784571
228	0x3b3c483b	0.0028729576
229	0x3dc1a27b	0.09454819
230	0x3cd246f6	0.025668602
231	0x3e677432	0.22602919
232	0xbe15bc31	-0.1462257
233	0xbd81ecb1	-0.063439734
234	0xbe455e26	-0.19274196
235	0x3dd6c058	0.104859054
236	0x3da50996	0.08058469
237	0x3d1377c6	0.036002897
238	0xbe06b2b9	-0.13154115
239	0x3c8b2950	0.016987473
240	0xbd9c1328	-0.07620841
241	0xbcf72f5d	-0.030173952
242	0xbd0c8a0c	-0.03431134
243	0xbdcce57d	-0.10004709
244	0xbe3c1e54	-0.18370944
245	0x3e82fbd1	0.25582746
246	0xbdb90b7a	-0.09035392
247	0x3db34e2b	0.08755144
248	0x3dfe463f	0.12415742
249	0xbde77270	-0.11301124
250	0xbdfb11a2	-0.122592226
251	0x3e0bca5d	0.13651414
252	0x3c3777cf	0.011197998
253	0x3d1cf368	0.038318068
254	0xbde6bbad	-0.11266265
255	0xbd406897	-0.046974745

conv_fre.bias f4 [32]
0	0x3d382591	0.0449577
1	0x3cd38c3c	0.025823705
2	0xbe815e6e	-0.25267357
3	0xbe257fe0	-0.16162062
4	0x3ec3eb4f	0.38265464
5	0xbdfdc380	-0.12390804
6	0x3dcf1867	0.10112076
7	0x3edb7f7e	0.42870706
8	0xbd555c7b	-0.05209015
9	0x3e9dbe7c	0.3080939
10	0x3e96acf1	0.2942882
11	0xbe64f0ab	-0.22357433
12	0xbedff97d	-0.43745032
13	0xbea86441	-0.32888988
14	0xbc77f6c4	-0.015134517
15	0x3dd0f5ce	0.102031335
16	0x3eb16119	0.34644392
17	0xbe147e23	-0.14501242
18	0x3ee11477	0.43960926
19	0xbd7e8e2a	-0.062147297
20	0x3e18875f	0.1489539
21	0xbe8a5b0e	-0.27022594
22	0xbde3501c	-0.11099264
23	0xbe73200b	-0.23742692
24	0xbd0e67e4	-0.034767047
25	0xbdf63eb2	-0.12023677
26	0x3e5a5e46	0.21325025
27	0xbe61ed0a	-0.2206308
28	0x3e98ac13	0.29818782
29	0xbeca1c8d	-0.39474908
30	0x3ba1d0e2	0.004938231
31	0xbea1eb80	-0.31624985

conv_fre2.weight f4 [64, 32, 3, 3]
0	0x3bba6d86	0.0056893257
1	0x3d77cfa9	0.060500775
2	0xbcaac75e	-0.020847019
3	0x3d80676b	0.062697254
4	0x3dc03c8b	0.09386548
5	0xbd3bf7e0	-0.04589069
6	0x3c89da81	0.016827824
7	0xbcf7018a	-0.030152101
8	0x3d1c13d1	0.038104836
9	0x3bd8f343	0.006620796
10	0xbd9fc7a1	-0.07801748
11	0x396b4087	0.00022435385
12	0xbd4dda2e	-0.0502569
13	0x3cf76b02	0.030202392
14	0x3d22ea5d	0.039774287
15	0xbdfaf77d	-0.12254236
16	0x3d17e159	0.037080143
17	0x3d018a63	0.031626116
18	0x3de262ab	0.11053976
19	0xbc3f5eb8	-0.011680298
20	0xbd2973fa	-0.04137037
21	0x3d239b36	0.039942943
22	0xbd7473dc	-0.059680805
23	0x3dcca237	0.099918775
24	0xbca464d4	-0.02006761
25	0xbd648267	-0.055788424
26	0xbd5b76a3	-0.053579938
27	0x3e130f9a	0.1436142
28	0x3d74fe9e	0.059813134
29	0x3d73ee7b	0.059553605
30	0xbde8c83a	-0.11366315
31	0xbc91379f	-0.017726718
32	0xbd98da70	-0.07463539
33	0x3e2a8470	0.16652083
34	0xbcebff5c	-0.028808288
35	0x3d416655	0.047216732
36	0xbbc4283e	-0.0059862426
37	0xbcf58031	-0.029968353
38	0x3dbf3f36	0.093382284
39	0x3cf2998e	0.029614236
40	0x3dabfd2a	0.083978966
41	0xbb01c54d	-0.0019801438
42	0x3d6a4861	0.057197932
43	0x3d877642	0.06614353
44	0x3e0d01f5	0.13770278
45	0x3d9829c9	0.07429845
46	0xbc93e60c	-0.01805403
47	0x3d0d68c5	0.034523744
48	0x3d2a9e02	0.041654594
49	0xbd5b3afe	-0.053523056
50	0xbdf84cf8	-0.121240556
51	0x3d387e7d	0.045042504
52	0xbb04145c	-0.0020153737
53	0xbc4179c2	-0.0118088145
54	0xbd988ad9	-0.07448358
55	0xbd407b23	-0.046992432
56	0xbe853607	-0.26017782
57	0x3d31c020	0.043396115
58	0x3c4575eb	0.01205204
59	0x3cbd0736	0.023074728
60	0x3d3aa1d4	0.045564488
61	0x3dce30c9	0.10067899
62	0x3dfeaf75	0.124358095
63	0x3e0ad171	0.13556458
64	0x3e0defb6	0.13860974
65	0xbbcec520	-0.00631012
66	0x3e379e0b	0.17931382
67	0xbd572f4a	-0.052535333
68	0x3da3ac67	0.079918675
69	0x3dc0e247	0.09418159
70	0x3dc99d20	0.09844422
71	0x3dab73d8	0.08371705
72	0x3b3929ff	0.0028253791
73	0xbd9b38ee	-0.07579218
74	0x3c57b90e	0.013166679
75	0x3e2267a3	0.15859847
76	0xbe61f9b8	-0.22067916
77	0x3e056115	0.13025315
78	0x3c4a6755	0.012353738
79	0xbd77fefc	-0.060545906
80	0x3d249a94	0.04018648
81	0xbe442b25	-0.19157083
82	0x3e15624e	0.14588282
83	0xbc6c7a13	-0.014433402
84	0xbc4698da	-0.012121404
85	0x3d648a5a	0.055796005
86	0xbd409671	-0.047018472
87	0xbca40db9	-0.020026075
88	0x3c9a7112	0.018852744
89	0xbe11428e	-0.14185545
90	0xbdd94f2a	-0.106108025
91	0xbc646644	-0.013940398
92	0x3de0bcd0	0.10973513
93	0xbd575dda	-0.05257974
94	0x3d873634	0.06602135
95	0x3daa6e6e	0.08321844
96	0xbd4ab353	-0.049487423
97	0x3d9b37fb	0.07579037
98	0xbd6e7850	-0.058220208
99	0x3d6eca23	0.05829824
100	0x3ceb3f12	0.028716598
101	0xbcffe3d0	-0.03123656
102	0x3ddd7bd9	0.10814638
103	0x3cdd08ef	0.026981799
104	0x3dfd325d	0.12363122
105	0xbd94c7d0	-0.07264674
106	0x3c6ba9db	0.014383758
107	0x3cc0d3a5	0.02353842
108	0x3db76d8b	0.089564405
109	0xbd93f09c	-0.07223627
110	0x3e84df6b	0.25951704
111	0xbd691504	-0.056904808
112	0x3ba150f2	0.0049229795
113	0x3d88eaa3	0.066853784
114	0xbdbb54f7	-0.09147065
115	0xbd3f89e9	-0.04676238
116	0xbdcc0137	-0.09961169
117	0xbca64db8	-0.020300731
118	0x3d1148f8	0.03546998
119	0xbe1d77d1	-0.15377738
120	0x3c868e5a	0.0164253
121	0x3e1c5854	0.1526807
122	0xbdb90491	-0.09034074
123	0xbe2397d0	-0.1597588
124	0xbcb85569	-0.022501664
125	0xbb087f17	-0.0020827705
126	0x3c185f66	0.0093000885
127	0xbd6f9ee9	-0.058501158
128	0xbe335aa3	-0.17515044
129	0x3b79e300	0.0038129687
130	0x3c9ffa69	0.019528585
131	0xbd916ee5	-0.071012296
132	0xbd96671a	-0.07343884
133	0x3d556ff0	0.052108705
134	0x3c01fa7b	0.007933254
135	0xbd84b0e4	-0.06479052
136	0xbdc563a0	-0.096381426
137	0x3cb73d6a	0.022368152
138	0x3d9470aa	0.072480515
139	0xbc6af4ad	-0.014340562
140	0x3d96afa7	0.07357722
141	0xbd5e169e	-0.05422079
142	0x3de48999	0.11159057
143	0xbe13cc29	-0.1443335
144	0x3d206cd6	0.039166294
145	0xbe1aea95	-0.15128548
146	0x3df71848	0.12065178
147	0x3dbdebde	0.09273504
148	0xbe0ee376	-0.13953957
149	0x3da38cf5	0.0798587
150	0x3d6499a4	0.055810586
151	0xbda34af0	-0.079732776
152	0x3cf280a6	0.02960236
153	0x3d8b124d	0.067906
154	0x3d397fda	0.045287944
155	0x3d93c392	0.072150365
156	0xbe3a026d	-0.18164988
157	0xbe00edc8	-0.12590706
158	0xbb5e4b35	-0.0033919339
159	0x3dc03d14	0.0938665
160	0x3dfa3c59	0.12218542
161	0x3d64e6c1	0.055884127
162	0xbb38f555	-0.00282224
163	0xbdae101d	-0.08499167
164	0xbd16b674	-0.036795095
165	0xbd6b8514	-0.05749996
166	0xbda377c1	-0.079818256
167	0xbd9290ff	-0.07156562
168	0xbdd9ee74	-0.106411844
169	0x3dc56a91	0.096394666
170	0xbcbef0a5	-0.023308108
171	0x3c1e5042	0.00966269
172	0xbd6e454e	-0.058171563
173	0x3d6bad37	0.057538237
174	0x3dc91216	0.09817903
175	0xbc38d2b5	-0.011280705
176	0x3d38fc8f	0.045162734
177	0xbc8cc11e	-0.01718193
178	0xbdfeeaa6	-0.124470994
179	0x3cd4a3c2	0.025956992
180	0x3dcae2bf	0.0990653
181	0xbd04488c	-0.03229575
182	0xbaad2bf3	-0.001321195
183	0x3d935394	0.07193676
184	0x3cefc4ec	0.029268704
185	0x3dc5574d	0.09635792
186	0x3d1400a5	0.036133427
187	0xbd2f0aa7	-0.04273477
188	0x3d184ef6	0.037184678
189	0x3d988b93	0.07448497
190	0x3d1c5f91	0.038177077
191	0xbddd6168	-0.108095944
192	0x3d8063ee	0.0626906
193	0xbe14a5a5	-0.14516313
194	0x3cfe5717	0.031047387
195	0x3e189a36	0.14902577
196	0x3d8a4913	0.06752219
197	0x3d95cd85	0.0731459
198	0xbca528a2	-0.020160977
199	0xbd20cfaa	-0.039260544
200	0xbc2a1191	-0.010380165
201	0xb7749128	-1.457733e-05
202	0x3d4a7eb8	0.049437255
203	0xbd866722	-0.0656264
204	0xbd61ce36	-0.0551283
205	0x3da5fcb9	0.08104844
206	0x3d2fa48f	0.042881545
207	0x3d8794a5	0.066201486
208	0xbd6e73de	-0.05821597
209	0x3d526bd6	0.05137237
210	0x3d9aa47f	0.075509064
211	0xbc5c4038	-0.013443045
212	0x3b8a9f80	0.0042304397
213	0xbd13fbc2	-0.036128767
214	0xbd6ccbd9	-0.05781159
215	0xbd798990	-0.060922205
216	0xbc601647	-0.013677186
217	0x3e1bd86f	0.15219282
218	0xbd8ce88a	-0.06880291
219	0x3d5b49a9	0.053537045
220	0xbdcf891d	-0.10133574
221	0xbd4317f8	-0.04763028
222	0xbe1380e8	-0.14404643
223	0xbd59fd8e	-0.053220324
224	0xbdb269ec	-0.08711609
225	0xbdbc68e3	-0.09199693
226	0x3e1d7e20	0.15380144
227	0xbd5204ee	-0.051274233
228	0xbe418880	-0.18899727
229	0xbd85e05a	-0.06536932
230	0x3b958374	0.0045627896
231	0xbd997110	-0.07492268
232	0x3e0e7374	0.1391123
233	0x3caecab9	0.0213369
234	0xbd8e28c0	-0.06941366
235	0xbce059b7	-0.02738653
236	0x3d6b988d	0.05751853
237	0xbd25cbc6	-0.040477537
238	0xbda59b23	-0.080862306
239	0xbc58655b	-0.013207759
240	0x3db15ac1	0.08659888
241	0x3dae4c4f	0.085106485
242	0xbd01731f	-0.03160393
243	0x3d53dc38	0.05172369
244	0x3d4b89dd	0.049692024
245	0xbb971a97	-0.004611324
246	0xbd218207	-0.039430644
247	0x3c871341	0.016488673
248	0xbd2351c1	-0.03987289
249	0xbd0a5d2f	-0.033780273
250	0xbdad3186	-0.084567115
251	0xbd5b920e	-0.053606085
252	0x3cbb4c8a	0.022863645
253	0x3d5fa7ea	0.054603495
254	0xbdb94ff5	-0.09048454
255	0xbdd7b836	-0.10533182

conv_fre2.bias f4 [64]
0	0xbe186505	-0.14882286
1	0x3e9b8a9d	0.3037919
2	0xbe4d8cd5	-0.20073254
3	0x3e8c95a6	0.27457923
4	0xbd3b7e23	-0.04577459
5	0x3e89ff11	0.26952413
6	0xbe827105	-0.25476852
7	0x3ea32f8e	0.3187222
8	0xbed7ab14	-0.4212271
9	0x3e88ec34	0.2674271
10	0xbe2863ef	-0.16444372
11	0xbeb2e94d	-0.3494362
12	0x3c897602	0.016779903
13	0xbe934f36	-0.2877137
14	0xbe9df116	-0.30847996
15	0xbe1d5f93	-0.1536849
16	0xbe2ded21	-0.16984989
17	0xbe99c02f	-0.30029437
18	0xbed94c32	-0.42440945
19	0xbd5f2ae7	-0.054484274
20	0x3e803271	0.25038484
21	0x3e10ff34	0.14159852
22	0x3e607663	0.21920161
23	0xbeb9a824	-0.36261094
24	0xbd74bb22	-0.059748776
25	0xbe227f56	-0.15868887
26	0x3e344a6d	0.17606516
27	0xbecbf29c	-0.39833534
28	0xbec0cbc7	-0.3765547
29	0x3dedab6f	0.11604964
30	0xbe6e5849	-0.23275866
31	0x3c586200	0.013206959
32	0xbebd0407	-0.36917135
33	0xbe8fcdd4	-0.28086722
34	0x3e00dc0a	0.12583938
35	0x3ebe7898	0.3720138
36	0xbe9c7284	-0.30556118
37	0x3ec44ed0	0.3834138
38	0x3e390b9c	0.18070835
39	0x3e3c3fe7	0.18383752
40	0x3e5fd386	0.21858034
41	0xbecddde4	-0.40208352
42	0x3e1d34ec	0.1535222
43	0xbd526201	-0.051362995
44	0x3ea1e967	0.31623384
45	0x3dad7486	0.08469491
46	0xbebddfce	-0.37084812
47	0x3d2dcca7	0.0424315
48	0x3e7051b3	0.23468666
49	0x3ea373c8	0.31924272
50	0xbe288a27	-0.16458951
51	0x3e025d7b	0.12730972
52	0x3e8db240	0.27675056
53	0x3e38cd8c	0.1804716
54	0x3e736858	0.23770273
55	0xbe3daf96	-0.18524012
56	0xbdd7525f	-0.10513758
57	0x3db021bf	0.086001866
58	0x3e85e742	0.26152998
59	0x3ebf31f2	0.37342793
60	0xbe80b344	-0.2513677
61	0xbe899176	-0.2686879
62	0x3dd2c8f8	0.10292238
63	0xbeb3c632	-0.3511215

BN.weight f4 [64]
0	0x3ef7c35b	0.48391232
1	0x3f1a28e5	0.6021865
2	0x3e8f248b	0.27957568
3	0x3e795a75	0.24350913
4	0x3f248426	0.6426414
5	0x3f64efc1	0.89428335
6	0x3efc02f4	0.49221003
7	0x3f043a6f	0.5165166
8	0x3f38e93d	0.72230893
9	0x3eef98a3	0.4679614
10	0x3f120cf6	0.57051027
11	0x3f30e3ba	0.69097483
12	0x3f18aac4	0.5963557
13	0x3f34c2df	0.7060985
14	0x3f0cd1d2	0.5500766
15	0x3f61a565	0.88143
16	0x3f19960e	0.5999459
17	0x3f4368b3	0.76331633
18	0x3f3eaf93	0.74486655
19	0x3f46d912	0.77674973
20	0x3f3ac90b	0.7296302
21	0x3f197440	0.5994301
22	0x3f59d8a4	0.8509619
23	0x3f7d3055	0.98901874
24	0x3efe9d33	0.49729308
25	0x3f329116	0.69752634
26	0x3f50da2f	0.8158292
27	0x3f245278	0.6418834
28	0x3f018d56	0.50606287
29	0x3f692c14	0.9108288
30	0x3f2cb120	0.6745777
31	0x3f384ffd	0.7199705
32	0x3f98ffc4	1.1953053
33	0x3f9ebf01	1.240204
34	0x3fbd8bc9	1.4808284
35	0x3fa26f7c	1.2690272
36	0x3f894bfc	1.0726314
37	0x3fb1ef91	1.3901235
38	0x3f9a13aa	1.2037251
39	0x3f99be34	1.201117
40	0x3fc00985	1.5002905
41	0x3faf7e19	1.3710357
42	0x3fd16ab1	1.6360685
43	0x3fa6d66c	1.3034186
44	0x3f9fbbc0	1.2479172
45	0x3fa365d7	1.2765454
46	0x3fac5c38	1.3465643
47	0x3fa637c0	1.2985764
48	0x3fabaf17	1.3412808
49	0x3fb4471a	1.4084198
50	0x3f9fa00b	1.2470716
51	0x3f9df2a8	1.2339678
52	0x3f85ecb3	1.046286
53	0x3f9f8a83	1.2464145
54	0x3fb18293	1.3867973
55	0x3fa45d68	1.2841005
56	0x3fa903ef	1.3204325
57	0x3fb954e2	1.4479029
58	0x3fd855a1	1.6901132
59	0x3fa03175	1.2515093
60	0x3f51b901	0.8192292
61	0x3f9814a0	1.1881294
62	0x3fa945bb	1.3224405
63	0x3fab8a97	1.3401669

BN.bias f4 [64]
0	0xbef3d1f8	-0.4762113
1	0xbe591310	-0.21198678
2	0xbe1a3706	-0.15060052
3	0xbca26e88	-0.019828096
4	0xbe760ffb	-0.24029534
5	0xbd75bcbb	-0.05999444
6	0xbedab02b	-0.4271253
7	0xbdc70b43	-0.09718945
8	0xbe864204	-0.2622224
9	0xbea8dcae	-0.32980865
10	0xbec6eae4	-0.38851082
11	0xbea2e21d	-0.31813136
12	0xbec4a1a0	-0.3840456
13	0x3e41ace2	0.18913606
14	0xbee20c1c	-0.44149864
15	0xbeb74278	-0.357929
16	0xbe9d09e4	-0.30671608
17	0xbefc102c	-0.49231088
18	0xbec86bce	-0.39144748
19	0xbe5dd52f	-0.21663354
20	0x3dd699fc	0.10478589
21	0xbec0f7cb	-0.3768905
22	0xbe859562	-0.26090533
23	0x3e0eb3c7	0.13935767
24	0xbdccd558	-0.100016296
25	0xbb1f1dae	-0.0024279165
26	0xbe1e582d	-0.15463324
27	0xbdbdcfe5	-0.09268168
28	0xbf124133	-0.57130736
29	0x3e8a736f	0.27041194
30	0xbc398a25	-0.01132444
31	0xbe19e1d2	-0.1502755
32	0xbe893f30	-0.2680602
33	0xbe3934f2	-0.18086603
34	0x3f7b0ef9	0.9806972
35	0x3f42dabf	0.7611503
36	0x3e816ba3	0.25277433
37	0x3f2f1fb3	0.68407744
38	0x3f10d1a9	0.56569916
39	0xbe938035	-0.28808752
40	0x3f2bf3b6	0.6716875
41	0xbd5320d3	-0.051544975
42	0x3f97aff2	1.1850569
43	0x3e29fe6d	0.16600962
44	0x3e81e238	0.25367904
45	0x3ef4fb20	0.47847843
46	0x3ef04dbc	0.46934307
47	0x3df27be7	0.11840039
48	0x3f69a61a	0.91269076
49	0x3ebc7116	0.36805028
50	0x3f443a22	0.76651204
51	0x3e7d71be	0.2475042
52	0x3ec6d615	0.38835207
53	0xbe1c9caf	-0.15294145
54	0x3ec707d6	0.38873166
55	0x3ef324d8	0.47489047
56	0x3ef19a15	0.47187868
57	0x3ed99e98	0.4250381
58	0x3f8348aa	1.025655
59	0x3f081100	0.5315094
60	0x3e863ba3	0.26217374
61	0x3f3d5c95	0.73969394
62	0x3f1923d4	0.59820294
63	0x3f252d59	0.6452232

BN.running_mean f4 [64]
0	0x3e83ad4e	0.25718158
1	0xbed0f5bc	-0.4081248
2	0xbbd00c57	-0.0063491273
3	0xbc432c88	-0.011912473
4	0x3d42a827	0.047523644
5	0x3cff3052	0.03115097
6	0xbd084c6e	-0.033276014
7	0xbe18ca84	-0.14921004
8	0x3c46aea4	0.0121265985
9	0xbd204fe1	-0.03913868
10	0xbe34c91e	-0.17654845
11	0xbd4ffc8a	-0.05077795
12	0xbda88b57	-0.08229702
13	0xbe5853b1	-0.21125676
14	0x3f2d9d56	0.678182
15	0xbeab6604	-0.3347627
16	0x3d877e29	0.0661586
17	0x3e20a4ce	0.15687868
18	0xbf34295d	-0.70375615
19	0xbe2a5578	-0.16634166
20	0x3e86204b	0.26196513
21	0x3f45dba4	0.7728827
22	0xbe954ff3	-0.2916256
23	0xbd9a5e25	-0.07537488
24	0x3d76ada0	0.060224175
25	0x3ad5cd02	0.0016311707
26	0xbef802c4	-0.4843961
27	0xbdbaea0a	-0.09126671
28	0xbea54af5	-0.3228375
29	0x3df0a3ab	0.11749967
30	0x3e83c3bb	0.25735268
31	0xbe856a84	-0.26057827
32	0xbf23695d	-0.63832647
33	0xbc11a0c6	-0.008888429
34	0xbea87b84	-0.32906735
35	0xbcd5adb7	-0.02608381
36	0x3f3c3d5a	0.73531115
37	0xbe8e0034	-0.2773453
38	0x3dffe529	0.12494881
39	0xbe076e56	-0.13225684
40	0xbe1cef3b	-0.15325634
41	0x3ea5c27c	0.32374942
42	0x3e47c9de	0.195106
43	0xbf4ac64b	-0.7920882
44	0xbf034bd0	-0.51287556
45	0xbee116eb	-0.43962798
46	0xbe7e5942	-0.24838737
47	0x3cbb9995	0.022900382
48	0x3e67f583	0.22652249
49	0xbef049e9	-0.4693139
50	0x3f123fed	0.57128793
51	0xbeb4e739	-0.3533266
52	0x3fe4eb86	1.7884376
53	0xbed104cd	-0.40823975
54	0xbd470958	-0.048592895
55	0xbe90e04b	-0.28296122
56	0xbde59e1b	-0.11211797
57	0xbea512aa	-0.32240802
58	0x3e39be5e	0.18139026
59	0xbea7fd04	-0.32810223
60	0x3ea81b71	0.32833436
61	0xbf1433e6	-0.5789169
62	0xbc977aa0	-0.01849109
63	0xbec6e0c7	-0.38843367

BN.running_var f4 [64]
0	0x3c82bf0d	0.01596024
1	0x3d551b3c	0.052027926
2	0x3d178a22	0.036996968
3	0x3daebe42	0.085323825
4	0x3d4085aa	0.047002472
5	0x3ed4bec5	0.41551796
6	0x3d5798c5	0.052635927
7	0x3df7ea7d	0.12105272
8	0x3cb645ff	0.022250174
9	0x3cb50d75	0.022101143
10	0x3d9550dd	0.07290814
11	0x3cb2b70f	0.021815805
12	0x3dcb35d4	0.09922376
13	0x3de10400	0.10987091
14	0x3c23385f	0.00996217
15	0x3d41bd4c	0.04729967
16	0x3ccc78b6	0.024959903
17	0x3bf84ec1	0.0075777476
18	0x3d0577df	0.03258502
19	0x3d9ff55c	0.078104705
20	0x3d8f93ea	0.07010634
21	0x3cc7f6e9	0.024409728
22	0x3d873976	0.06602757
23	0x3e988d6a	0.2979539
24	0x3dd368fc	0.103227586
25	0x3e51b88d	0.20480557
26	0x3dc47ab6	0.09593718
27	0x3d1bb517	0.038014498
28	0x3c35f090	0.011104718
29	0x3db22873	0.08699121
30	0x3de1cbe0	0.11025214
31	0x3d8aefea	0.06784041
32	0x3e254414	0.16139251
33	0x3df0d0a2	0.117585436
34	0x3e23a4e0	0.15980864
35	0x3e87d880	0.26532364
36	0x3e96407c	0.29346073
37	0x3e8b6d2c	0.2723173
38	0x3f00ad5b	0.5026452
39	0x3e0c4031	0.13696362
40	0x3e0b2829	0.13589539
41	0x3deb858a	0.1150008
42	0x3e10e555	0.14149983
43	0x3e09903d	0.13433929
44	0x3e56ab19	0.20963706
45	0x3e8e9c27	0.2785351
46	0x3eb71440	0.35757637
47	0x3de7ca78	0.11317915
48	0x3e4df57b	0.20113175
49	0x3ead42da	0.33840066
50	0x3f2a9475	0.6663278
51	0x3f130a69	0.5743776
52	0x3ec94044	0.39306843
53	0x3de586d7	0.11207359
54	0x3ebaf87b	0.365177
55	0x3f120cf0	0.5705099
56	0x3eb7986d	0.3585848
57	0x3de468c4	0.11152795
58	0x3db467a4	0.088088304
59	0x3eb73e72	0.3578983
60	0x3df9b42c	0.12192568
61	0x3dd5b7e3	0.10435464
62	0x3e54e392	0.20789936
63	0x3db69372	0.08914842

classifier.layer1.0.weight f4 [32, 64, 3, 3]
0	0xbe0d8f84	-0.13824278
1	0xbdf1a434	-0.117988974
2	0xbe1e48bc	-0.15457433
3	0xbd8449c6	-0.06459384
4	0xbdb53660	-0.08848262
5	0xbe12fa28	-0.1435324
6	0xbd9885ed	-0.07447419
7	0xbd9e3417	-0.07724779
8	0xbe16ce01	-0.14727022
9	0x3d847a52	0.06468643
10	0x3c98fc51	0.018675001
11	0xbd176554	-0.03696187
12	0x3c6e38fc	0.014539953
13	0xbc88705c	-0.01665514
14	0x3b430343	0.0029756583
15	0x3d0799f5	0.03310581
16	0x3c34f774	0.011045326
17	0x3d86da4a	0.06584604
18	0x3b89be5e	0.0042036017
19	0xba742219	-0.0009312942
20	0xbc1718ab	-0.00922219
21	0x3d3a6091	0.04550225
22	0xbcb2c2d8	-0.021821424
23	0x3c5febfd	0.013667104
24	0xbd50aa56	-0.050943695
25	0xbceddea8	-0.029036835
26	0xbcc274ba	-0.0237373
27	0xbd5b0e91	-0.05348069
28	0xbd117fda	-0.03552232
29	0xbd44af81	-0.048018936
30	0x3dbe0002	0.09277345
31	0x3d74c97f	0.059762474
32	0x3d06c709	0.03290466
33	0x3db88258	0.09009236
34	0x3d329fdb	0.04360948
35	0x3bb8e6f0	0.0056427643
36	0x3cb5b509	0.02218105
37	0xbc3d3f80	-0.011550784
38	0x3d107cfd	0.035275448
39	0x3c8277b0	0.015926212
40	0x3cf46ca5	0.029836962
41	0x3d828ee4	0.063749105
42	0xbd115ba7	-0.035487797
43	0x3d1b9d7e	0.037991993
44	0x3d9f376e	0.07774244
45	0x3d8a8f53	0.06765618
46	0x3dbb405a	0.091431335
47	0x3d96cd03	0.07363322
48	0x3de28d73	0.110621355
49	0x3e0344d3	0.12819223
50	0x3dc096ae	0.0940374
51	0x3db0ae4a	0.08626993
52	0x3dad387c	0.08458039
53	0x3e19f0f8	0.15033329
54	0xbe86231e	-0.26198667
55	0xbe42718d	-0.18988629
56	0xbe8b4a05	-0.2720491
57	0xbe7bef08	-0.24602902
58	0xbe539c50	-0.20665097
59	0xbe8a6384	-0.2702905
60	0xbea94e4e	-0.33067554
61	0xbea422b1	-0.32057717
62	0xbeb88a7d	-0.36043158
63	0xbdfa88db	-0.12233134
64	0xbdf1991d	-0.11796782
65	0xbd9dacaa	-0.07698949
66	0xbe2f66a5	-0.17129
67	0xbe2c034d	-0.16798134
68	0xbd702a0e	-0.058633856
69	0xbe3ed22a	-0.18634859
70	0xbdfb362e	-0.12266193
71	0xbdb2e1e6	-0.08734493
72	0xbd4edd39	-0.050503943
73	0xbdad8bcb	-0.08473929
74	0xbdb7b2d4	-0.08969656
75	0x3d8cc1fa	0.068729356
76	0x3d29a0ae	0.041413
77	0xbd517ab3	-0.051142406
78	0x3d19a2af	0.037508663
79	0x3d1b458a	0.037908114
80	0xbba2a7ec	-0.0049638655
81	0x3d3c1921	0.045922402
82	0x3da9283c	0.08259627
83	0x3d941cdd	0.07232068
84	0x3c5342d9	0.012894356
85	0x3d01f088	0.03172353
86	0x3cd4570e	0.025920417
87	0xbce663d6	-0.028123777
88	0xbcf1fbba	-0.029538978
89	0xbc046776	-0.008081308
90	0xbe08ddbd	-0.13365836
91	0xbe1185cb	-0.14211194
92	0xbe13f6db	-0.14449637
93	0xbd751692	-0.059835978
94	0xbd919fa9	-0.07110531
95	0xbdaa632f	-0.08319699
96	0xbdea81f1	-0.114505656
97	0xbe3b7ea8	-0.18310034
98	0xbe151b89	-0.14561285
99	0x3d0e0306	0.034670852
100	0x3d74b3d1	0.0597418
101	0x3d076678	0.033056706
102	0xbcda930b	-0.026681444
103	0xbba87dfa	-0.0051419707
104	0x3d48d3f2	0.04903025
105	0xbda16613	-0.07880797
106	0xbaec8727	-0.001804565
107	0x3c040cda	0.008059705
108	0xbdc906f3	-0.098157786
109	0xbcbc66df	-0.022998272
110	0xbd248deb	-0.040174406
111	0xbd864b9f	-0.06557392
112	0xbd0968d4	-0.033547238
113	0xbd3c8753	-0.046027493
114	0xbdec51e6	-0.115390584
115	0xbe17420d	-0.1477129
116	0xbdf21b61	-0.11821628
117	0x3e4790c7	0.19488822
118	0x3e3be829	0.18350281
119	0x3ddd58e6	0.10807972
120	0x3e215ffc	0.15759271
121	0x3e4033cb	0.18769757
122	0x3e10437e	0.14088246
123	0x3cc2fe9e	0.023803052
124	0x3d87358d	0.06602011
125	0x3c7a4c2e	0.015276952
126	0xbd49dd1c	-0.049283132
127	0x3d0d44c2	0.0344894
128	0x3bf3c912	0.007439741
129	0xbcaaca73	-0.020848488
130	0x3d2bddc1	0.041959528
131	0x3ca59929	0.020214634
132	0x3c18133e	0.009281931
133	0x3b263b3e	0.00253649
134	0xbcde7923	-0.027157372
135	0xbd0eb85c	-0.034843788
136	0xbd1dc0f3	-0.03851409
137	0x3cd00c4c	0.025396489
138	0x3d049e9f	0.032377835
139	0xbc53fc67	-0.012938595
140	0xbccc9a32	-0.02497587
141	0x3c9db9fc	0.019253723
142	0x3d16c43c	0.036808237
143	0xbb94ae71	-0.0045373966
144	0xbcd1ba18	-0.025601432
145	0x3be99ef2	0.0071295435
146	0xbd5b5e91	-0.053556982
147	0xbd4d19c3	-0.050073396
148	0xbcd604ca	-0.02612533
149	0xbce2ab2b	-0.02766951
150	0x3bc69735	0.0060605058
151	0xbd82b267	-0.06381684
152	0xbd33291e	-0.043740384
153	0x3d9261c3	0.07147553
154	0xbc9acd65	-0.018896768
155	0xbd3525b4	-0.04422541
156	0xbc8f9250	-0.017525822
157	0xbdc6581f	-0.096847765
158	0x3a860fa3	0.0010228049
159	0xbd62237a	-0.055209614
160	0xbd938f1f	-0.072050326
161	0xbcac0fec	-0.021003686
162	0x3d9870bf	0.074433796
163	0x3d51bd16	0.051205717
164	0x3d84f85f	0.064926855
165	0x3c64271a	0.013925338
166	0x3d0f602e	0.035003833
167	0x3d8c615e	0.06854509
168	0xbc535a35	-0.012899925
169	0x3d194608	0.037420303
170	0x3d05c0fc	0.032654747
171	0x3d009aad	0.03139751
172	0x3d50b110	0.05095011
173	0x3d957217	0.072971515
174	0x3d4f5ffb	0.050628643
175	0x3cfc4df6	0.030798893
176	0xbbae678f	-0.0053224037
177	0xbd11ada3	-0.035565984
178	0xbcf43420	-0.029810011
179	0xbdb76033	-0.089538954
180	0x3d706dd8	0.058698505
181	0x3c6e2485	0.014535074
182	0xbd63b15f	-0.055589076
183	0x3e14424d	0.14478417
184	0x3e2ce08d	0.16882534
185	0x3d808c2c	0.06276736
186	0x3d85a535	0.06525651
187	0x3d2b6612	0.04184539
188	0x3d7cb4ad	0.061695743
189	0x3d7833cc	0.060596272
190	0xbb410a49	-0.0029455593
191	0x3d2903b5	0.0412633
192	0x3c6c9c9a	0.014441634
193	0xbc4936cf	-0.012281134
194	0x3ccbb2e7	0.02486558
195	0xbb88ec9f	-0.004178598
196	0xbcdb7b25	-0.026792118
197	0xbbae5020	-0.0053196102
198	0x3b098e48	0.0020989347
199	0x3d4160c7	0.047211435
200	0x3d4ab830	0.04949206
201	0xbbfcd302	-0.007715584
202	0x3cdbf67b	0.02685093
203	0x3c16b42b	0.009198229
204	0x3d4fb47a	0.050709225
205	0x3d07337b	0.03300808
206	0x3ca26004	0.019821174
207	0xbe7e4f4f	-0.24834941
208	0xbe70b8e9	-0.23508038
209	0xbe2ed9fd	-0.17075343
210	0xbe8951d5	-0.26820245
211	0xbe8c1439	-0.2735918
212	0xbe5139a7	-0.20432149
213	0xbe955ab6	-0.2917077
214	0xbe8edcd6	-0.2790286
215	0xbe44cc3e	-0.19218537
216	0x3de6284c	0.11238155
217	0x3c0ab36b	0.008465628
218	0x3c57e69a	0.013177538
219	0x3d7dcef2	0.061964937
220	0x3da14cbc	0.07875964
221	0x3d9427ee	0.072341785
222	0x3c39fa9a	0.011351252
223	0x3d46cf66	0.048537634
224	0x3d9748db	0.07386943
225	0xbe05cce7	-0.13066445
226	0xbdf17012	-0.11788954
227	0xbe162dc6	-0.14665899
228	0xbde43048	-0.111420214
229	0xbdcccdea	-0.100002125
230	0xbe2a164b	-0.16610067
231	0xbd3eadd5	-0.046552498
232	0xbde1d6fc	-0.11027333
233	0xbd8346b4	-0.0640997
234	0xbd1280db	-0.035767417
235	0x3d0ec03f	0.03485131
236	0x3bf2946e	0.007402948
237	0x3b164ff7	0.0022935846
238	0xbbbfee04	-0.005857231
239	0xbbc10b4b	-0.005891239
240	0x3d54d34a	0.051959313
241	0xbbe734ab	-0.007055839
242	0x3cb1c832	0.021701906
243	0xba2190a0	-0.00061632134
244	0xbc345b7a	-0.011008138
245	0xbc54b0cf	-0.012981608
246	0x3cbf4043	0.023346072
247	0x3c1ba312	0.009499328
248	0x3d31ec73	0.043438386
249	0x3d6c232f	0.05765074
250	0x3d8a473c	0.06751868
251	0x3c5f7a53	0.013640004
252	0x3caf9320	0.02143246
253	0x3d02cf74	0.031936124
254	0x3d8e0a36	0.06935541
255	0x3d9df1f3	0.07712164

classifier.layer1.0.bias f4 [32]
0	0xbd3585d3	-0.044317078
1	0x3a81f357	0.000991444
2	0xbd041f0d	-0.032256175
3	0xbc80524e	-0.015664246
4	0x3d322d02	0.043499954
5	0xbc8a43b6	-0.01687799
6	0x3caffb6f	0.021482198
7	0xbc8efe3c	-0.017455213
8	0xbba9d75e	-0.0051831445
9	0xbc010b17	-0.007876179
10	0xbc983bd7	-0.018583221
11	0xbd1b85c0	-0.03796935
12	0x3cd9898f	0.02655485
13	0xbbf6a05d	-0.007526441
14	0xbd2350d7	-0.039872017
15	0x3c98a887	0.018635048
16	0xbca6e4a5	-0.020372698
17	0x3c4bf951	0.012449578
18	0xbca6e469	-0.020372586
19	0x3ce804e9	0.028322654
20	0x3c784b37	0.015154651
21	0x3d8f7b61	0.070059545
22	0xbc505503	-0.012715581
23	0xbd2e377c	-0.042533383
24	0xbcbfdbc1	-0.023420217
25	0xbc886746	-0.016650807
26	0xbd20a4ee	-0.03921979
27	0x3b391d9d	0.002824641
28	0xbd7a36bf	-0.061087366
29	0x3d1a1c75	0.037624795
30	0xbd061655	-0.03273614
31	0x3bf41052	0.0074482346

classifier.layer1.1.weight f4 [32]
0	0x3f56c54f	0.8389482
1	0x3f83cf5c	1.0297656
2	0x3f82a910	1.0207844
3	0x3f5e776c	0.86900973
4	0x3f6310af	0.8869733
5	0x3f9019fa	1.1257927
6	0x3f5b989b	0.8577973
7	0x3f812d7b	1.0092005
8	0x3f86f773	1.0544266
9	0x3f68969b	0.90854806
10	0x3f620526	0.88289106
11	0x3f5b8cd8	0.85761786
12	0x3f6b165b	0.91830987
13	0x3f726b20	0.9469471
14	0x3f736e30	0.9509001
15	0x3f6b13f5	0.91827327
16	0x3f88e79e	1.0695684
17	0x3f5be8b7	0.8590197
18	0x3f6c17e6	0.92223966
19	0x3f5ead32	0.86983025
20	0x3f6fd20e	0.93679893
21	0x3f84742c	1.0347953
22	0x3f684e7c	0.9074476
23	0x3f5ba98e	0.85805595
24	0x3f671b73	0.9027626
25	0x3f6c35ca	0.92269576
26	0x3f732a8a	0.94986784
27	0x3f4abd66	0.7919525
28	0x3f6b782d	0.9198025
29	0x3f51fbc0	0.82024765
30	0x3fa65983	1.2996067
31	0x3f8b3d11	1.0878011

classifier.layer1.1.bias f4 [32]
0	0xbe7a46b4	-0.24441034
1	0xbea294de	-0.31754202
2	0xbe12b1f4	-0.14325696
3	0xbe656555	-0.22401936
4	0xbe70ff94	-0.23534995
5	0xbe4e7dc1	-0.20165159
6	0xbeb8121f	-0.35951325
7	0xbe690f93	-0.22759847
8	0xbe80ea54	-0.25178778
9	0xbec522e4	-0.38503182
10	0xbecb5b1d	-0.3971795
11	0xbe03fb91	-0.12888934
12	0xbea4c443	-0.32180986
13	0xbde42f5d	-0.11141846
14	0xbe83be92	-0.2573133
15	0xbe2229e5	-0.15836294
16	0xbf029454	-0.5100758
17	0xbe38aadd	-0.18033929
18	0xbe25287a	-0.16128722
19	0xbde8ca8f	-0.1136676
20	0xbe0e6c35	-0.13908465
21	0xbe88e218	-0.26734996
22	0xbea63402	-0.32461554
23	0xbe7bed73	-0.24602298
24	0xbdf215cc	-0.11820564
25	0xbe508e16	-0.20366701
26	0xbda2f040	-0.0795598
27	0xbf23a9ca	-0.6393095
28	0xbe9bb7fc	-0.30413806
29	0xbf0c4406	-0.54791296
30	0xbed5e9ea	-0.41780025
31	0xbe83cff5	-0.25744596

classifier.layer1.1.running_mean f4 [32]
0	0x3e561b50	0.20908856
1	0xbfd3ced8	-1.6547499
2	0xc0e28e59	-7.0798764
3	0xc0894d43	-4.2906814
4	0xc0b1748d	-5.5454774
5	0xbf214832	-0.63000786
6	0xc1095f88	-8.585823
7	0xc06baa45	-3.6822674
8	0xbfe20264	-1.765698
9	0xc0abbc13	-5.3667083
10	0xc0bdeed6	-5.935405
11	0xc04b118b	-3.1729457
12	0xbfb034f1	-1.3766156
13	0xbfa5e70e	-1.2961137
14	0xc042d3cf	-3.0441778
15	0xc158fbdb	-13.561488
16	0xc08b8354	-4.3597813
17	0xc0149bbb	-2.322005
18	0x3dd2a93e	0.10286187
19	0xc01a3184	-2.4092722
20	0xc11a9827	-9.662147
21	0xc01f2961	-2.4869006
22	0xc04b5ac0	-3.177414
23	0xc0ba6bc8	-5.825657
24	0xc09bbfb9	-4.8671536
25	0xc0a030c2	-5.005952
26	0xc115d2cc	-9.363964
27	0x3f4373f7	0.76348823
28	0xbffeacce	-1.9896486
29	0xc0d04bc9	-6.509251
30	0xc06d95cc	-3.7122679
31	0xbf02349c	-0.50861526

classifier.layer1.1.running_var f4 [32]
0	0x409ce864	4.903368
1	0x41804f9c	16.038872
2	0x418c1ab3	17.513037
3	0x4126c199	10.422265
4	0x41b1f0f3	22.242651
5	0x41a8166a	21.010944
6	0x4139f2f7	11.621818
7	0x41a9183e	21.136837
8	0x41b199aa	22.200031
9	0x40eea3a8	7.4574776
10	0x411ae4e7	9.680884
11	0x4148018c	12.500378
12	0x408ab410	4.3344803
13	0x4150351c	13.012966
14	0x41150648	9.3140335
15	0x4100fdea	8.061991
16	0x41695ac3	14.584659
17	0x4172613f	15.148742
18	0x413ef49c	11.934719
19	0x40937726	4.6082945
20	0x415669d7	13.40084
21	0x40eae94a	7.3409777
22	0x414fac32	12.97954
23	0x4160391e	14.013945
24	0x4181c9e0	16.223572
25	0x4170e07e	15.054808
26	0x41776e61	15.464448
27	0x3f7b165c	0.9808099
28	0x40ca6f89	6.326115
29	0x4101b151	8.10579
30	0x4195d120	18.727112
31	0x41697709	14.591561
