model/Experiment/DWNs_0.7.pt (torch, 446405 bytes, 70 tensors)

conv_spa.weight f4 [19, 3, 3, 3]
000000 f7 01 0f 3e 81 44 2c 3e 8e 5b 27 3e 48 16 8c 3e
       0.13965593 0.16823007 0.16343519 0.2736075
000010 23 b3 46 3e 3a fe 37 3e 3d a4 54 bd bf df b5 3d
       0.19404273 0.17968073 -0.051914442 0.08880567
000020 6c 84 22 be ac 75 f3 3c 95 2f d7 3d c3 07 96 3d
       -0.15870827 0.029719196 0.105071224 0.07325699
000030 15 33 b6 bd 3e 0e 01 be bb 90 16 be 1f 7c 82 3b
       -0.08896462 -0.12603089 -0.14703648 0.0039820815
000040 cf a7 be bd 50 b4 6b 3d 93 54 55 be 11 83 4d be
       -0.09309351 0.057545006 -0.20833044 -0.20069529
000050 ce d6 74 be 24 62 24 be 5d dd 3c bd ec 93 78 bd
       -0.23910066 -0.16053063 -0.046109546 -0.060687944
000060 48 d3 f2 3b c4 06 04 3d 94 64 d6 3d 2a 7b 11 bd
       0.0074104406 0.032233015 0.104684025 -0.03551785
000070 0a 6d 80 3c 7b 7e 83 be f4 55 28 be c5 ec 2e be
       0.015676994 -0.25682434 -0.16439039 -0.17082508
000080 17 68 49 be 51 df 00 be 25 e1 ab bd fc 02 23 bd
       -0.19668613 -0.12585188 -0.08392552 -0.039797768
000090 99 53 7e bd 7d 42 08 3d b6 11 dc 3d e2 26 29 3e
       -0.062091444 0.033266533 0.107455656 0.16518739
0000a0 54 bc 5b bd ec bb 22 3e 3f e2 15 3e 6e 49 31 3e
       -0.0536464 0.15891999 0.14637087 0.17313167
0000b0 45 0b b0 3d 19 c9 0e 3e be cf 0f bd a6 a3 cb 3d
       0.085958995 0.139439 -0.035110228 0.09943323
0000c0 f1 74 78 bd 93 5c 3b 3e d4 96 01 3e 46 b5 6b 3b
       -0.0606584 0.18297033 0.12655193 0.0035966202
0000d0 37 f7 0b bd 70 20 04 be 8e 0c 29 3e a1 0c 19 3e
       -0.03417131 -0.12902999 0.16508695 0.14946224
0000e0 5c 7c 3f be fc ec 3f be 7e 92 82 3e 46 86 5e 3e
       -0.18699783 -0.18742746 0.2550239 0.21730909
0000f0 34 8f d4 bd 20 74 bc bd 7a 9c 38 3e 47 52 79 3d
       -0.10378876 -0.092018366 0.18028441 0.06086948
000100 ca 9a fa 3d ae 26 1d be 8e 21 2c be e9 be 59 3e
       0.12236555 -0.15346786 -0.16809675 0.21264233
000110 18 1f 95 3d 09 e2 1e bc e3 67 88 3d 18 bd 3c 3e
       0.07281321 -0.009697446 0.0666044 0.18431509
000120 10 ef 24 be e7 fa b9 bb c9 0b c5 bd a5 f9 53 3d
       -0.1610682 -0.005675662 -0.096213885 0.05175175
000130 d1 ca ef 3d 81 3b 2c bc 49 62 6c bd 34 07 4d be
       0.11708606 -0.010512234 -0.05771092 -0.20022279
000140 5d fd ea 3d 59 9a 3b be be 0c 85 bd 27 aa 63 3d
       0.114741065 -0.18320598 -0.06496571 0.05558219
000150 77 da 9a bd 10 9d 1b be 0f 41 ae bd d1 21 39 be
       -0.075612 -0.15196633 -0.08508503 -0.18079306
000160 2a dd 47 bc 5b 86 b5 3d 3b 68 1e 3e ce f7 3d 3e
       -0.012198726 0.08863517 0.15469448 0.18551561
000170 60 35 b2 3d fe ee 0c 3e ef bb 37 3d ab 76 76 3d
       0.08701587 0.13763043 0.04485696 0.060171764
000180 3e 72 51 3e ec 2f c4 3d 5e e4 a6 3b 80 ce 2d bd
       0.20453736 0.09579453 0.0050931415 -0.042433262
000190 4c 63 1c 3c 42 25 35 be 27 5a 62 3b 2e 93 5e bc
       0.009545159 -0.17689994 0.0034538598 -0.013584895
0001a0 df 2b 62 3d d3 e7 2e bd fc a5 65 bd 46 62 b3 bd
       0.05521762 -0.042701554 -0.0560665 -0.087589785
0001b0 0a a6 f7 3d 48 ae 2c 3c 41 bd ad 3d 6f 30 6b be
       0.12092216 0.010539599 0.08483363 -0.22967695
0001c0 06 f3 bf 3d 77 ec 2b be 2c d8 0b 3e 73 fd 80 3d
       0.09372525 -0.16789423 0.13656682 0.062983416
0001d0 f6 5f ff bd 69 bc cc bc 23 25 85 3d 4b cc 34 be
       -0.12469475 -0.024992185 0.06501224 -0.17656057
0001e0 f3 aa 97 3c 72 37 ae 3c 62 1d d5 3d dd 39 15 be
       0.018514132 0.021266673 0.10405995 -0.14572854
0001f0 9f 56 2e 3e a4 84 a3 bd 88 fd 63 3d b1 0e 6f 3e
       0.17025231 -0.079842836 0.055661708 0.23345448
000200 21 9d ad 3d ea 0b 5a bd 15 f6 b8 bd 5f 33 2a be
       0.084772356 -0.05323402 -0.090313114 -0.16621159
000210 77 36 02 be 59 6d 73 3e 04 57 d6 bd 6e f5 6f bd
       -0.12716089 0.23772182 -0.10465816 -0.05858367
000220 11 28 76 bd c4 c9 24 3e d7 92 5f 3d 6e ba 48 be
       -0.060096804 0.16092592 0.054583397 -0.19602367
000230 76 8c 10 3e e1 b0 34 bd 85 8b ae 3d 38 21 6f bd
       0.14116082 -0.044113997 0.08522705 -0.05838129
000240 f3 a2 0b be 76 19 fd 3d d8 87 90 bd 93 d1 c3 3d
       -0.13636379 0.12358372 -0.0705716 0.095614575
000250 ca cc 25 be 15 1c 32 3e 74 c1 6e bd 35 c8 10 bc
       -0.16191402 0.17393525 -0.05828996 -0.008836796
000260 23 fc 56 bc 38 2b 21 be c9 d2 98 3d 80 aa cf 3d
       -0.0131216375 -0.15739143 0.07462079 0.10139942
000270 cf dc 6c 3c f4 f6 16 be 39 dd 0e 3e 85 22 25 3e
       0.014456942 -0.14742643 0.13951577 0.1612645
000280 48 26 17 be 85 87 a8 3c ff 48 7f 3e 7a 6b f7 3c
       -0.14760697 0.020572433 0.2493019 0.030202616
000290 88 bd 06 3e c4 6a 40 3e 13 89 23 3e 91 a4 62 3e
       0.13158238 0.18790728 0.15970258 0.2213309
0002a0 52 b1 73 bd 9d 4d d0 3d 27 17 11 3e ce e1 02 3e
       -0.059495278 0.101710536 0.14168988 0.1278145
0002b0 51 5d 1d be 98 d7 67 bd 29 62 20 be 65 c6 99 3b
       -0.15367629 -0.05660209 -0.15662445 0.00469284
0002c0 02 fd 36 be e8 20 0b 3e 57 26 cf bc 61 37 77 3d
       -0.17869952 0.13586771 -0.025286837 0.060355548
0002d0 f1 4b b2 bd b1 1a 49 3e 0b 48 55 3e f9 77 3b 3d
       -0.08705891 0.19639088 0.20828263 0.04576871
0002e0 a7 48 10 be 0e af 16 3e 8a f7 3b bb 4d be 45 3e
       -0.14090215 0.14715216 -0.002868148 0.19310875
0002f0 f8 7c 13 bd e7 7e 9f 3e bc e5 3c 3d 4f 11 83 bc
       -0.03600785 0.31151506 0.04611753 -0.015999464
000300 bc ed 7b bd 0a b0 a7 bd b1 42 36 be c8 e8 5f 3e
       -0.061506018 -0.08187874 -0.17798878 0.21866143
000310 df fc eb bd 74 78 00 be 27 00 10 3e d2 8e 2c bb
       -0.11522841 -0.12545949 0.14062558 -0.0026330245
000320 8d d1 94 bc b2 b1 b1 bd 02 17 12 be 1b 13 88 bd
       -0.018166328 -0.08676471 -0.1426659 -0.06644269
000330 d6 f1 07 3e 18 34 41 3d 28 55 1b 3c c7 33 1a bd
       0.13275847 0.04716882 0.009480752 -0.037647035
000340 87 99 44 3d 7b ca 15 3e d2 24 86 3e ee 71 5a be
       0.047997978 0.14628021 0.26199967 -0.21332523
000350 78 a1 cf bc 9f 72 8c bd 30 87 73 3d 4e b7 33 be
       -0.025345549 -0.068578 0.059455097 -0.17550394
000360 ad e6 3c be 3f ad d3 bc 60 9b 22 bd 0b de 32 be
       -0.18447371 -0.025839446 -0.03969896 -0.17467515
000370 fa 07 df 3c 34 7d 90 3c bb b1 9c bb 51 72 8a 3d
       0.027225483 0.017637827 -0.0047819293 0.067600854
000380 2c 6c 2a 3c 3e 4f 2d be 17 12 d2 bd c9 83 76 3d
       0.010401767 -0.1692476 -0.102573566 0.060184274
000390 ba 1b 09 3d e5 e3 c5 bd b7 78 64 3e e5 70 7e 3d
       0.033473708 -0.09662608 0.22311674 0.062119383
0003a0 f2 a4 d7 3d 94 6a 6e 3e 7c 30 9b bd 8a 45 26 3e
       0.10529508 0.23282844 -0.07577607 0.16237465
0003b0 0d fa fb bd 12 7d 6a be ed a7 95 bd ab b1 d0 3d
       -0.12303553 -0.22899273 -0.0730742 0.101901375
0003c0 72 45 3c be a8 e7 90 bc a0 3d 61 3d 23 4e c1 bd
       -0.18385866 -0.017688587 0.05499041 -0.094387315
0003d0 30 85 7c bd 32 07 a6 bd c0 a7 ca 3d 35 51 dd bc
       -0.061650455 -0.08106841 0.09895277 -0.027016262
0003e0 a5 bb a6 bd 71 bf 92 bd 59 21 4a bd 2d 13 61 be
       -0.08141259 -0.07165421 -0.04934821 -0.21979971
0003f0 19 74 65 be 4b f2 71 be 25 8e dd bd 6d f4 c2 bd
       -0.22407569 -0.23627584 -0.108181275 -0.09519277

conv_spa.bias f4 [19]
000000 15 e9 cd bd af 9f 93 bc fb 14 fc 3d ec ad c0 3d
       -0.100542225 -0.018020479 0.12308689 0.09408173
000010 a8 8e ba 3c a2 a2 06 be 71 d5 93 bd e5 7e 3a be
       0.022773102 -0.13147977 -0.07218445 -0.18212469
000020 86 ba 89 bd e2 fb 35 be 0f 06 67 bd 81 f0 c4 3d
       -0.0672503 -0.17771867 -0.056402262 0.09616185
000030 46 ab 30 bd 91 d1 34 3e d3 40 2e 3e f7 9c d5 bc
       -0.04313209 0.17658068 0.17016916 -0.026075823
000040 f3 2a cd 3d 99 37 7c bd bc 45 06 3e
       0.100179575 -0.06157646 0.13112539

conv_fre.weight f4 [45, 3, 3, 3]
000000 68 87 72 3e ff 52 b2 bd 56 c7 b9 bd fd f7 47 3e
       0.23684466 -0.087072365 -0.090712234 0.19528194
000010 5d d1 07 bd d4 c0 b9 bd 91 23 69 bd 72 b1 ff 3b
       -0.03315865 -0.09069982 -0.056918684 0.0078031356
000020 2f 26 1f be 09 9e 0a be 3e a3 c3 bc 83 89 fe 3d
       -0.1554191 -0.13536848 -0.02388155 0.12428572
000030 24 61 18 be 23 ba 09 3d 4d d5 80 bd 97 8a a4 bd
       -0.14880806 0.03362478 -0.06290684 -0.080342464
000040 25 da b9 bd 71 b6 a7 bd fd 43 33 b8 bd f7 4d 3e
       -0.09074811 -0.08189095 -4.2740245e-05 0.20114036
000050 39 d3 0b bd 62 cd 18 be 40 48 88 bc 5d c8 1e 3e
       -0.034136984 -0.14922097 -0.016636014 0.1550612
000060 4a 25 22 3e 29 97 a9 3d c7 e2 3c 3e 89 18 cc bd
       0.15834537 0.08280785 0.18445884 -0.09965617
000070 6a 9c 76 bd b0 9e 3b be b4 28 83 3d 41 47 83 3d
       -0.06020776 -0.18322253 0.06404248 0.06410075
000080 66 c3 5b bd 72 0e 38 be 14 45 ec 3d a9 d8 16 3e
       -0.053653143 -0.1797426 0.11536613 0.14731087
000090 4a e1 03 be f5 5c 41 bd 7d ed f4 3d ff bb ca bc
       -0.1287891 -0.04720779 0.1195936 -0.024747847
0000a0 c0 23 39 be 0e 20 c5 bd 23 5b bf 3c c1 7c d8 bc
       -0.18080044 -0.096252546 0.023358887 -0.026426675
0000b0 9a 2c c3 3b 2f fb 4f 3e 0c 41 17 be 3a 8c 30 3e
       0.0059562447 0.20310663 -0.14770907 0.17240992
0000c0 11 47 97 3d 37 71 81 3e 86 20 a6 3d 71 d0 81 3e
       0.07386602 0.2528169 0.08111672 0.2535434
0000d0 e7 a7 23 be 0c 42 13 be 5d 20 68 3e 15 36 27 3e
       -0.15982018 -0.14380664 0.22668596 0.16329224
0000e0 e0 c2 95 ba a6 02 1a 3d 03 30 b3 bd 61 ab 03 be
       -0.0011425875 0.037600182 -0.08749392 -0.12858345
0000f0 b2 83 b5 3d 18 9c e5 bc 25 7e 54 3d d8 fc 1e 3d
       0.088630095 -0.028028533 0.051878113 0.03881535
000100 e0 5c 9e bc 98 37 2f be e2 dd 93 bd b0 45 d2 bd
       -0.019331396 -0.17111051 -0.07220055 -0.10267198
000110 ac c7 59 bd aa c1 83 3d d6 47 3e be cd 89 4c be
       -0.053168938 0.06433423 -0.1858209 -0.19974442
000120 d5 7d 9b 3c 62 65 4c 3e 98 7b db 3c f6 39 24 3e
       0.0189809 0.1996055 0.026792333 0.16037735
000130 93 89 39 3d 98 a3 1a bd 97 7b c3 3d 6a 8f cf 3d
       0.045297217 -0.03775367 0.09545057 0.10134776
000140 f2 f4 63 be 2f 58 6a 3e 98 45 da ba 2c 23 9d 3d
       -0.22261408 0.22885202 -0.0016652821 0.07672724
000150 ca 29 d8 3d e8 9c 1c bc ad 14 01 be 8d 3f 0d be
       0.10554846 -0.009558894 -0.12605543 -0.13793774
000160 a6 75 e2 bd 4c 76 8e 3c 25 c8 13 3e 68 4f 54 3e
       -0.11057596 0.017390393 0.14431818 0.20733416
000170 e2 1a 49 3e 13 70 58 3c 15 41 c2 bc b0 77 b6 bc
       0.19639161 0.013210314 -0.023712674 -0.022273868
000180 4a a7 7f 3e 42 0d 0d be 9d b4 e0 3d de 73 10 be
       0.2496616 -0.13774589 0.10971949 -0.141067
000190 36 55 64 3d a0 e6 17 be d2 78 8d 3d 93 e3 27 be
       0.055745326 -0.1483407 0.0690781 -0.16395406
0001a0 51 dc c7 bd 28 40 70 3d 48 ac 8a bd 95 6c e7 bd
       -0.09758819 0.058654934 -0.06771141 -0.11300007
0001b0 4b f9 9e bd 6c 9e 81 3e 22 4a a4 bc 8f 03 66 3e
       -0.077623926 0.2531618 -0.02005488 0.22462295
0001c0 10 4e f2 bc fe 69 35 be 61 a6 c6 3c 8e 43 80 3d
       -0.029578239 -0.17716214 0.024249258 0.06262885
0001d0 7c 4d 24 bd 36 b9 f5 3d db 89 7e bd f8 70 0f be
       -0.040112957 0.11998217 -0.062143188 -0.14007938
0001e0 50 30 ee bd e5 fd 00 3e 83 0a 35 3e 47 60 05 be
       -0.11630309 0.12596853 0.17679791 -0.13025008
0001f0 96 20 72 3d 37 f7 90 bd c5 5b a7 3d 15 a1 00 be
       0.059113108 -0.070784025 0.081718005 -0.12561448
000200 4b 8f a5 bc f7 5a 55 be 6d 78 8b bd 83 90 14 3d
       -0.020209929 -0.20835482 -0.06810079 0.03627063
000210 cb 41 3c 3d 27 f2 0a 3d 15 e6 61 3d 46 9c 5b be
       0.045961183 0.03392234 0.055151064 -0.21446332
000220 85 e7 aa 3d 39 80 6c bd c3 94 12 3e c9 54 21 3e
       0.0834494 -0.05773947 0.1431456 0.15754999
000230 b0 d0 48 3d c8 61 8d 3d 3e 1b 21 3e bc 29 a2 3d
       0.049027145 0.06903416 0.15733048 0.079181165
000240 dd 2c aa 3d 52 eb 5c 3d 6a 03 36 be 10 e5 d8 3d
       0.08309338 0.053935356 -0.1777474 0.10590565
000250 0f da 50 be 0b 5d 59 be 9b 79 61 be 5c 3e 4c be
       -0.20395683 -0.212269 -0.22019045 -0.19945663
000260 66 68 a2 3c 60 c0 51 3e 9d 2c 2f bd 30 d4 54 3e
       0.019825172 0.20483541 -0.042767156 0.20784068
000270 f9 7e 34 be 1b 25 1b 3d 6a 88 13 3e 17 37 1a 3d
       -0.17626561 0.037877183 0.14407507 0.037650194
000280 b6 58 38 bc 4f 37 64 bd 03 7e 44 bd 30 a9 b7 bd
       -0.011251619 -0.05571681 -0.047971737 -0.08967817
000290 f8 db 31 be 66 14 01 bc 99 d7 5b be ba 4a 02 3e
       -0.17369068 -0.0078783985 -0.21468963 0.12723818
0002a0 23 87 29 be 43 2d 56 3e a8 76 32 3e f3 40 4c be
       -0.16555457 0.20915703 0.17428076 -0.19946651
0002b0 a7 78 24 bd f5 74 22 be 60 91 44 3d 9e 4e cf 3c
       -0.040154126 -0.15864928 0.047990203 0.025306042
0002c0 b1 97 09 3e 71 04 6c bd 2f 51 21 be f9 ba 17 bd
       0.13436772 -0.057621423 -0.15753625 -0.037043545
0002d0 40 a1 c1 bd 81 ac ef 3d a8 1c b6 3c db 66 d4 bd
       -0.09454584 0.117028244 0.022230461 -0.103711806
0002e0 f8 88 0a bc e2 e1 74 3d a9 61 e9 bd c9 88 3b 3e
       -0.008455507 0.05978573 -0.1139558 0.18313898
0002f0 8b 90 27 3e 32 d2 db bd 58 d8 8f bd 14 5d 4a bc
       0.16363733 -0.10733451 -0.07023686 -0.012351293
000300 1f 1e 9e 3d 17 22 91 bd d0 c0 62 bc dc 0e 5e bd
       0.07720589 -0.0708658 -0.013839915 -0.05421339
000310 62 de 5b 3e 4d c0 64 3e 76 77 0f be 3e c1 55 3e
       0.21471551 0.22338982 -0.14010414 0.20874497
000320 f0 72 98 3d f8 30 13 3e 25 3b 42 3e c3 83 01 bd
       0.074437976 0.14374149 0.18967874 -0.0316198
000330 1d 66 11 be de f8 c3 3d 1f ce 30 be bb b3 a4 bc
       -0.1419911 0.09568952 -0.17266129 -0.020105233
000340 79 73 a7 bd 3b f7 3d 3d 9a 9d 11 be 73 0f fd bd
       -0.081763215 0.046378355 -0.14220276 -0.12356462
000350 39 0e b5 3d da 4b 07 3e 6d e4 22 be aa 24 15 be
       0.088406034 0.13212529 -0.1590745 -0.14564767
000360 61 72 ca bd a8 4e 41 3d 68 14 52 3e 34 b6 01 be
       -0.09885097 0.047194153 0.20515597 -0.12667161
000370 fa 01 3c bc 27 da 29 be 41 4e 20 3e 22 5c 67 3e
       -0.011475081 -0.16587125 0.15654851 0.2259374
000380 7b 4b 60 be 65 41 e9 3d 2c 25 45 3e 0a b9 e4 bd
       -0.21903794 0.11389426 0.19252461 -0.11168106
000390 65 1e 41 3d 92 2b 4d 3e 5d cd d6 bd d0 e8 20 bd
       0.047148127 0.20036152 -0.10488389 -0.039284527
0003a0 43 6e 05 3c 12 e3 24 be d9 db 6a bd 9f 8f 33 3e
       0.008143964 -0.16102245 -0.05733857 0.17535256
0003b0 e4 89 77 bd bb 9b 5e 3e f6 af e6 bb ed 17 2a be
       -0.060434237 0.21739094 -0.007040019 -0.1661069
0003c0 93 a4 85 bd da 99 65 3c 8c 22 ba bd 12 f8 7b bc
       -0.06525531 0.014013732 -0.090886205 -0.015378969
0003d0 17 5c 36 bc 5a e8 26 be f8 63 b4 3c 2c 61 a4 bd
       -0.011130354 -0.16299573 0.022020325 -0.080263466
0003e0 49 be 9f bd 0a 23 06 3d 68 65 3e be a8 20 f0 bd
       -0.07799966 0.03274826 -0.18593371 -0.11724979
0003f0 58 e6 43 3d 13 a5 c1 bc 82 5e 52 3e 82 db 23 be
       0.047827095 -0.023638284 0.20543864 -0.16001704

conv_fre.bias f4 [45]
000000 a5 7e 44 3d d4 e8 ee bd 09 3c ec bb 5d 97 42 3e
       0.04797234 -0.11665502 -0.007209305 0.19003053
000010 b3 30 c3 3d 0b b8 f8 3d a6 90 1a be 99 e7 f0 3d
       0.09530773 0.121444784 -0.15094241 0.11762924
000020 d4 28 29 be d5 2f a7 bc 54 80 01 be e4 62 f9 3d
       -0.16519481 -0.02040855 -0.1264661 0.12177065
000030 54 17 a2 3d 21 f8 06 3e 36 6c e0 bd fd 78 5a bd
       0.07914606 0.13180591 -0.109581396 -0.05333804
000040 e8 f9 93 3d b6 10 53 3e d7 cd 6b bd 49 b2 30 bd
       0.072254 0.20611843 -0.05756935 -0.043138776
000050 93 bd 11 3e 01 70 23 be 6e 83 b2 3d 37 0e 0e 3e
       0.14232473 -0.15960695 0.087164745 0.1387261
000060 c8 d7 37 be 7a 37 14 3e 3d c2 21 3e cc 8a 03 3e
       -0.17953408 0.14474288 0.15796752 0.12845916
000070 03 01 3d bd 60 2e 0c 3e 40 8a 2c be 55 65 fa bd
       -0.046143543 0.13689566 -0.16849613 -0.12226359
000080 c7 e3 4d bc ce 55 8b bd 5b b2 a2 3d 4d 4a 39 3d
       -0.012566513 -0.06803475 0.07944175 0.045236874
000090 d6 ce 2d 3c 70 0e 46 be 50 0e 53 3e f0 db 00 3d
       0.010608396 -0.19341445 0.20610929 0.03145975
0000a0 14 73 8d bd 73 77 0c 3e 60 37 95 3d fe 15 b8 3d
       -0.06906715 0.13717441 0.072859526 0.0898857
0000b0 b5 b6 58 bd
       -0.052908618

BN.weight f4 [64]
000000 f6 34 43 3f ac dd 57 3f 66 cb 0c 3f b9 bf 76 3f
       0.76252687 0.8432262 0.5499786 0.96386296
000010 dd 9b 57 3f 1c ec 3c 3f 83 0f 62 3f e6 6c 14 3f
       0.84222203 0.73797774 0.8830492 0.57978666
000020 5d 9a 2d 3f d3 9b 4d 3f 11 d0 40 3f 04 13 1f 3f
       0.67813665 0.80315894 0.75317484 0.6213839
000030 b3 31 4b 3f a9 31 3e 3f 45 c4 07 3f 5a cc 1c 3f
       0.7937271 0.74294525 0.5303386 0.61249316
000040 51 fb 31 3f 52 ae 79 3f f1 d0 0f 3f e5 5f 99 3f
       0.69524103 0.97531617 0.56178194 1.198239
000050 1e 63 9f 3f 23 1b 90 3f 9e d8 92 3f 65 85 96 3f
       1.2452123 1.1258281 1.1472356 1.1759459
000060 1a 3b 97 3f 20 34 71 3f 12 6c 8f 3f 5d e8 83 3f
       1.1814911 0.9422016 1.1204855 1.0305287
000070 b1 f1 b1 3f 6e be 8d 3f 34 1f ab 3f 47 54 b9 3f
       1.3901883 1.107374 1.3368897 1.4478844
000080 f6 5c a6 3f 9c b8 8d 3f 00 ea 84 3f 9a 61 b8 3f
       1.299712 1.1071963 1.0383911 1.4404786
000090 52 b8 8d 3f ec cc b2 3f a9 2d 97 3f 43 d9 a1 3f
       1.1071875 1.3968787 1.1810809 1.2644428
0000a0 1d 29 d1 3f 46 ca c0 3f 51 a1 93 3f d5 bf a6 3f
       1.6340672 1.5061729 1.1533605 1.3027292
0000b0 33 cf 90 3f 37 aa 91 3f 26 62 62 3f 35 2e 8d 3f
       1.1313232 1.138007 0.8843101 1.1029726
0000c0 7b b7 ae 3f 71 72 8e 3f 75 df 83 3f 8d 96 6d 3f
       1.3649744 1.1128675 1.0302569 0.9280785
0000d0 4a f4 9d 3f 98 3c 7b 3f 1d 71 90 3f e3 9e 8c 3f
       1.2340176 0.98139334 1.128452 1.0985988
0000e0 cc b3 a7 3f 88 36 8d 3f c1 2b 6e 3f 07 a1 a3 3f
       1.3101745 1.1032267 0.93035513 1.2783517
0000f0 bc 03 85 3f 6a cd ae 3f 6c a2 8f 3f 44 f1 a9 3f
       1.0391765 1.3656437 1.1221442 1.3276753

BN.bias f4 [64]
000000 6a 48 40 3e 3e 94 a8 be ee 37 e6 be 3c a1 80 bd
       0.18777624 -0.329256 -0.44964546 -0.06280753
000010 8e cf f2 be 86 d0 de be 03 64 41 be f1 a5 2d be
       -0.47423977 -0.43518466 -0.18885808 -0.16957833
000020 0c fa 6d be 12 70 72 be ce a4 06 bf f8 ef d7 be
       -0.23239917 -0.23675564 -0.5259522 -0.4217527
000030 6c dc 42 be 4a 3e 23 be 3b 14 e7 be 86 ae d9 be
       -0.19029397 -0.1594173 -0.45132622 -0.42515963
000040 1c ab ae be b6 40 44 be 0d e4 8b be fd 32 36 3e
       -0.3411492 -0.1916531 -0.27322426 0.17792888
000050 1a 48 14 3f be 77 21 3e ad 11 70 3e e6 8f d4 3e
       0.5792252 0.15768334 0.23444243 0.41516036
000060 b3 b1 bf 3e d3 3e 7a 3e 0d 5b 03 3f 09 eb 04 3e
       0.3744026 0.24438028 0.5131081 0.12980284
000070 12 dd 2f 3f 15 ec 1d 3e 79 b5 35 3f 29 9b 32 3f
       0.686967 0.1542209 0.7098003 0.69768006
000080 0b 68 97 3d a3 10 85 3e 9a 54 28 3e e3 02 4d 3f
       0.073928915 0.25989255 0.16438523 0.8008253
000090 11 a1 53 3e b0 1f fb 3e 3d 9a 48 3e 39 71 4d 3e
       0.2066691 0.49047613 0.19590087 0.20062722
0000a0 c9 47 7b 3f 49 c1 35 3f 97 68 be 3e 26 8c 16 3f
       0.9815641 0.70998055 0.3718917 0.588076
0000b0 2a 30 ae bb a1 2f 83 3e c2 2e 84 bd 22 12 4b 3e
       -0.0053158 0.25622275 -0.06454231 0.19831136
0000c0 b0 98 48 3f 08 93 da 3e 99 8b 2c 3e 97 6d eb bd
       0.7835798 0.426903 0.16850127 -0.11495512
0000d0 d5 df 80 3e 1a 8e 75 3e 5d db 4a 3e f8 7e db 3d
       0.2517077 0.23979989 0.19810243 0.10717577
0000e0 0f 23 09 3f 26 fb 44 3e 82 8d ed bc 2d fb 0e 3f
       0.5356912 0.1923643 -0.02899814 0.55852014
0000f0 90 ff 47 3e 9c eb b1 3e 66 72 fb 3e ce 3c 23 3f
       0.19531083 0.34750068 0.49110717 0.63764656

BN.running_mean f4 [64]
000000 6d fa 3b be 6c 7b 18 3d 1c cd 37 3e 9d 0b bb 3d
       -0.18357249 0.03722708 0.17949337 0.091330744
000010 ce 9e fe 3c 4b a3 fe bd a1 c8 26 3e 6e 85 39 be
       0.031081583 -0.124334894 0.16287471 -0.18117306
000020 00 d1 0e be 6d 70 e7 be 3b 11 55 bd 2a e9 26 3e
       -0.13946915 -0.45202962 -0.052018385 0.16299883
000030 84 ea 00 bd f4 3a 3a 3e 6c 9f 04 bd 28 d8 bc be
       -0.03147365 0.18186551 -0.0323786 -0.36883664
000040 bb 82 80 be 34 1a 23 bd d0 4e 0d 3e ef de ba bd
       -0.2509974 -0.03981991 0.13799596 -0.091245525
000050 15 ec 80 be 26 fa b1 bc b2 d0 1c bf 53 f9 ca 3d
       -0.25180116 -0.021725725 -0.61255944 0.09910836
000060 29 f0 bc bd 65 72 9d 3f 47 00 be 3d d7 21 0f bf
       -0.092254944 1.2300535 0.09277397 -0.5591101
000070 77 61 9d bd 3c 75 a2 be 90 72 b4 3d 5f 45 9f 3d
       -0.076846056 -0.31730068 0.088109136 0.07776903
000080 8c c1 1c bf 5a ac 3c 3f 79 1a 58 be 7a ad 21 3e
       -0.6123283 0.7370049 -0.21103849 0.15788832
000090 b9 b2 33 3e 0f 18 1f be 00 b9 72 be 87 4c 87 be
       0.17548646 -0.15536521 -0.23703384 -0.26425573
0000a0 d6 f4 af bd 94 52 27 3e 10 83 62 3e 52 87 69 be
       -0.085916206 0.16340095 0.22120309 -0.22805527
0000b0 1c e9 cc bf 97 d8 03 3e 7e fa c6 3d da 71 86 3e
       -1.6008639 0.12875591 0.09715746 0.26258737
0000c0 32 ce 77 3e ac fa 8b be e8 f8 89 3e c7 b7 26 3e
       0.24199751 -0.27339685 0.26947713 0.16281043
0000d0 15 7c 13 bf df 1d a3 3e a2 57 35 bd 5a 5f 61 be
       -0.5761121 0.31858727 -0.044273026 -0.2200903
0000e0 49 ff 9f be 7e 9b 8c 3e 33 6f 1f 3e 86 84 12 be
       -0.31249455 0.2746238 0.15569763 -0.14308366
0000f0 35 6f 04 40 85 c0 67 be cc dc 46 be b2 d7 f4 bd
       2.0692875 -0.22632034 -0.19420165 -0.11955203

BN.running_var f4 [64]
000000 cc 35 e6 3e 4c 43 a0 3e 11 a9 0a 3f 45 e4 b9 3d
       0.4496292 0.31301343 0.54164225 0.09076742
000010 4d f5 2f 3d f2 e9 2c 3d ce 5f 47 40 02 e7 e2 3d
       0.042958546 0.042215295 3.1152225 0.110792175
000020 29 bc a3 3e c1 5f 8b 40 a8 e4 85 3c 16 ab 5c 3e
       0.31979492 4.3554387 0.016344383 0.21549639
000030 08 0d d4 3d e1 50 23 3e dc b0 a7 3f 2b c1 7a 40
       0.10354048 0.15948822 1.3100848 3.91804
000040 1a 9f 8e 40 d5 cf a2 3d 38 3a da 3d b3 18 ef 3d
       4.4569216 0.07949797 0.106556356 0.11674633
000050 f5 83 58 3e 5f 08 2a 3f 0d 64 09 3f de ab 1f 3e
       0.21144088 0.66419023 0.5366829 0.15592906
000060 3b 92 10 3e 82 81 46 3f 4f b5 4a 3e b6 65 5c 3f
       0.14118282 0.77541363 0.19795726 0.860927
000070 73 b5 a8 3d b7 bb 9c 3e 72 d5 03 3e 64 a2 d8 3d
       0.08237734 0.30611965 0.12874392 0.105778486
000080 ec ee e1 3d da ae 27 3f db af 9b 3e e2 a8 d1 3d
       0.11031899 0.6550118 0.30407605 0.1023729
000090 27 27 c4 3e 57 ff 0e 3e 33 a3 16 3e 3a a7 05 3e
       0.3831112 0.13964592 0.14710693 0.13052073
0000a0 87 66 ac 3d 04 44 e6 3d aa 90 fb 3d 51 0e d9 3d
       0.08417993 0.11243442 0.12283452 0.10598434
0000b0 ae 40 ed 3e 14 81 fa 3e 77 90 20 3f e4 f7 07 3f
       0.4633841 0.48926604 0.62720436 0.53112626
0000c0 f3 e6 c3 3d 02 91 82 3e 0f ee 51 3f 7f 08 e8 3e
       0.095655344 0.25501257 0.82003874 0.45318982
0000d0 d3 c7 e8 3d 67 9a 26 3f ed 2a b2 3e 99 f9 6d 3f
       0.113662384 0.6507935 0.34798375 0.9295898
0000e0 44 3c c3 3d 80 cd fa 3e dd f4 d1 3e 31 39 af 3d
       0.09532979 0.4898491 0.41007128 0.0855583
0000f0 e8 e4 61 3f 23 4b a3 3d fb 9d b5 3e 08 24 d0 3d
       0.8823991 0.079733156 0.35472092 0.101631224

classifier.layer1.0.weight f4 [32, 64, 3, 3]
000000 7b 7b 99 bc b4 32 82 bd 68 e5 38 bd a8 a9 2d bd
       -0.018735638 -0.06357327 -0.045140654 -0.042398125
000010 7f f3 46 bd 6f 58 26 bc b9 e5 f6 bc cf 5e 4a bc
       -0.04857206 -0.01015292 -0.030138837 -0.012351706
000020 8d 2d ff bb d6 ed c3 bd 7e 0b e2 bd 99 47 db bd
       -0.0077874125 -0.09566848 -0.11037348 -0.107070155
000030 9c 49 84 bd 72 82 fa bd 5c ff 39 bd 16 12 ed bd
       -0.064593524 -0.12231912 -0.045409545 -0.11575715
000040 0b 35 04 be 3f 23 98 bd 2a 2c c2 bd d3 6d 22 bd
       -0.1291086 -0.07428598 -0.0948108 -0.039655518
000050 3b 5d 78 bd 14 a7 f1 bd a8 ff ba bd 46 51 cf bd
       -0.060635787 -0.11799446 -0.09130794 -0.101229236
000060 19 bb b1 bd ac 0a e2 bc 96 b7 a8 bc 7b 68 35 be
       -0.08678264 -0.02759298 -0.020595353 -0.17715637
000070 45 1e 16 be a1 15 26 be 19 ea 12 be 30 d1 2b be
       -0.14659984 -0.16219188 -0.14347114 -0.16779017
000080 cf 8c df bd 66 f3 3a be bd fd 16 be 0a 31 04 be
       -0.10915529 -0.18256912 -0.14745231 -0.12909332
000090 1c 37 a3 3d eb d4 f5 3d 25 51 06 3d 19 2b 24 3d
       0.07969496 0.120035015 0.03279223 0.040080164
0000a0 6a 1f da 3d 75 0c a7 3c 45 39 ae 3d 7c 44 bd 3d
       0.10650523 0.020391682 0.08507017 0.09241578
0000b0 bc a1 75 3d 80 e5 6f 3d 9e 15 12 bb b4 d2 6c 3d
       0.059968695 0.058568478 -0.0022290717 0.05781813
0000c0 00 8f 75 3c cd da 0a 3c 98 ef ab 3b 87 46 58 39
       0.014987707 0.008475018 0.0052470677 0.00020625639
0000d0 10 f8 33 bd 81 3e 68 3c 92 45 4f bd bf 6f 2a bd
       -0.043937743 0.014175058 -0.050603457 -0.041610476
0000e0 1c f0 8c bd ba 56 86 bd 29 b3 0d bc f1 6e 1b bd
       -0.06881735 -0.065595105 -0.008648672 -0.0379476
0000f0 32 c2 94 bb d4 a3 de 3b 13 aa 85 bd 43 e4 23 bd
       -0.0045397514 0.006794432 -0.0652658 -0.04001261
000100 f9 45 05 bd 00 56 5e bd 37 a0 ad bd c0 3e 46 bd
       -0.032537434 -0.054281235 -0.08477824 -0.048399687
000110 9b 70 5d bd 81 ab 0e 3b 5e a9 cb bd 34 77 19 bc
       -0.054062467 0.0021769705 -0.099444136 -0.009366799
000120 3d 4d e0 3b 46 5c 47 bd e6 69 62 bd 4c 14 e0 bc
       0.006845145 -0.048671983 -0.055276774 -0.027353428
000130 bd 92 8c bd 8c ef 95 38 12 e7 77 bd 88 64 04 bd
       -0.068639256 7.149493e-05 -0.0605231 -0.032322437
000140 fa 00 21 bd c8 51 65 3c b2 d5 bf 3c fd 0e 22 3c
       -0.039307572 0.013996549 0.023417328 0.009891269
000150 06 90 44 bd 9e b1 21 3c ff 23 91 3c 96 ef 91 bc
       -0.047988914 0.009869007 0.01771736 -0.017814439
000160 ae 53 5e bd 90 d6 64 bd 1a e6 ab bc bb 90 5c bc
       -0.054279022 -0.055868685 -0.020983744 -0.013462241
000170 74 c6 96 bc c6 f2 8a 3c 7a fb c3 bd 67 20 ad bd
       -0.018405177 0.016961467 -0.0956945 -0.08453446
000180 50 1a c5 bc 74 68 ea bd 3f 33 c2 bd 0d 84 f9 3c
       -0.024060398 -0.11445704 -0.09482431 0.030458475
000190 4c 88 24 3d f7 c5 ea 3c be 03 37 bc 6b ac 2f bd
       0.040169045 0.02865885 -0.011170326 -0.04288904
0001a0 31 7b 0e 3c d0 0a ed 3c 1c 1d 31 3d 74 0d 4f 3d
       0.008696363 0.02893582 0.04324065 0.05054994
0001b0 0b b8 70 bd 0f ae 86 bd d0 fb e2 bd 2a 52 d4 bd
       -0.058769267 -0.06576168 -0.11083186 -0.10367234
0001c0 d5 b7 f8 bd 4d 6d 3a bd c5 ec 72 bd e5 52 dc bd
       -0.12144438 -0.045514394 -0.059307832 -0.107579984
0001d0 ba 5d 57 bd 5e 0b e4 3c 43 66 1b bd b7 21 57 bd
       -0.05257962 0.027837452 -0.03793932 -0.052522387
0001e0 c3 7e 23 bd 9f a3 59 bd cf 27 35 bd 01 d6 9d bc
       -0.03991581 -0.053134557 -0.044227418 -0.019267084
0001f0 b6 c9 5d 3b 0e ea f3 bc a3 aa c1 3c a4 d5 7a 3a
       0.0033842153 -0.029774692 0.023640936 0.0009568578
000200 4b 3b 96 3c f3 13 f1 bb 69 77 85 bc aa 02 12 bc
       0.01833882 -0.0073571145 -0.01629229 -0.008911768
000210 45 ab 11 3d cc 6a 9a bb 54 bd 2c bc a9 cd 58 bc
       0.035563726 -0.004712438 -0.010543186 -0.013232627
000220 55 a0 bd 3c 3f 27 14 bc 78 ef 22 bc 50 02 e6 3c
       0.023147741 -0.00904256 -0.009944789 0.028077275
000230 00 6b 24 bd 6a 6e 53 bb 31 12 cd bc e2 38 8d 3c
       -0.040141106 -0.0032261857 -0.025033088 0.017239038
000240 f4 93 04 bd a4 95 44 bd 5e f1 0f bd 97 d6 50 bd
       -0.03236766 -0.04799427 -0.035142295 -0.0509859
000250 f8 e1 22 3c fa ab 4a bd db 32 d4 bc 96 56 fb bc
       0.00994157 -0.049480416 -0.025903156 -0.030680936
000260 b8 4c ce bb 30 72 e3 3b 79 05 1c bd 8b fd 11 bb
       -0.0062957667 0.0069411024 -0.038091157 -0.0022276368
000270 cd 23 91 bd de 48 4e bd af 43 84 bd 09 b0 9a bd
       -0.070869066 -0.05036246 -0.06458222 -0.07553107
000280 78 e5 e1 bc 4b cd 1c bd a1 80 a1 bd e4 de a8 bd
       -0.02757524 -0.03828172 -0.07885862 -0.08245638
000290 4c 51 89 bd 8c dd b8 bd 4b 5e b1 bd a9 0c bf bd
       -0.06704959 -0.09026632 -0.08660563 -0.093285866
0002a0 67 d6 37 b9 96 07 12 bc 53 23 14 bc 44 d9 97 3d
       -0.00017532111 -0.008912941 -0.009041625 0.07414487
0002b0 aa 7f 9a bc 68 58 0c bd 51 a0 93 3d 38 2e 41 3c
       -0.018859703 -0.034264 0.07208312 0.011790805
0002c0 84 bf b9 3c cf 30 83 3d 76 23 29 3c 81 1a 95 3d
       0.02267433 0.06405794 0.010323396 0.07280446
0002d0 2a cc 10 be 97 98 0f bd 1a be 95 3b 19 f6 1d 3e
       -0.14140382 -0.03505763 0.004569781 0.1542591
0002e0 c6 fe 7f 3d 70 73 26 3d 26 32 89 bd 06 94 d0 3d
       0.06249883 0.040637434 -0.06699018 0.10184483
0002f0 37 8e d8 3c 85 24 1f 3c ed 63 b7 bc 4d 41 81 bc
       0.026435 0.009713297 -0.022386516 -0.015778208
000300 33 2c 70 3c 61 50 30 bb 4b 1f 77 bd bf d6 ae bb
       0.014658975 -0.0026903378 -0.060332578 -0.0053356583
000310 eb 7d e0 3a c1 dd 5d 3b 81 ff 30 be 3f 0b d5 bd
       0.001712737 0.00338541 -0.17284967 -0.10402536
000320 cf 03 16 be 65 15 99 bd 26 20 9b 3c 29 ae dc bd
       -0.1464989 -0.07474784 0.018936228 -0.10775406
000330 c0 28 cb 39 11 dc a6 bd 30 a2 ba bd ce 39 12 bb
       0.00038749538 -0.08147443 -0.09112966 -0.0022312286
000340 f2 ce de b9 48 48 fb bc ed 58 a2 bd 06 37 e4 bd
       -0.00042497326 -0.030674115 -0.079271175 -0.111433074
000350 be 01 53 bc 35 aa cc 3c 6f 7a 43 3d 0b 79 88 3d
       -0.012878833 0.024983505 0.047724184 0.06663712
000360 11 86 89 bd 0f 87 22 3c 0e 39 fe 3c ee 08 97 bc
       -0.06715024 0.009919896 0.031033065 -0.018436875
000370 f3 b2 08 3c 14 c3 83 3d 50 9f aa 3c 5a 60 dd 3c
       0.008343446 0.064336926 0.02082792 0.027023483
000380 70 b3 ae 3c 5c ab 6e 3d 6f a9 0a 3c 6a ea 6c 3d
       0.021325797 0.05826889 0.008463248 0.057840742
000390 7e 7c 87 bd 5e 12 99 3d af b3 4e 3d 61 77 b2 3d
       -0.06615542 0.074742064 0.05046433 0.08714176
0003a0 70 bf 58 3d 9f 62 c8 3d 21 3d 58 bb 1a d0 f5 3d
       0.052916944 0.097844355 -0.003299542 0.12002583
0003b0 47 d8 7c bc 7e 83 dd 3c 42 03 84 bc e9 14 ea bc
       -0.015432424 0.02704024 -0.016114835 -0.028574424
0003c0 8c 5c 7f bd 2e 2a 69 bc 3a c1 75 3d 4f eb 14 bd
       -0.06234412 -0.014231248 0.05999873 -0.03635722
0003d0 d6 fb 6d bd 11 35 6d bd 70 8f 70 3d a1 69 b7 ba
       -0.058101498 -0.057911936 0.058730543 -0.0013993272
0003e0 7d 33 64 bd 42 41 73 3c 88 c6 c7 bd 13 b3 cc bc
       -0.055713166 0.014847102 -0.09754664 -0.024987733
0003f0 cb 22 4c 3d f4 72 e1 bd 75 a5 8f bc ec 5a bd 3c
       0.04983787 -0.11008254 -0.01753495 0.023114644

classifier.layer1.0.bias f4 [32]
000000 68 37 54 3c 46 7c 62 bc 21 66 14 bc 9a 6d 22 3d
       0.012952663 -0.013823574 -0.009057553 0.039655305
000010 a2 4c b4 3b 2d db 14 bd 35 cb 16 3c 89 78 df 3c
       0.0055022994 -0.036341835 0.009203722 0.027279155
000020 c2 8e 12 bd 62 16 b4 3c 28 e3 25 3d 74 d4 50 bc
       -0.035780676 0.02198333 0.040499836 -0.012745965
000030 a2 f9 ff bc 14 a9 b4 3c db fe 31 3d 11 bf 02 3c
       -0.031246964 0.022053279 0.04345594 0.007980124
000040 55 37 20 bb d1 c1 ef ba 48 a4 1e 3c 89 fb 08 bb
       -0.0024447043 -0.0018292015 0.009682722 -0.002090188
000050 1a 1c 11 bd 36 1c 2e bc 16 41 09 3b ab e9 05 bb
       -0.03542719 -0.010626843 0.0020943335 -0.0020433466
000060 69 7b e9 3c 57 26 05 bd 67 1d c7 bb e9 cc 15 bd
       0.02850123 -0.032507267 -0.006076503 -0.03657237
000070 ad 35 d9 3c 32 bc 1b 3d 11 2a 96 bc 32 27 1d 3d
       0.026514852 0.038021274 -0.018330606 0.038367458

classifier.layer1.1.weight f4 [32]
000000 65 94 5c 3f 15 70 62 3f b5 1c 61 3f e7 98 5a 3f
       0.8616393 0.88452274 0.8793443 0.8538956
000010 5a fd 64 3f 20 d9 6b 3f 27 a3 73 3f a4 29 5d 3f
       0.89449084 0.9212818 0.95170826 0.86391664
000020 4a 95 54 3f ca 2c 6b 3f 43 3b 73 3f 17 b3 69 3f
       0.830403 0.9186522 0.950123 0.91288894
000030 96 b0 90 3f 18 de 5c 3f 52 62 56 3f fe c1 47 3f
       1.130389 0.8627639 0.83743775 0.78030384
000040 73 3b 61 3f 0b bf 64 3f 90 74 86 3f 79 52 61 3f
       0.8798134 0.8935401 1.0504322 0.8801647
000050 58 00 57 3f cc a3 5f 3f 93 42 5d 3f fa 73 97 3f
       0.839849 0.8735931 0.8642971 1.1832268
000060 dc 45 52 3f 27 65 91 3f 02 7c 52 3f 46 8d 55 3f
       0.82137847 1.1358994 0.8222047 0.8341869
000070 f6 68 a0 3f c7 41 72 3f 4c b2 65 3f f8 68 5c 3f
       1.2532032 0.9463162 0.89725184 0.8609767

classifier.layer1.1.bias f4 [32]
000000 b7 ec 18 be 1d c9 2d be 71 c1 37 be 2a 9b fd bd
       -0.1493405 -0.1697125 -0.17944886 -0.12383111
000010 8f cd 02 be 67 d0 6e bc 63 9e 1e be 3e cf 2c be
       -0.12773727 -0.014576054 -0.15490107 -0.16875932
000020 c2 e5 6a be 9a 9c 31 be a6 b5 9f be 7b f6 63 be
       -0.22939208 -0.17344895 -0.31193274 -0.22261994
000030 d7 05 6d be 18 b2 e0 bd 4c 96 95 be 28 2d 99 be
       -0.23146759 -0.10971469 -0.2921623 -0.29917264
000040 80 1a 58 be dd 69 a2 bd af 95 56 be 19 2f ac be
       -0.21103859 -0.07930348 -0.20955537 -0.33629683
000050 44 1e 27 be 38 cd d0 bb a9 2e 07 be ae d4 33 be
       -0.16320139 -0.00637212 -0.13201393 -0.175616
000060 5a 47 35 be b6 ef 27 be aa 00 41 be 76 05 2c be
       -0.17703 -0.16400036 -0.1884791 -0.16798958
000070 7b ea b0 be 0d 41 76 be 37 9b 93 be cf dc c7 bd
       -0.34553894 -0.24048252 -0.28829357 -0.09758913

classifier.layer1.1.running_mean f4 [32]
000000 a5 cf 48 3f b5 43 7d c0 47 f1 c4 c0 d8 e0 f7 bf
       0.7844184 -3.9572575 -6.154453 -1.9365492
000010 3e 29 37 c0 68 70 16 c0 d3 8e 36 3f 3b 77 e3 c0
       -2.8618922 -2.3506107 0.7131168 -7.1083045
000020 27 d2 d8 c0 09 89 7a bf c1 1d b1 bf dd cd d6 3f
       -6.7756534 -0.9786535 -1.3837205 1.6781574
000030 20 39 bf bf a7 cf 8a c0 ab aa 98 bf 63 bd 9d be
       -1.4939308 -4.337848 -1.1927084 -0.30808553
000040 e7 41 4b c0 c6 f1 c6 bf 5f d0 59 bf e9 40 c2 3f
       -3.1758974 -1.5542533 -0.85083574 1.5176059
000050 cf 66 d1 3f 5e ee 7e c0 ca 02 5b c0 5a 13 c9 be
       1.63595 -3.9832988 -3.4220452 -0.39272577
000060 62 be 4d c0 cd 07 3d be bc 88 b7 c0 e9 77 91 c0
       -3.214745 -0.18460007 -5.735441 -4.5458875
000070 b9 ed 0a c0 11 20 a2 bf af 40 39 3f 5c 49 bf c0
       -2.1707594 -1.2666036 0.72364324 -5.977705

classifier.layer1.1.running_var f4 [32]
000000 98 d0 c4 40 c9 3e 2d 41 81 66 66 41 15 9e 7d 41
       6.150463 10.827828 14.400025 15.851094
000010 3f e7 fb 40 4d 13 04 41 b7 35 42 41 50 ac 66 41
       7.8719783 8.254712 12.138114 14.4170685
000020 65 43 3f 41 e8 c8 3a 41 54 42 fc 40 64 cc f5 40
       11.953954 11.674049 7.8830967 7.6812
000030 7a 3b 9d 41 e9 37 8c 41 e4 aa 28 41 69 90 e9 40
       19.654041 17.5273 10.541721 7.298878
000040 68 07 3a 41 f1 4d 39 41 70 80 52 41 52 3e db 3f
       11.626808 11.581529 13.156357 1.7128394
000050 0e 1c 08 41 74 32 4e 41 5c e2 51 41 59 d0 9d 41
       8.506849 12.887318 13.1177635 19.726732
000060 99 68 09 41 dd 2d 63 41 99 e4 00 41 0c bf 68 41
       8.588037 14.198697 8.05581 14.546642
000070 7d 0c 67 41 a8 8c 0d 41 01 a1 89 40 6e 0f 3b 41
       14.440549 8.84684 4.300904 11.691267

classifier.layer2.0.weight f4 [32, 32, 3, 3]
000000 c7 31 f4 bd d9 87 c3 bd 0a 46 b3 bd 18 26 f5 bd
       -0.11923557 -0.09547395 -0.08753593 -0.119701564
000010 95 80 c6 bd b3 fc 71 bd 09 2b c0 bd 9b 28 d6 bd
       -0.09692494 -0.059078883 -0.09383208 -0.10456964
000020 0b 31 92 bc 0f 8b 68 bc 25 41 e6 bc cb 9f b2 3c
       -0.017845651 -0.01419331 -0.028107235 0.02180471
000030 f3 f2 e1 ba 69 04 b1 bd 67 4e 9a bd 96 81 22 bc
       -0.0017238542 -0.08643419 -0.07534485 -0.009918591
000040 58 59 2f 3c 53 0b 8d bc 8d 36 31 3c 28 51 81 bd
       0.010702454 -0.017217314 0.010816229 -0.063143075
000050 aa b1 15 bd 66 e5 3b bd 56 1d 36 3d f2 a6 5e 3c
       -0.036546387 -0.04587307 0.04446157 0.013589608
000060 14 56 33 bd cf 8c ea bc 77 ef 83 3c 4b 1a b0 bd
       -0.043783262 -0.028631596 0.016105397 -0.08598765
000070 3e ac 3e bc 6a 2b 65 3d 39 b2 af 3c a0 e2 d5 bc
       -0.011637745 0.055949606 0.021447288 -0.02610904
000080 c4 0c 76 bd 3d a6 06 bd 60 f2 5b bd cf 2b af bc
       -0.060070768 -0.03287338 -0.053697944 -0.021383194
000090 dc 5e 82 bd bd 86 97 bd a4 1c 8e bd 26 0c 8c 3c
       -0.06365749 -0.07398746 -0.069390565 0.017095637
0000a0 01 da 65 3d 7d ef da 3c 03 69 bf bd 0a a2 58 bc
       0.056116108 0.026725525 -0.09346201 -0.013222227
0000b0 01 e5 97 3b b8 a7 b5 3d 1d c9 6a bd 3d 28 15 3d
       0.0046354537 0.088698804 -0.057320703 0.036415327
0000c0 6c fb 8e 3d da 8e 88 3d 2d 80 9b bc 99 78 d6 bb
       0.06981549 0.06667872 -0.018982017 -0.006545138
0000d0 48 65 20 3d 1f e1 2a 3d dd 61 65 3c 22 0e 89 3d
       0.03915909 0.0417186 0.014000383 0.06692149
0000e0 04 dd 3f 3d 8d 11 3d bd 0f c2 28 bd b7 6b 4b 3d
       0.046841636 -0.046159316 -0.041200694 0.04966327
0000f0 03 03 d2 bd e0 ea eb bd 30 0f 8b bd 22 24 8c bd
       -0.10254481 -0.11519408 -0.06790006 -0.06842829
000100 2a 99 d9 3b d6 8d 94 3b d1 c0 9d bc a2 12 0d 3d
       0.006640573 0.0045335097 -0.019256981 0.034441598
000110 90 c8 0a 3c 4e 31 e2 bc e4 4d 8b 3d c6 c8 07 3d
       0.008470669 -0.027611401 0.06801966 0.033150457
000120 ae ae 86 3d 65 61 1d 3d 88 4f f8 3c 8d 6f 79 bd
       0.06576286 0.03842296 0.030311361 -0.0608974
000130 a8 89 eb ba 65 b2 4b 3d b4 2b 21 bc a3 db 77 3d
       -0.0017970102 0.049730677 -0.00983708 0.060512196
000140 7a d4 46 3c 05 2a ed bd c4 90 c7 bd 7d a9 03 bd
       0.012135619 -0.1158028 -0.09744409 -0.03214406
000150 17 bc 9a 3c cc 90 95 bd a9 be 9c bb 6e e8 8c bd
       0.018888516 -0.073030084 -0.0047834706 -0.0688027
000160 69 c8 14 3d 39 a1 74 bc af 7d 84 3d 0d 42 4a 3d
       0.03632394 -0.014931017 0.06469285 0.049379397
000170 24 cb 4c 3d e2 0b 7b 3d 26 61 74 3d 2d 98 79 3c
       0.049998417 0.06129063 0.05966296 0.015234035
000180 db 87 09 bd 1d e8 91 3d 60 b3 41 3d 3b 13 e0 bc
       -0.033576827 0.0712435 0.047290206 -0.02735292
000190 81 28 a1 bd d9 40 33 bd 41 fc 04 3c 1d 97 d4 3b
       -0.07869054 -0.043763015 0.008116783 0.0064877407
0001a0 83 42 b0 3c 17 ed b5 bb be 10 c8 bc cf 0b b6 3d
       0.02151609 -0.005551945 -0.024422046 0.08888971
0001b0 b1 f0 96 3c 78 3f e1 3d de 9e b9 3d a6 65 44 3e
       0.018425317 0.10998434 0.09063505 0.19179401
0001c0 8b 50 17 3d 06 91 ea 3d 0c e9 45 3d 15 60 64 3c
       0.036942046 0.11453442 0.048317954 0.013938923
0001d0 6f 02 dd 3d 0f bc 24 bd eb 9c 79 bb de 65 35 3c
       0.1079148 -0.04021841 -0.0038087915 0.01107165
0001e0 a2 eb 17 bd 72 e2 02 3d 06 04 aa 3b 34 ba b5 bc
       -0.03708995 0.031954236 0.005188468 -0.022183515
0001f0 45 c9 04 3c be 73 70 3d 9c 7d f4 3c 5f 40 41 3c
       0.008104627 0.05870413 0.029845051 0.011795132
000200 eb 4b c7 3c b5 7f 2c bd d0 54 35 bd 4e 40 1b bc
       0.024328193 -0.04211398 -0.044270337 -0.009475781
000210 94 43 a9 3d 87 7a e0 bc a3 11 3a bc 0e cb b5 3c
       0.08264843 -0.027402176 -0.011356744 0.02219155
000220 77 04 13 3d 31 74 30 3c 8b bc 05 3b 82 9c 2b 3d
       0.03589293 0.01076989 0.002040657 0.041897304
000230 47 ad 4d 3d 8f fd 9b 3d 4a 0c c3 3d ec 4e c3 3d
       0.05021408 0.07616722 0.09523828 0.095365375
000240 ae c5 e7 bd 12 4e 0f be bf 4c d0 bd de a1 d7 bd
       -0.11317001 -0.13994625 -0.10170888 -0.105289206
000250 e3 a1 32 bd 7c e3 9b bd 11 d5 0e be 15 62 2a bd
       -0.04361142 -0.076117486 -0.13948466 -0.041597445
000260 9d 36 b4 bd b3 d2 49 bc 2e 09 92 bc c0 0a 39 3a
       -0.08799479 -0.012318301 -0.017826643 0.0007058792
000270 07 cc 8c bc c2 50 33 3d b6 8e 00 3d 68 38 67 3d
       -0.017187132 0.04377819 0.0313861 0.056450278
000280 6e 69 ff 3c 66 90 a7 3d ec 2b 0c 3d 03 45 49 3e
       0.031178202 0.08181839 0.034221575 0.19655232
000290 73 e1 45 3e 2c 60 b9 3d 37 6c 16 3e 93 1f f7 3d
       0.19324283 0.090515465 0.14689718 0.12066569
0002a0 bc dd a5 3d 6c 23 48 3e 84 91 d8 3d 06 05 94 bd
       0.08098933 0.19544762 0.1057463 -0.07227521
0002b0 76 2d 79 bd 6c 9a f8 bd b5 35 c9 bd 4f 01 4c bd
       -0.06083437 -0.12138829 -0.09824697 -0.049805935
0002c0 e6 b4 a5 bd 40 5c 20 bd d4 44 c9 bd 33 8d 7c bd
       -0.08091144 -0.039150476 -0.09827581 -0.061658096
0002d0 b4 ee e3 bc 9a 80 18 bc 0b 58 45 bd f9 df bb 3c
       -0.027823783 -0.009308005 -0.048179667 0.022933947
0002e0 6f 93 87 bc 55 a4 22 bd f2 e1 80 bd 4e 2a 3c 3c
       -0.016549794 -0.0397075 -0.06293096 0.011484696
0002f0 c3 83 12 3a 0d 21 49 bc 6b ef 3d bd f0 55 28 3d
       0.0005589092 -0.012275946 -0.046370905 0.04109758
000300 0a 2c e8 bc cb f3 3a 3d a4 83 da 3c 01 4c bb bb
       -0.028341312 0.045642655 0.0266741 -0.0057158475
000310 57 66 08 bd 73 ea 02 bd be f7 ca 3c 15 41 2d 3d
       -0.033300724 -0.03196187 0.024776336 0.042298395
000320 f8 01 35 3c c3 b8 d6 3d 9d 78 81 3d d9 f6 82 3d
       0.011047833 0.10484459 0.06321833 0.06394739
000330 be 9b b1 3d 4f 03 87 3d fc 02 b8 3d e4 c8 d9 3d
       0.086722836 0.06592428 0.08984944 0.1063402
000340 32 8f ac 3d 3c 86 9d 3d d5 bc 40 3e eb 7c c3 3c
       0.0842575 0.07691619 0.18822034 0.023863276
000350 fc 60 83 3d 61 8a 9a 3c 7c dd 2c 3e d2 85 02 3d
       0.06414983 0.018864812 0.16881365 0.031865902
000360 dd 20 0e bd 45 22 3a 3d 5b cc 1f 3d e3 9f db 3d
       -0.03469931 0.04544284 0.039013248 0.10723855
000370 17 43 83 3d 41 e2 19 3e 6e dc 8a bc 02 72 63 3d
       0.06409281 0.15027715 -0.016950812 0.05552865
000380 31 2f ac 3d 67 2c bd bd 69 e1 10 be dd c9 5d 3c
       0.084074385 -0.09236985 -0.14148487 0.0135368975
000390 81 e0 ab 3d e1 5f 5d bd b3 96 64 bd bf bd bb bd
       0.0839243 -0.054046515 -0.05580778 -0.091670506
0003a0 fa 54 ef 3c 88 3c 91 bc fa 34 66 bd df 02 12 bb
       0.029215325 -0.017729059 -0.056202866 -0.0022279543
0003b0 6c 44 bf bc ef 9c e1 3c a0 9c 8e bd 06 35 a9 bc
       -0.023348056 0.027540652 -0.069634676 -0.020655166
0003c0 d1 ab af bd 64 35 93 bd 94 2d 42 b9 06 cd 2e 3d
       -0.08577693 -0.07187918 -0.00018518261 0.042675994
0003d0 d6 60 54 bc 77 95 36 3d 1d 47 42 bd a1 0e 97 bc
       -0.012962541 0.044576135 -0.0474311 -0.018439593
0003e0 a5 0d 11 3c 67 b9 cc 3c 8e 30 37 3d c5 78 93 bc
       0.008853351 0.02499075 0.04472404 -0.018001923
0003f0 27 aa aa bd 32 48 3a be fb 89 12 be 7e 9e 73 be
       -0.08333235 -0.18191603 -0.14310448 -0.23790929

classifier.layer2.0.bias f4 [32]
000000 cd 85 72 3d c6 0d f5 3b 3e 42 e5 3c ad b4 68 bd
       0.059209634 0.0074784486 0.027985688 -0.05681293
000010 b4 d0 3e bd 42 d0 04 3d 2f 0c 75 3d 39 5c fd bb
       -0.046585754 0.032425173 0.059826072 -0.007731941
000020 f6 7c 69 bd 6c 7d 56 3d 16 1e a1 bc 1f 08 4d 3d
       -0.057003938 0.052365705 -0.019667666 0.050056573
000030 7f a2 23 bd 15 e3 2d 3c ee 66 82 bd 1d d6 55 3d
       -0.03994989 0.010613223 -0.063672885 0.052206147
000040 04 a2 33 3d e7 8a 1b bd 57 f2 60 bd 39 0d 1b ba
       0.043855682 -0.037974264 -0.054918613 -0.0005914751
000050 eb f0 f2 bc fb 07 28 bd 25 2d 0f 3d c8 00 72 3d
       -0.029655894 -0.041023236 0.034955163 0.059082776
000060 8d 11 68 3d 8f af 43 3d 7d ad d2 bb 60 9d 60 bc
       0.056657363 0.047774848 -0.006429373 -0.013709396
000070 37 dd 8b bd 62 a9 0f bd 94 ec 59 bd 05 ff 2e bd
       -0.06829303 -0.035073645 -0.053204134 -0.042723674

classifier.layer2.1.weight f4 [32]
000000 1a 02 80 3f 00 ce 7b 3f a9 2f 83 3f 8e 13 71 3f
       1.0000641 0.98361206 1.024892 0.94170463
000010 e2 d0 83 3f ec ea 74 3f 45 1a 85 3f 05 8a 77 3f
       1.0298121 0.9567096 1.0398642 0.96694976
000020 10 60 81 3f 74 0e 82 3f 83 1c 72 3f f7 35 74 3f
       1.0107441 1.0160661 0.94574755 0.95394844
000030 5e 03 7d 3f 68 da 83 3f 20 b4 80 3f 9d 6f 77 3f
       0.9883326 1.0301027 1.005497 0.96654683
000040 fe 85 7a 3f e2 d8 77 3f 7a 1e 79 3f 09 a9 69 3f
       0.97860706 0.9681531 0.9731213 0.9127355
000050 cb b9 7b 3f 50 7d 80 3f 7d 08 71 3f 3d b0 84 3f
       0.9833037 1.0038242 0.9415358 1.0366284
000060 45 03 8f 3f 27 96 82 3f 8e 09 70 3f 2c 51 92 3f
       1.1172873 1.0202073 0.9376458 1.1431022
000070 21 fb 80 3f e5 e9 67 3f 39 60 75 3f 08 34 77 3f
       1.0076638 0.9059127 0.9584995 0.9656377

classifier.layer2.1.bias f4 [32]
000000 91 d6 0b be 7f ba 7c bd 2f 98 c1 bd 4c 46 1b be
       -0.1365607 -0.061701294 -0.09452855 -0.15163535
000010 f6 d8 12 be 77 ce 25 be 4b 7b 0c be 18 fd ed bd
       -0.14340577 -0.16192041 -0.13718908 -0.116205394
000020 5a cb e7 bd 40 18 bf bd 8d 92 4f be e6 99 ee bd
       -0.11318083 -0.09330797 -0.20270748 -0.116504475
000030 cd 0d fc bd 16 27 88 bd 22 f9 03 be 14 48 a3 bd
       -0.1230732 -0.0664808 -0.12888005 -0.07972732
000040 2f b1 bb bd 62 ef 40 be 8d 31 ae bd 25 23 68 be
       -0.091646545 -0.18841317 -0.08505545 -0.22669657
000050 f4 7e f1 bd 65 a6 55 be b0 38 e2 bd 61 32 52 be
       -0.117917925 -0.20864256 -0.110459685 -0.2052703
000060 cc 43 9d 3c 97 30 94 bd 9d 45 21 be 3b 0f 95 bc
       0.019197367 -0.0723583 -0.15749212 -0.018195739
000070 08 21 db bd d3 c9 13 be b0 27 05 be 45 6b 12 bd
       -0.106996596 -0.14432459 -0.13003421 -0.03574683

classifier.layer2.1.running_mean f4 [32]
000000 7a 73 f4 bc 92 6e 28 3e ed f4 a6 bf 82 b8 cf be
       -0.02984022 0.16448429 -1.3043495 -0.40570456
000010 2f 24 23 bf b2 d4 59 be 7b 9e 98 bf 8b 9f aa bf
       -0.63727087 -0.21272543 -1.1923364 -1.3329939
000020 43 bd bd bf 94 1d aa be a8 dd 04 bf 64 6e c3 bf
       -1.4823383 -0.3322569 -0.5190072 -1.5268064
000030 a6 fe 9c bf ad 7e 29 bf 2a 8c 7f bf 9b 51 39 3e
       -1.2265213 -0.66208917 -0.9982325 0.18097536
000040 e2 fd ae bf 41 b8 41 bf 31 46 41 3f 34 31 a1 bf
       -1.3671229 -0.75671774 0.7549773 -1.2593141
000050 d4 3d 8e bf ff ad 72 bf 61 dc b2 be 71 5f 50 bf
       -1.1112618 -0.94796747 -0.3493376 -0.8139563
000060 e0 a5 af bf 1c e8 88 3e 65 51 f1 3e 5f d5 57 bf
       -1.3722496 0.26739585 0.47132412 -0.84309953
000070 3a fe 3f be 23 91 a7 3f 25 28 a5 3f 61 92 76 be
       -0.18749323 1.3091167 1.2902876 -0.24079277

classifier.layer2.1.running_var f4 [32]
000000 2f e3 f6 3e 7c 98 3c 3f ff 63 9d 3f 58 52 22 3f
       0.48220202 0.7367017 1.2296141 0.63406897
000010 a4 34 f4 3e 9c bf e7 3e c1 cb 39 3f 67 cf 88 3f
       0.47696412 0.45263374 0.7257653 1.0688294
000020 b2 6e ad 3f 9b cc b7 3e 11 12 38 3f 5a 65 81 3f
       1.3549407 0.3589829 0.7190257 1.0109055
000030 c8 49 53 3f c9 90 fe 3e 7f 9b b6 3f fb ec 80 3f
       0.82534456 0.49719837 1.4266204 1.0072321
000040 3a 2d 70 3f 68 aa 16 3f 24 0c 8a 3f 06 87 3e 3f
       0.9381901 0.5885377 1.0784955 0.7442478
000050 fd f6 19 3f 37 d6 8b 3e c7 b8 3f 3f 1b 46 e8 3e
       0.601425 0.2731187 0.7489132 0.45365986
000060 ab 9d c1 3f d7 a5 cf 3e 6e 4c 9b 3e 59 88 f3 3e
       1.5126241 0.40556213 0.3033175 0.47564963
000070 aa 22 1a 3f 85 aa 0d 3f 16 70 47 3f 4e f2 2a 3f
       0.60209143 0.5533832 0.77905405 0.6677598
