model/Experiment/DWNs_0.1.pt (torch, 446405 bytes, 70 tensors)

conv_spa.weight f4 [57, 3, 3, 3]
000000 0c 17 00 be fe ed 0e be 3f ee 0c be f6 ee b4 3d
       -0.12508792 -0.13957974 -0.13762759 0.08834641
000010 e0 90 8a bd 52 c2 58 bd 14 d0 27 3e 0b e9 fd bb
       -0.06765914 -0.052919693 0.1638797 -0.007748728
000020 72 54 4d 3e 58 47 99 3e 9b 40 f0 3d e0 78 2a 3e
       0.20051745 0.29937243 0.117310725 0.16647673
000030 c7 27 96 bd 62 66 37 3e 3f 13 65 3c a4 1e 25 be
       -0.07331806 0.1791015 0.013981639 -0.1612497
000040 ed db 4f be 0b e4 23 be 84 30 3b be 6c 8a 1d bd
       -0.20298739 -0.1600496 -0.18280226 -0.038462088
000050 dc 0c d8 3c 93 5c 36 be ad 73 ea bd 74 6d c1 3d
       0.02637332 -0.17808752 -0.11447845 0.09444705
000060 f8 a5 15 3e 7c cd 03 3e f7 ec 41 bd 54 aa 19 3e
       0.14614093 0.12871355 -0.047345128 0.15006381
000070 aa 0e 31 3e cd a7 6d 3d 05 d9 29 3e 02 81 00 be
       0.1729075 0.058021355 0.16586693 -0.12549213
000080 69 91 7c be f1 37 4c bb 81 a2 60 be 9b d0 3a 3d
       -0.24664845 -0.0031161273 -0.2193699 0.045609098
000090 76 59 61 3e e2 58 ad 3d 90 ac 15 be 38 4f 6b 3e
       0.22006783 0.08464219 -0.14616609 0.22979438
0000a0 f8 c3 22 be f3 c0 41 be 56 c2 c9 bd 4c 4d 29 3e
       -0.15895069 -0.1892126 -0.0985152 0.16533393
0000b0 8f 2d 0d be ea 30 ff 3b 36 6d 29 3e cc 7b 36 be
       -0.1378691 0.0077878134 0.16545567 -0.17820662
0000c0 8a 1a f0 3d 2a 0c 6f bc cd a6 2a 3c 94 07 fc bb
       0.11723812 -0.0145903025 0.010415745 -0.007691333
0000d0 52 89 1b be ce 98 4e 3d 2e 0d 81 3d 01 fa 12 bc
       -0.15189102 0.050438695 0.06301342 -0.008970738
0000e0 56 49 70 be 4f 2c ed 3d b6 7c eb ba 97 91 14 bd
       -0.23465475 0.11580717 -0.0017966244 -0.036271658
0000f0 cd fe a5 bd 21 4b 93 3d dd 82 81 3d 41 6a 19 be
       -0.0810524 0.07192064 0.06323788 -0.14981939
000100 1c 29 c1 bd d8 ae 3f 3d b8 9c 39 3e 6b 4f 89 3d
       -0.09431669 0.046797603 0.1812619 0.06704601
000110 aa 38 44 3d 0f fe 77 3e 81 2c 9e bd 3f ae 69 3e
       0.0479056 0.2421801 -0.07723332 0.22820376
000120 bd 2d 98 3d 65 59 81 3e 59 e5 02 be e1 5d c9 bd
       0.07430599 0.25263515 -0.12782802 -0.09832359
000130 82 5e 17 bc 7a fe 80 bd 87 5e b0 3d 63 1e 68 be
       -0.009238841 -0.062985376 0.0861178 -0.22667842
000140 0c 67 09 be 50 36 c4 bd 30 18 dc bd 0f ec f6 3d
       -0.13418216 -0.09580672 -0.10746801 0.12056743
000150 94 98 2a be 48 42 b2 3d ff 48 64 3d ac bd 37 3e
       -0.16659766 0.087040484 0.055733677 0.17943448
000160 15 d7 0b 3d fe ff db bd f7 76 2b bd 4a d3 d6 bd
       0.034140665 -0.10742186 -0.0418615 -0.10489519
000170 38 a4 1c be c1 65 01 3e 6b c5 0a 3c 74 a3 03 be
       -0.1529702 0.12636472 0.00846992 -0.12855321
000180 48 2f 90 3e ba 8d 13 3d 4c ce dc 3d 8a ce b1 3c
       0.28161073 0.036023833 0.107815355 0.02170493
000190 f6 68 4a bd e5 65 27 3d 4c 0f 23 bd ff 2e 2b be
       -0.049416505 0.04086866 -0.03980951 -0.16717146
0001a0 f7 98 09 be 7e f9 a9 bd 62 1f ee 3d b6 40 dd bd
       -0.13437258 -0.0829954 0.116270795 -0.10803358
0001b0 8b 53 6d 3e 83 71 ee 3d 76 b6 10 3e 5f ab 0d 3e
       0.231764 0.116427444 0.14132103 0.13834904
0001c0 f8 34 93 bc 1b b8 47 3e ee 16 ca bd 97 91 9d bd
       -0.017969593 0.19503824 -0.09867655 -0.07693785
0001d0 7f c1 f6 bd fd 07 60 3e 14 09 44 bd f9 b1 fc bd
       -0.12048625 0.21878047 -0.04786022 -0.12338633
0001e0 e2 80 8f bc ba 70 4f 3e 7e 35 f0 3d 29 cb 1b 3e
       -0.01751751 0.20257846 0.11728953 0.15214218
0001f0 a7 c7 d7 bc f8 2d b3 bd d4 bd 9a 3d ec a2 14 3d
       -0.026340319 -0.08749002 0.07555738 0.036288187
000200 67 eb 19 3e 36 17 f3 bd 39 66 df 3d 96 06 65 3e
       0.15031205 -0.118696615 0.10908169 0.22365794
000210 a9 af 81 3d aa 1b fc 3d 04 82 f5 3d e1 bb 7a 3e
       0.06332333 0.12309964 0.11987689 0.24485733
000220 ff 7c a6 bd 58 8c 19 bd 2f e7 15 3d 8f fb 68 3c
       -0.0812931 -0.037487358 0.036597427 0.0142201325
000230 51 30 9d bd 47 dc 14 3d 3e 59 9c bc 0a b4 a3 bd
       -0.07675231 0.036342885 -0.019085523 -0.07993324
000240 09 0a 4c 3d 36 61 ed 3d 2c b2 10 3d 28 bc 48 3e
       0.049814258 0.11590807 0.035326168 0.19603026
000250 64 a0 00 bb f1 5e 6b be 2a 73 d4 3d df ad dc 3d
       -0.001962685 -0.22985436 0.10373528 0.10775351
000260 35 30 d8 bd 6b ae 90 bd f7 9a c0 3d fc 7f 27 3d
       -0.1055607 -0.070645176 0.09404557 0.04089354
000270 7c 45 62 be 95 82 2d bd 27 7c dc bd 95 fd 4a 3e
       -0.22096819 -0.04236086 -0.10765868 0.19823296
000280 77 10 dc 3d d4 00 25 3d 38 e9 1f 3e fd f2 c6 bd
       0.10745328 0.040283993 0.1561631 -0.09714315
000290 be 04 d1 3d d6 dd 08 be 0a 13 23 bd b8 cd 3b be
       0.102059826 -0.13365874 -0.03981308 -0.18340194
0002a0 04 47 a1 3d 20 58 d5 3b cc 15 c1 3b d3 7d 23 3e
       0.07874873 0.0065107495 0.005892491 0.15965967
0002b0 2e e8 f5 3d 58 2b 90 bc 5a 79 62 3e 10 96 96 3e
       0.120071754 -0.017598793 0.22116604 0.29411364
0002c0 ba 40 91 3c 37 df 6b 3e 91 0d 10 be 32 0a d5 bd
       0.01773106 0.23034368 -0.14067675 -0.10402335
0002d0 85 b9 42 bd ef f1 56 be 01 09 32 be 8b c1 c6 bc
       -0.047540206 -0.20990728 -0.17386247 -0.02426221
0002e0 ab 12 2f bc 80 60 cc 3d c6 05 01 3e ef b0 1c bb
       -0.010685603 0.099793434 0.12599859 -0.0023909172
0002f0 03 c3 94 3c 53 96 0c bd db 3c e3 b8 84 49 3e bd
       0.018159395 -0.034323048 -0.00010835539 -0.04645683
000300 1f ff 8d 3d 9a e3 d7 bc ad 88 07 3e 65 58 c9 bd
       0.06933426 -0.026353646 0.13235731 -0.09831313
000310 f7 70 63 bd a1 f8 eb 3c 37 6d 87 3c 12 51 16 bd
       -0.055527654 0.028805079 0.01653157 -0.03669841
000320 31 e6 07 be d9 a6 e6 bb 79 97 e6 bd f5 68 ac 3d
       -0.13271405 -0.0070389328 -0.1125936 0.084184565
000330 a2 05 6c 3d 98 60 e9 3b 65 bd 4f 3e 6f 24 26 3e
       0.05762256 0.0071221106 0.20287092 0.16224836
000340 f8 69 97 bd ab c9 16 3e 19 80 8e bd 6d 13 c3 bd
       -0.07393259 0.14725368 -0.069580264 -0.095251895
000350 25 fd 2b 3e 47 d8 4d be ad 78 40 be dc 92 c3 3d
       0.16795786 -0.20102035 -0.18796034 0.095494956
000360 6c fa 03 bc 27 c1 a4 3a e3 ad 86 bc 14 cb 77 3d
       -0.008055311 0.0012569771 -0.016440338 0.060496405
000370 87 58 13 3e 9f 7a 75 be ae 84 54 be a4 c3 09 3e
       0.14389239 -0.23972557 -0.20753738 0.13453537
000380 1c 0a 15 3e ba b2 0a be d8 b6 79 bd 04 84 4f bd
       0.14554638 -0.13544741 -0.06096539 -0.05066301
000390 ba db cf 3d 5e cf 72 3c 7d 42 45 be 10 fd e8 3d
       0.101493314 0.014819948 -0.19263645 0.11376393
0003a0 fc 77 89 3e 5d f5 da bd d8 69 aa 3d 7f 87 10 3d
       0.26849353 -0.106913306 0.08320969 0.03528547
0003b0 a0 af d6 bd 39 12 46 3e b3 da 58 bd 56 48 7a be
       -0.104827166 0.19342889 -0.052942943 -0.24441656
0003c0 fb fb 49 3c 42 87 e4 3d 97 75 ef 3c 45 51 1d 3d
       0.012328143 0.11158611 0.029230876 0.038407583
0003d0 95 60 d3 bd 25 70 69 be 99 65 1f bd 2f 98 b8 3d
       -0.10321156 -0.22796686 -0.03891525 0.09013402
0003e0 7f 26 6e be 8b 20 f4 3d 0d 4d cd 3b a3 96 1b be
       -0.23256873 0.119202696 0.0062652887 -0.15194182
0003f0 bd 2e 8a 3d 71 1f 0f 3e 9f b2 18 3e 1a c5 e1 3d
       0.06747196 0.13976838 0.14911889 0.11023922

conv_spa.bias f4 [57]
000000 e6 a8 fc 3c 44 ba 3b 3e 4b 60 b3 bd 67 a9 9e bd
       0.030842256 0.18332773 -0.08758601 -0.07747155
000010 ff 22 a1 bd 1c df 0e 3e c0 6c 83 3c 2e f4 f1 3d
       -0.07868003 0.13952297 0.016043067 0.11814152
000020 1d aa d5 bd 8c c1 9c 3d bc 8d 41 be 71 7c 37 be
       -0.10432837 0.07654104 -0.18901724 -0.17918564
000030 d6 f8 49 3e 04 f2 3d bd 3e fe 00 3e da 52 62 3d
       0.1972383 -0.046373382 0.12596986 0.055254795
000040 0d ee 44 3d fd 55 2f be d3 ad df bd dc 7b c1 bb
       0.048078585 -0.17122646 -0.10921826 -0.0059046578
000050 b5 db 20 3e de 9a 95 3d 93 29 0c 3e b8 3e 17 3e
       0.15708812 0.07304929 0.13687734 0.14770019
000060 ff 7e 8f 3d e8 4e 33 be 8c 4f 17 3e 4d aa aa bd
       0.070066445 -0.17510569 0.14776438 -0.083332635
000070 6d 8d 29 be 08 95 11 3e 6f 1f 04 be 1d 63 2b 3d
       -0.16557856 0.14217007 -0.12902616 0.04184257
000080 b2 1e e1 3c a4 7f 95 3c be c1 0a 3e e9 bd e2 3d
       0.027480457 0.01824934 0.1355047 0.11071379
000090 b4 76 b6 bc 2b c5 47 3c dc 04 82 3e 53 a0 f1 3d
       -0.022273399 0.012193005 0.25394332 0.117981575
0000a0 0a 5a 88 bd 5f 6b 0e be 75 8d e7 bd a8 93 0a bc
       -0.066577986 -0.13908146 -0.11306278 -0.008458056
0000b0 4a 08 48 3d 78 d9 fc bd 33 a9 d6 bd 29 15 fb 3c
       0.04883603 -0.12346166 -0.10481491 0.030649738
0000c0 65 2c 22 be 85 7e d0 3d 89 6e 29 be 43 c7 c1 bd
       -0.15837248 0.10180382 -0.16546072 -0.09461834
0000d0 ed d7 80 bd 82 71 11 be 35 aa 29 3e 30 95 ff 3d
       -0.062911846 -0.14203456 0.16568835 0.12479627
0000e0 49 7f bf 3d
       0.093504496

conv_fre.weight f4 [7, 3, 3, 3]
000000 37 f0 2c be 1c 9c e5 3d 6c 03 2c 3e 89 5b 48 3e
       -0.1688851 0.11211416 0.1679818 0.19566168
000010 2a 23 e9 3d 89 de b6 3d 6d ea df 3c cb 1d 20 3d
       0.1138366 0.08929164 0.027333463 0.039090913
000020 78 01 42 be dd 2f 66 be bf 38 e9 3d de 39 4b 3c
       -0.18945873 -0.22479196 0.113877766 0.012403933
000030 d4 98 87 bc 71 42 0f bd 99 97 b3 3d c6 57 4a 3e
       -0.016552366 -0.034975473 0.08769149 0.19760045
000040 3c 19 3a bd 28 06 20 be 49 4f 98 be da 4c cb bb
       -0.04543422 -0.15627348 -0.2974799 -0.00620423
000050 d3 e3 cc bd 33 ea 33 3e 34 29 07 3d ee 43 0f 3e
       -0.100043915 0.17569809 0.03299828 0.13990757
000060 a6 f4 8d bb 52 33 e6 bd 6e cb 12 be 9f 19 63 bc
       -0.004332143 -0.11240257 -0.14335415 -0.013861089
000070 e9 60 42 3e fa 5c 10 be 14 8d 92 bc e7 78 22 be
       0.18982281 -0.14097968 -0.017889537 -0.15866433
000080 9d f7 33 be 43 4f a3 bd 53 2d 95 bc be 75 c9 bc
       -0.17574926 -0.07974102 -0.018210089 -0.024592277
000090 40 80 c9 bd 13 46 11 3e 1b cd a1 bd 56 19 f9 bd
       -0.09838915 0.14186887 -0.07900449 -0.121630356
0000a0 5a fa f4 3c 79 ff b4 3c 9c ad db bd 57 82 38 3d
       0.029904533 0.022094475 -0.10726473 0.045046177
0000b0 70 23 e9 bd bc b3 69 3e 31 08 0c 3d 7a 5f 68 3e
       -0.11383712 0.2282247 0.0341875 0.22692671
0000c0 ad 19 c8 3d 0a 57 9e 3e a6 8c 2e bd 34 a5 2c 3e
       0.09770522 0.3092578 -0.0426146 0.16859895
0000d0 ac d5 5a 3e 05 c6 2a bd 2a 7f fe 3c 37 49 7b 3e
       0.21370572 -0.041692752 0.031066496 0.24539648
0000e0 29 24 33 3e 31 e9 7e 3d 81 21 11 bd 9c 01 b1 3d
       0.17494263 0.062234107 -0.035432342 0.08642885
0000f0 a8 4e 05 3d 60 95 94 bc 9e 10 fa 3d 45 3c 3e 3e
       0.032545716 -0.018137634 0.12210201 0.18577679
000100 20 f7 75 3e 54 5b 8e 3c 20 4d 27 be d7 06 5f bc
       0.24020052 0.017377533 -0.16338015 -0.013612471
000110 c9 9d 0a be d6 20 6e bd e2 b9 99 bd 6a 26 41 be
       -0.13536753 -0.058136784 -0.075061575 -0.1886231
000120 32 31 43 3e e9 77 21 3e 87 0c 9f bd 11 de 4f be
       0.19061735 0.15768398 -0.07766061 -0.20299555
000130 b5 11 73 bd 6a a0 8e bc e8 06 3e be 21 f0 b1 bd
       -0.05934306 -0.017410476 -0.18557322 -0.08688379
000140 bf f5 e4 bd 2d b8 21 bd fc 66 cf 3c b3 1c 1b be
       -0.11179685 -0.039482284 0.025317661 -0.15147667
000150 55 95 7c 3e d4 50 18 3d 1a 85 1c 3c 06 47 a3 bd
       0.2466634 0.03718646 0.009553218 -0.07972531
000160 1c ac 12 be 5f a8 6e bd 92 65 f3 bd 9a c5 97 3c
       -0.14323467 -0.05826604 -0.118846074 0.018526841
000170 40 b5 2e 3d c0 2b ac bc b7 52 51 be da e2 3e 3d
       0.042653322 -0.021016955 -0.2044171 0.04660306
000180 14 7f 05 be 0a e9 06 3e b4 65 ce 3e d1 4c 25 3e
       -0.13036758 0.13174835 0.40311968 0.16142584
000190 eb ff 5a bc 7a 21 03 3e 6a 47 d5 3d 75 92 d0 3a
       -0.01336668 0.12805739 0.10414012 0.0015912788
0001a0 96 40 73 bd 9e cb 25 3e 19 9d e5 3d 15 74 2d 3d
       -0.059387766 0.16190955 0.112116046 0.042347033
0001b0 75 0d c3 3c f5 54 1d 3e bd 18 ed 3d c5 11 2a be
       0.023810128 0.1536444 0.11576984 -0.16608341
0001c0 6c eb 8e 3d ba c0 d4 3d 44 77 76 be e2 15 01 be
       0.06978497 0.10388322 -0.24068934 -0.12606004
0001d0 d1 87 8c bd 4e 9c 8d bd 3d 63 82 bd 25 25 04 bd
       -0.068618424 -0.069145784 -0.063665845 -0.032261986
0001e0 23 ad 36 be 22 84 15 bd 8c 0e 3c 3e df 0c 75 be
       -0.17839484 -0.036502965 0.18364924 -0.23930691
0001f0 12 20 c4 bd 7f 79 a4 3d 70 6f a2 bd 11 8b 01 3e
       -0.095764294 0.08030986 -0.07931411 0.12650706
000200 19 17 c4 3d 10 97 5d be 43 d6 4a 3e bf d7 26 bb
       0.09574718 -0.21639657 0.19808297 -0.0025458185
000210 5b f8 2d be a6 3d 0e bd de 73 e5 3d 94 15 5d 3e
       -0.16989271 -0.03472676 0.112037405 0.21590263
000220 33 0c 34 3e f4 d2 93 bd 28 ae 92 3d 26 d7 8d 3d
       0.17582779 -0.072179705 0.07162124 0.06925802
000230 f5 0c 0b 3e 04 3a 75 bd fd 2a 11 3e f6 ff 9b 3e
       0.13579161 -0.05986978 0.14176555 0.3046872
000240 1f f9 3a 3e 97 42 a3 3d 55 28 15 be 91 50 21 3d
       0.18259095 0.079716854 -0.14566167 0.039383475
000250 b2 9a d4 bd 2c d9 2d 3d 82 37 93 bd c0 8f 17 bd
       -0.10381068 0.04244344 -0.07188322 -0.037002325
000260 8f 30 78 3e 99 30 b8 3d 56 4c d4 3c d9 94 67 be
       0.24237274 0.08993644 0.025915306 -0.22615375
000270 6c 29 89 bd 80 43 5b 3d 44 e9 cb bd ef 18 17 be
       -0.06697354 0.05353117 -0.09956601 -0.14755605
000280 35 a4 c1 bc 22 94 fd 3d 4e e1 97 3e bc 5c 84 bd
       -0.02363787 0.1238177 0.2966408 -0.06463
000290 68 6e 9b 3d b5 0d 2d 3e 0a fb 02 3c 09 82 71 3d
       0.07589418 0.1689976 0.007994423 0.0589619
0002a0 d3 f4 72 3e 35 88 21 3d d9 cb 8a be 30 ca e9 bd
       0.23726206 0.039436538 -0.27108648 -0.11415517
0002b0 27 a1 9e 3d ce 32 37 39 5f 76 16 be b1 a4 db bc
       0.07745581 0.00017471166 -0.14693592 -0.02681193
0002c0 dc ec 98 3c 95 b2 8a bd f2 b9 b5 3d 0d db ce bc
       0.01866763 -0.06772343 0.08873357 -0.025250936
0002d0 4e 9e 3f be ca ff e0 3b a2 d1 93 bd 81 08 2a 3c
       -0.18712732 0.00686643 -0.07217719 0.010378004
0002e0 48 c9 aa 3c 2e 05 95 bd 5e 5a 21 be 07 dd c1 bd
       0.020847932 -0.072763786 -0.15757129 -0.09465986
0002f0 a9 d7 8b 3e
       0.27312973

conv_fre.bias f4 [7]
000000 70 e4 ca 3d 2a d5 60 3e 17 9b 08 bd 0f 57 40 3d
       0.09906852 0.21956316 -0.03335103 0.046958026
000010 ed c3 1f 3e 54 0f dd 3d 0f 0a a8 3d
       0.15602084 0.10793939 0.082050435

BN.weight f4 [64]
000000 4b c3 34 3f be a4 6f 3f 9a 4f 09 3f 8f 7f 09 3f
       0.70610493 0.9361075 0.5363709 0.53710264
000010 e4 24 23 3f 9f 82 fb 3e 65 cf 22 3f c8 85 17 3f
       0.63728166 0.49123093 0.6359771 0.5918851
000020 10 12 1e 3f 75 d6 6f 3f 84 b9 34 3f 1f 68 30 3f
       0.6174631 0.9368661 0.70595574 0.68908876
000030 ba 17 44 3f 41 c9 24 3f d3 b1 1a 3f 50 e5 3b 3f
       0.76598704 0.6436959 0.6042759 0.7339678
000040 5b a3 29 3f 48 e9 8a 3f c6 7e 23 3f ba 1c 17 3f
       0.66264886 1.0852442 0.63865316 0.5902821
000050 59 aa 3b 3f 5a 59 58 3f 30 0f 26 3f 79 80 2f 3f
       0.73306805 0.8451134 0.64866924 0.6855541
000060 0b 89 02 3f dc 51 09 3f 3a f2 41 3f 36 62 50 3f
       0.5099036 0.5364053 0.75760233 0.8139986
000070 41 a0 2a 3f e3 e7 2b 3f 8b d5 0d 3f c8 07 f5 3e
       0.6665078 0.67150706 0.55403966 0.478575
000080 de c4 0b 3f f2 fe 65 3f 01 5a 68 3f 6a 28 7b 3f
       0.5459727 0.8984214 0.90762335 0.9810854
000090 cb 0c 83 3f b6 8e 2e 3f f1 99 82 3f f1 6e 6d 3f
       1.0238279 0.6818651 1.0203229 0.9274741
0000a0 7b de 47 3f e0 53 a9 3f dd f1 37 3f 0a 43 8f 3f
       0.78073853 1.3228722 0.7185343 1.1192334
0000b0 71 14 34 3f 4c 14 64 3f 73 e9 06 3f d7 65 85 3f
       0.7034369 0.8909347 0.52699965 1.0421704
0000c0 5f 20 18 3f 11 49 07 3f 48 9d 37 3f 58 01 52 3f
       0.59424394 0.52845865 0.7172437 0.820333
0000d0 6e 3f 44 3f 0e b8 9d 3f 5a 41 07 3f 1b e4 49 3f
       0.76659286 1.2321794 0.52834094 0.78863686
0000e0 82 2e 1c 3f 8e 7f 8e 3f 35 bd a5 3f 3d ac c3 3f
       0.61008465 1.1132677 1.2948366 1.5286938
0000f0 06 9f 95 3f e5 d0 6f 3f b1 6b 85 3f 98 9a b7 3f
       1.1689155 0.9367812 1.042349 1.4344053

BN.bias f4 [64]
000000 3b 02 56 3e 0c e8 00 be 66 ad 95 be 4d 34 d7 be
       0.20899288 -0.12588519 -0.29233855 -0.4203209
000010 1c 13 99 be d4 76 09 bf 52 a6 02 bf 8f bb db bd
       -0.29897392 -0.5369694 -0.51035035 -0.10729133
000020 d4 af 89 be 38 12 03 be ad f5 06 3e 83 c0 3e bd
       -0.2689196 -0.12799919 0.13179655 -0.046570312
000030 4d 64 ad bd c0 88 da be f6 f8 ed be 35 67 23 be
       -0.084663965 -0.42682457 -0.46479005 -0.15957339
000040 f1 19 95 be 78 90 aa 3e fc 13 ff be bf 59 01 bf
       -0.29121354 0.33313346 -0.49819934 -0.50527567
000050 57 c7 d3 be 0b 25 0f 3e 5f 35 05 bf 28 7f b6 be
       -0.41363022 0.13978975 -0.5203456 -0.35643888
000060 6f 3a c9 be 50 b0 24 bf 30 75 c5 be 97 5c dc bd
       -0.39302394 -0.6433153 -0.3856597 -0.107598476
000070 96 b7 e3 be 48 8c 7e be 19 b1 2a bf 87 3d 1b bf
       -0.44476002 -0.248582 -0.6667648 -0.6064076
000080 3c 6b 31 bf b2 5a 22 be 7e 9d bd bd 79 41 70 be
       -0.6930425 -0.1585491 -0.09258555 -0.23462476
000090 d7 2b 45 3e c5 01 40 be a2 76 38 3e b2 f9 3a 3e
       0.19255005 -0.18750675 0.18014005 0.18259314
0000a0 62 bc 6d be 65 08 64 3f f8 24 ee be 71 22 9b 3e
       -0.23216394 0.8907531 -0.4651258 0.30299714
0000b0 1c c6 f1 be e8 79 6e be f0 21 8f be 78 64 28 be
       -0.47221458 -0.23288691 -0.2795558 -0.16444576
0000c0 ab 23 a6 be ae 74 3e bf bc fb 00 3e 5b 75 03 be
       -0.32449088 -0.7439679 0.12596029 -0.12837736
0000d0 e1 ea ef 3e 2d 8f ed 3e 57 c1 2c be 5e 6c 8e be
       0.46858886 0.46398297 -0.16870628 -0.27817053
0000e0 37 3b 89 be 8e a0 c8 3e b9 2e 06 3c 97 50 35 3f
       -0.2680299 0.39184994 0.0081898505 0.70826095
0000f0 62 ea cf 3b fd 5c cb 3e 9e 2d 57 be b4 f9 da be
       0.0063450793 0.39719382 -0.21013495 -0.42768633

BN.running_mean f4 [64]
000000 2a c1 62 3c 88 95 37 3e d9 9b 8b bd 67 0c 17 be
       0.013839999 0.17928135 -0.06816835 -0.14750825
000010 45 89 6d 3e fe 72 49 3e 15 6b b0 3d f1 29 ef 3d
       0.23196895 0.19672772 0.08614174 0.116779216
000020 d5 ad c1 bd 26 7e c9 3d 00 5c 86 be 87 5e 16 be
       -0.09456984 0.09838514 -0.26242065 -0.14684497
000030 e9 ff 7c 3e de 70 f9 3d 7b 9f 96 3e a9 e5 ae 3d
       0.24706997 0.12179731 0.2941855 0.08539898
000040 4c 42 9d 3c d6 27 12 be 37 a5 3d be 30 b3 8f 3d
       0.019196652 -0.14273009 -0.18520056 0.07016599
000050 f9 61 22 be d9 f0 b0 3d 53 83 4f 3e 0f 27 1e 3e
       -0.15857686 0.08639688 0.2026494 0.15444587
000060 87 f6 19 3e 87 d4 da bd fd 18 58 be 47 01 29 be
       0.15035449 -0.106850676 -0.21103282 -0.16504394
000070 80 02 72 bd dd 8b 01 3e e0 c1 7d 3c bc 58 e9 bd
       -0.059084415 0.1265101 0.015488118 -0.11393878
000080 8c fd 07 3e d5 34 9a 3c 88 f0 0d 3e 0d 56 df 3d
       0.13280314 0.01882402 0.13861287 0.10905085
000090 e3 8c 98 bd d7 0f e8 bd d8 6c 8f 3e b2 83 19 3e
       -0.07448747 -0.11331146 0.2801273 0.14991644
0000a0 cd d2 9b bd ec f0 0d be df c0 8d 3c 85 93 8c 3b
       -0.076085664 -0.13861436 0.017303882 0.0042900466
0000b0 ec 80 97 be c7 72 05 be 6a ae 78 bd c9 49 fa 3c
       -0.29590547 -0.13032065 -0.06071321 0.030552762
0000c0 3d f9 4f be ef 0f 8e 3e 98 74 15 be 8e 23 c9 bd
       -0.2030992 0.2774653 -0.14595258 -0.09821235
0000d0 bb 47 83 bd a9 0c 08 be cd 89 18 3e fb 7c cc 3d
       -0.06410166 -0.1328608 0.14896317 0.09984776
0000e0 7b 0c b0 3d a4 2a fe 3d 02 93 ba bf e5 35 fa be
       0.085961305 0.12410477 -1.4576113 -0.48869243
0000f0 5f a2 0a c0 84 57 02 40 22 17 48 c0 da dc 31 be
       -2.1661603 2.0365915 -3.126412 -0.17369404

BN.running_var f4 [64]
000000 3c 14 8f 3c e6 6d 2f 3e 90 e7 d1 3d b0 10 59 3e
       0.017465703 0.17131767 0.10249245 0.21197772
000010 12 f9 8a 40 5b 3e 70 3e 9b 1d d5 3e 9f 6b 4f 3d
       4.342904 0.23461287 0.4162415 0.050639745
000020 c9 03 e4 3d a8 7a 14 3e 70 f1 58 3e 69 ff 60 3e
       0.111335345 0.14499915 0.21185851 0.21972431
000030 f8 d5 02 3e 26 f2 e5 3f 61 a3 6b 3f 47 7a 06 3e
       0.12776935 1.7964523 0.9204617 0.13132583
000040 5f a4 3e 3e 9f f2 09 3e 6a 69 e2 3e 59 8a fd 3e
       0.1861739 0.13471459 0.4422105 0.49519613
000050 7e 61 87 40 f0 c7 16 3e 2f fb e5 3e 70 cd a8 3d
       4.230651 0.14724708 0.449182 0.08242309
000060 e1 33 56 3e ec 92 b8 3e 57 21 a8 40 cb 17 c6 3e
       0.20918228 0.36049592 5.25407 0.38690028
000070 5e 92 1c 3f d0 f9 eb 3d fc ed bd 3f 22 ca d0 3f
       0.6116084 0.11522257 1.4838252 1.6311686
000080 cb 88 01 40 a9 7e 26 3d b1 61 6b 3e d2 8d 22 3e
       2.0239742 0.040648136 0.22986485 0.15874413
000090 39 3c 60 3e 4b 9c 09 3f 19 fc 48 3e 02 15 13 3e
       0.21897973 0.5375411 0.19627418 0.14363483
0000a0 2c 46 21 3e 67 03 6e 3b 15 72 76 3f 0c 6e 5b 3e
       0.15749425 0.0036317946 0.96267825 0.21428698
0000b0 d0 ee 97 40 c2 8c 47 3e 71 9b 3a 3e 73 f8 e4 3d
       4.747902 0.19487289 0.18223359 0.111802004
0000c0 8f 88 b3 3e 48 53 5a 40 66 22 6b 3d 8d c2 24 3e
       0.35065123 3.411333 0.05740585 0.1608984
0000d0 d2 bb d7 3b 88 39 b9 3d 8f 77 0b 3e eb 0f 9f 3d
       0.006583669 0.09044176 0.13619827 0.07766708
0000e0 e3 1f a4 3d 1c 60 87 3f 16 ef 3d 3f 30 99 9f 3f
       0.080138944 1.0576205 0.7419294 1.2468624
0000f0 d3 ec 2f 3f ed cf eb 3f 4d 72 be 3f 2a e4 ee 3d
       0.6872074 1.8422829 1.4878632 0.116646126

classifier.layer1.0.weight f4 [32, 64, 3, 3]
000000 b3 0a 1b 3d 78 77 30 3d 37 c1 ad 3c 03 7e 46 3c
       0.037852 0.043082684 0.021210296 0.0121150045
000010 8f 71 91 3c 30 ad 1c bc 61 0e d7 bb 7a 27 83 bd
       0.017754344 -0.0095627755 -0.0065629934 -0.06404014
000020 52 fa 03 bd b4 d8 73 bd c1 61 5b be 43 0f 32 be
       -0.032221146 -0.059532836 -0.21424009 -0.17388634
000030 07 2c 71 be bb 4a 9a be bc 05 34 be 09 3b 64 be
       -0.23551951 -0.3013514 -0.17580312 -0.22288145
000040 65 a9 7c be a4 2c fa bd 9c 55 80 3d f9 0c 8f 3c
       -0.24673994 -0.12215546 0.06266329 0.01746224
000050 ee 5b b6 bd b6 5f 2c bd 02 da a5 bd f1 2f f3 bd
       -0.08904253 -0.042083465 -0.08098222 -0.118743785
000060 17 aa 91 bd 9e 09 18 be 0e f3 6f bd 5f dc 46 3d
       -0.0711252 -0.14847419 -0.058581404 0.048550006
000070 e5 12 aa 3c 3d 86 5c 3c 66 4a 49 bd 8c 14 4d bd
       0.020760963 0.013459739 -0.049143218 -0.050068423
000080 ec 89 43 3d 2a 12 be bd 52 ed 08 be 5a 3d c4 bc
       0.047738954 -0.09280808 -0.1337178 -0.023955036
000090 13 ce 29 3d c7 57 a9 bc 38 4b 88 3c 48 19 2b 3c
       0.041456293 -0.020671738 0.01663743 0.010443039
0000a0 40 99 bb bc ae f5 85 bc 01 4c e5 bb 98 0f 0c bc
       -0.022900224 -0.0163525 -0.0069975858 -0.00854864
0000b0 2b 6f ce 3c 98 e0 27 be 0e 33 08 be b5 d2 00 be
       0.025199493 -0.1639427 -0.13300726 -0.12580378
0000c0 f8 53 f7 bd 1d 34 9a bd 03 70 cc bd c1 b4 49 bd
       -0.12076563 -0.07529471 -0.09982302 -0.049244646
0000d0 28 a7 f5 bd ea 93 be bd aa af b0 bb c9 82 bc 3c
       -0.11994773 -0.09305556 -0.0053920345 0.023011582
0000e0 dd 97 83 bd 3c 61 ee 3b 30 34 22 bd ff 7d e6 bc
       -0.0642545 0.007274775 -0.03960055 -0.028136251
0000f0 04 fe 23 3d b1 c6 3e bd b6 48 e2 bc c0 10 40 3d
       0.04003717 -0.046576206 -0.027622562 0.046890974
000100 bf 9a 07 bd 05 79 23 3d 49 cd d9 bd a9 49 d1 bd
       -0.03310656 0.039910335 -0.10634858 -0.10219128
000110 88 33 da 3c dd 8f 54 be e0 a4 24 be b7 e2 74 3d
       0.0266359 -0.20758004 -0.1607852 0.059786525
000120 95 e6 49 bd aa b8 2a be 98 01 d3 bd 41 c1 de bd
       -0.049292166 -0.16672006 -0.10303038 -0.10876704
000130 c8 5b 06 be cc 6d d3 bd 4d 3e de bc 16 83 2b bd
       -0.1312095 -0.103236765 -0.027129317 -0.04187306
000140 1a 0b 92 bd 11 a8 88 3d f0 cf 6a 3c 36 55 43 bc
       -0.07131024 0.06672681 0.014331803 -0.011922171
000150 70 3a ed 3c 2c c9 2d bc 1e cd 24 bd 5e 2a 78 bd
       0.02895853 -0.010607045 -0.040234677 -0.06058728
000160 05 c4 85 bd 38 5d d4 bc a4 ee 8c 3c 47 2a 62 3d
       -0.065315284 -0.025923356 0.017203636 0.0552161
000170 3e 74 b3 3c 76 4e e9 bc ef d0 1c bd e8 c6 27 3d
       0.021906015 -0.028479796 -0.038285192 0.040961176
000180 a2 a9 d8 bd d9 4f 93 bd d5 43 94 bc 27 89 86 3c
       -0.1057923 -0.07192964 -0.018098751 0.016422821
000190 65 1d 62 3c c1 67 95 bc 07 a5 77 3b f0 8f fa bc
       0.0138009535 -0.01823795 0.0037787573 -0.030586213
0001a0 b9 d6 3f 3d 07 51 48 3c ef e3 ac 3c 87 41 e9 3c
       0.046835635 0.01222635 0.021104781 0.028473629
0001b0 62 1d 4c bd 38 6a 8b bd ce fb b6 bc 70 69 28 bd
       -0.04983271 -0.06807369 -0.022336867 -0.041116178
0001c0 69 a8 30 bc 8e 45 7b bd eb 37 7a 3d d4 85 f1 bb
       -0.01078234 -0.06134563 0.061088484 -0.00737069
0001d0 7b b6 6d bc ee ee f7 3b a1 a4 3f 3d d1 3b d4 3c
       -0.014508839 0.0075663244 0.04678786 0.025907429
0001e0 3c 99 fc 3c 92 9d 1e 3d 1d 98 dc bb 7d 4a a8 3d
       0.030834787 0.03872449 -0.0067320005 0.082173325
0001f0 b6 54 9f 3d bf fe 3a 3d 03 c7 e6 3c f7 b8 05 bc
       0.07779829 0.0456531 0.028171068 -0.008161775
000200 3b 00 d1 3c b1 6d a8 3c e5 51 7c 3c 19 14 56 3d
       0.025512805 0.020560117 0.015400385 0.05226526
000210 d8 1c c0 3c ba 18 08 3d 4e 05 a6 3d 87 c7 31 bc
       0.023451254 0.033226706 0.081064805 -0.010850794
000220 87 b2 cf bb d4 be 40 3c a9 84 ce 3c ff 0e 30 bc
       -0.006338421 0.011764247 0.025209742 -0.010745763
000230 fc d6 3f 3d c0 e5 e0 bc 8a 82 42 3d d5 a3 9d 3c
       0.046835884 -0.027453303 0.047487773 0.01924316
000240 2d f7 83 3c b4 5c b4 3c 48 c3 2e 3d 48 88 ca 3c
       0.016109074 0.02201686 0.042666703 0.024723187
000250 cd 18 e0 3c 7e 17 25 3c 8a 98 84 3c 21 08 eb 3c
       0.027355576 0.010076402 0.016186018 0.0286904
000260 fe 17 a7 3c cc 48 ab bd 97 c3 8f bd 89 92 4a bd
       0.020397183 -0.08363494 -0.07019728 -0.049456153
000270 d2 67 d2 bc 9d c0 9b bc e0 10 7a 3d 2e 7b 9a 3d
       -0.025684271 -0.019012744 0.06105125 0.07543026
000280 e7 b8 f8 3d 71 24 13 3e ef 2c db 3d 9d 38 36 3d
       0.12144642 0.1436937 0.1070193 0.044487584
000290 6e 85 d1 bb 11 e8 55 3d c5 48 66 bc cf 50 7d bd
       -0.00639408 0.05222327 -0.014055436 -0.061844643
0002a0 f0 69 10 3d 2e 93 84 bc f7 b7 71 bd d1 8c 72 bb
       0.03525728 -0.016183462 -0.059013333 -0.0037010203
0002b0 a8 78 e7 ba 08 35 83 3d bc 4e ad bb ff 50 f4 bb
       -0.001765986 0.06406599 -0.005288927 -0.0074559445
0002c0 eb c0 0c 3d 8c d6 a8 3c 60 35 35 bd 4c ab da bc
       0.03436367 0.020610116 -0.044240355 -0.026693009
0002d0 b2 92 84 bc d1 f4 17 bd 9e 42 02 3d eb 65 d7 3c
       -0.016183231 -0.03709871 0.031801812 0.026293715
0002e0 d2 3a c9 bb 7a e4 a0 3c d2 89 5a bd 94 76 55 bd
       -0.006141045 0.019640196 -0.053354092 -0.052115038
0002f0 f8 c8 08 bd 1a 9b e1 bb 91 7e 87 bb d2 cb ce bc
       -0.033394784 -0.0068849446 -0.004134961 -0.025243673
000300 ea 8c 2b bb 08 85 3e bd 63 38 43 bc 0f 07 eb 3c
       -0.002617652 -0.046513587 -0.011915299 0.02868989
000310 35 9a b0 bb ac da 31 bb 22 83 0a bc 35 b5 d7 bb
       -0.0053894767 -0.0027138395 -0.008454116 -0.006582881
000320 69 2f 7a 3d 57 d0 4c 3d 69 63 29 3d 66 71 3d 3d
       0.06108037 0.050003376 0.04135457 0.046250723
000330 5a f3 89 3d 6c 7a 8c 3d 87 ea 0d 3d b7 ff 01 3d
       0.06735869 0.068592876 0.03464749 0.03173801
000340 08 cf 00 be db 43 bc bd 8f b1 1c be 82 d2 43 be
       -0.12578976 -0.0919263 -0.15302108 -0.19123271
000350 20 77 29 be 48 37 22 be b1 ed 09 be 58 93 2d bd
       -0.16549349 -0.158414 -0.13469578 -0.042376846
000360 93 bf bd bc b0 92 bf 3c d8 71 82 3d da e4 61 3d
       -0.023162639 0.023385376 0.0636937 0.05514989
000370 de 9c de 3c 0a 15 1f 3d ed 72 04 3d c1 b7 ff 3c
       0.02717441 0.038838424 0.032336164 0.03121555
000380 1f 48 b4 3d 29 02 b5 bc 5d d0 d6 bd a3 27 2b bd
       0.088028185 -0.022095757 -0.10488961 -0.041785847
000390 3d 13 b5 bd 1d 09 ea bd 89 d4 00 be ed b7 93 bd
       -0.0884156 -0.114275195 -0.12581076 -0.072128154
0003a0 21 b1 d9 bd 6c 9f 50 bd 96 54 c6 bc 43 c4 3e 3c
       -0.10629488 -0.050933287 -0.024210256 0.011643472
0003b0 81 b2 8b 3b a7 de a3 bc 92 6a f4 3b a5 26 8a bc
       0.0042632227 -0.02000363 0.0074589932 -0.01686413
0003c0 92 3d fa 3b 80 1b 0f bd ea 23 46 3c 79 ff 2e 3c
       0.0076367343 -0.034938335 0.0120935235 0.010681027
0003d0 3e e8 96 3c f1 b0 4b ba d7 04 9a bb 58 c6 2d bd
       0.018421289 -0.0007770202 -0.004700284 -0.042425483
0003e0 63 52 b2 bc 5f 44 01 bd 16 ab 3c bd 0a b4 90 bd
       -0.0217678 -0.031559344 -0.046061598 -0.0706559
0003f0 04 b2 f5 3b 6d ef b0 bc 44 0e 1c 3d 95 11 01 3d
       0.0074980278 -0.021598542 0.038099542 0.03151091

classifier.layer1.0.bias f4 [32]
000000 c5 e5 b2 bb 30 07 66 bc 4d d7 1f 3c 4c 4a 39 3d
       -0.0054595196 -0.0140398 0.009755922 0.04523687
000010 d5 e7 bf bc e5 50 b2 bc 53 2a 61 bc c2 8c fc 3c
       -0.023425976 -0.02176709 -0.013743001 0.030828837
000020 c7 da 2d bb 1a 8b 98 bc 7e d8 f4 bc f4 f4 0d 3c
       -0.0026528107 -0.018621016 -0.029888388 0.008664358
000030 24 54 22 bc 7e 84 3c 3b 00 98 d2 3c e3 19 73 bb
       -0.009907756 0.0028765495 0.025707245 -0.0037094287
000040 9f d6 08 3d a7 dd 06 bc ae 40 f2 3b 5f 39 fd 3b
       0.033407804 -0.008231557 0.0073929643 0.0077277864
000050 dc 9f 92 3c 20 6c bf bc 1b eb c0 bc c7 76 bd bc
       0.017898493 -0.023366988 -0.023549607 -0.023127927
000060 98 e2 da 3c 79 6d 20 3d 99 b1 a5 bb b5 e0 a1 3c
       0.026719376 0.0391669 -0.0050565717 0.019760469
000070 fc 89 1a bc bf 74 8f 3c 38 9f 8c bb 4d 9c b4 bc
       -0.009432312 0.017511724 -0.0042914413 -0.022047186

classifier.layer1.1.weight f4 [32]
000000 e6 cd 80 3f 27 0c 69 3f dc ef 77 3f b2 2a a1 3f
       1.0062835 0.9103417 0.9685037 1.2591155
000010 39 e2 6f 3f c8 75 8e 3f 23 f8 60 3f 23 09 81 3f
       0.93704563 1.1129694 0.87878627 1.0080913
000020 4b bd 94 3f 54 48 54 3f a7 1d 49 3f c1 f6 76 3f
       1.1620268 0.82922864 0.7856087 0.96470267
000030 98 da 76 3f 16 b3 76 3f 06 3d 87 3f 14 f6 8c 3f
       0.964273 0.96367013 1.0565498 1.1012597
000040 cc c4 51 3f 36 80 5f 3f b2 07 8a 3f 3d 87 82 3f
       0.81940913 0.8730501 1.0783598 1.0197521
000050 84 52 83 3f 8c 73 86 3f 06 18 83 3f f1 45 54 3f
       1.0259557 1.0504012 1.0241706 0.8291922
000060 56 5d 71 3f 96 5f 82 3f aa e7 73 3f 9a 9a 81 3f
       0.94283044 1.018542 0.95275366 1.0125306
000070 81 57 87 3f e7 59 51 3f de 30 44 3f 72 8d 55 3f
       1.0573579 0.81777805 0.76637065 0.83418953

classifier.layer1.1.bias f4 [32]
000000 ae 3c 01 3e 97 8e 35 3d 5b 89 77 3d b3 0b 8b 3e
       0.12620804 0.044325437 0.060433727 0.27157363
000010 26 dc 8c bd db 9d c7 bc 0c 73 32 bf 80 7e 80 be
       -0.068779275 -0.024367264 -0.697068 -0.25096512
000020 5e e6 b3 3c e4 9e 39 be 0f 97 10 be 80 95 05 be
       0.021960434 -0.18127018 -0.14120124 -0.13045311
000030 1b 0e a6 bd 23 68 94 bd e7 f2 42 bd b7 b8 1b 3e
       -0.08108159 -0.07246425 -0.04759493 0.15207182
000040 3f f8 38 bd 8d 55 4f be 58 33 9e bd 72 fd a0 bc
       -0.04515862 -0.20247479 -0.07724637 -0.019652102
000050 e5 8f 28 3e 13 43 c0 3d 46 d2 f2 bc 6a 2c fb be
       0.16461141 0.093877934 -0.029641282 -0.49057323
000060 23 1f 45 bd 34 32 03 be 1e 4f 82 bd 92 ab a6 bc
       -0.048125397 -0.1281212 -0.06362747 -0.020345483
000070 9b 32 be 3c 22 57 2f be 48 16 2a bf bf 38 e9 be
       0.02321749 -0.17123082 -0.6644025 -0.45551106

classifier.layer1.1.running_mean f4 [32]
000000 d4 51 57 c0 0c 88 4c c0 af 83 1d c0 d6 df e0 3d
       -3.3643694 -3.1958036 -2.4611623 0.10980193
000010 b8 0a ef bf 3e 9f a1 c0 26 21 a0 3f 84 ac 19 c0
       -1.8675146 -5.0506887 1.2510116 -2.4011545
000020 89 f9 46 c0 ae 63 99 bf c7 d7 44 3c a6 6a 80 bf
       -3.1089804 -1.1983545 0.012014336 -1.0032547
000030 4e f5 36 c0 dd 91 c3 3d c7 17 0b c0 6c 45 25 c0
       -2.8587222 0.095493056 -2.1733263 -2.5823622
000040 e9 f6 7e be c5 50 15 3f 5e ab 30 c0 56 d7 88 c0
       -0.24898876 0.5832637 -2.7604594 -4.276286
000050 c8 ef 25 c0 f8 7e 1d c0 4d 76 6a c0 92 7d a7 3f
       -2.59276 -2.4608746 -3.6634705 1.3085196
000060 25 6a dd c0 50 3f 41 c0 d0 00 f6 bf 67 12 df bf
       -6.919207 -3.0194893 -1.9218998 -1.7427491
000070 57 c7 6a bf c0 7e 4d c0 00 79 61 bf 16 b5 36 40
       -0.9171042 -3.2108612 -0.88075256 2.8548026

classifier.layer1.1.running_var f4 [32]
000000 31 9d a7 41 00 94 bb 40 54 f0 ea 40 2d eb c8 3f
       20.951754 5.8618164 7.341837 1.569677
000010 48 48 99 41 53 f1 f8 41 56 0c 61 40 ad 2a df 40
       19.160294 31.117834 3.516378 6.9739594
000020 93 93 8a 41 8f 47 64 40 bd 8f a2 40 90 36 b7 40
       17.322058 3.5668676 5.080046 5.7254105
000030 13 87 fb 40 f0 2a 11 41 46 69 32 41 1d e3 e5 40
       7.8602386 9.072983 11.1507015 7.183974
000040 22 39 26 41 f1 9d c3 40 0e 1e 77 41 b9 43 a1 41
       10.388948 6.11303 15.444838 20.158068
000050 4a 08 0c 41 29 d9 d7 40 d3 c5 2d 41 dd 74 7c 40
       8.752024 6.745259 10.860797 3.9446328
000060 9f c5 1b 41 67 40 4e 41 50 33 87 40 6b 3b c8 40
       9.735747 12.890723 4.2250137 6.257253
000070 d3 bc fe 3f 74 11 9f 40 5d 5d c1 40 ae 22 ab 40
       1.9901375 4.9708805 6.042647 5.3479834

classifier.layer2.0.weight f4 [32, 32, 3, 3]
000000 12 9e 0a 3d 77 c1 26 bd bc e1 b2 bc bf df c5 3c
       0.033842154 -0.040711846 -0.021836154 0.024154542
000010 29 26 12 bd 6d 2f b4 ba b4 4a 89 3d ce 74 71 3d
       -0.035680924 -0.0013747044 0.067037016 0.058949284
000020 5b b9 47 3d 05 b2 0c bd 84 79 52 bc f7 44 a7 3c
       0.048760753 -0.03434946 -0.012846354 0.020418627
000030 e4 8c e9 bd fc b3 a7 bd 3e 8f 3d bb d4 cc b9 bd
       -0.11403826 -0.08188626 -0.002892449 -0.09072271
000040 ca 60 05 be d3 af 66 bd 0a a8 fb bc ba 06 29 3d
       -0.13025203 -0.056320023 -0.030719776 0.04126618
000050 1e 8b b0 3d cb 12 0f bc 53 80 08 3e 77 67 d7 3d
       0.086202845 -0.008732508 0.13330202 0.10517781
000060 62 45 a7 3c d6 10 ca 3d 3b 4c 33 3e 48 61 b8 bd
       0.020418826 0.098664925 0.17509548 -0.0900293
000070 19 29 34 3e 02 de b2 3d 47 f2 ca 3d e8 d7 21 3e
       0.17593803 0.08733751 0.09909492 0.15805018
000080 12 c8 51 bd 15 99 02 be c8 ec bb bd c1 2d 79 be
       -0.051216193 -0.12753709 -0.09176022 -0.2433386
000090 53 e3 08 bd d2 5b 53 bd b6 2a 99 bd 92 a9 11 3c
       -0.03341992 -0.05160124 -0.074788496 0.008890526
0000a0 91 4e 1d 3c 1c 2f c5 3c 14 73 76 3c 46 89 f5 3c
       0.009601251 0.024070315 0.015042085 0.029972684
0000b0 23 58 c2 bd a1 75 ed bd 30 0c 80 be 8f d1 20 be
       -0.09489467 -0.115947016 -0.25009298 -0.1570494
0000c0 44 bc 6b be e6 06 64 be 0f b4 14 be e2 bc 8d be
       -0.23021036 -0.22268257 -0.14521812 -0.2768317
0000d0 b8 78 76 be 0b d3 d1 bd c3 d2 39 3e d5 83 d1 3d
       -0.24069488 -0.102453314 0.18146805 0.10230223
0000e0 4d fe c1 3d 47 b1 ac 3d 95 40 17 3d 2a 61 b2 3c
       0.09472332 0.084322505 0.036926825 0.021774847
0000f0 69 7c 55 3c a2 71 8c 3d f9 a1 99 3d 7b 3f dc 3a
       0.01303015 0.06857611 0.07501597 0.0016803587
000100 f8 ce f1 3d f2 ec b2 3d 06 7f 69 bd 44 fd f6 3d
       0.11807054 0.087366 -0.057005905 0.12060025
000110 7b 76 9a 3d 11 07 4b 3d db 1b 0a 3e 39 64 0b bd
       0.075421296 0.049567286 0.13487189 -0.034031127
000120 1b 05 e3 3d 83 b1 09 3e d2 16 3d 3e 31 94 2d 3e
       0.11084958 0.13446622 0.18465737 0.16951062
000130 d5 9b 08 3e 9b f8 0d 3e 78 2e ef 3d 86 da b4 3d
       0.13340695 0.13864367 0.11678785 0.088307425
000140 7a 4a 6b 3c e3 91 c1 bc 8d 34 3a bd e7 47 69 bd
       0.014361018 -0.023629135 -0.045460273 -0.056953337
000150 00 ca 4f bd b3 46 2a bc 86 e4 82 3a a8 b7 b7 bd
       -0.05072975 -0.010392833 0.0009986318 -0.089705765
000160 61 cb 0c bd a0 0b 5b bc 5d ca 2b bd 22 20 f4 3c
       -0.034373645 -0.013369471 -0.041941036 0.029800478
000170 25 fa 56 bd 93 51 83 3c 36 b1 12 3c 8f d2 3f bd
       -0.05248465 0.016030109 0.008953383 -0.046831664
000180 00 7a b3 bd 7d 99 17 be 92 b3 2b be e0 2b 92 bc
       -0.08763504 -0.14804645 -0.1676772 -0.017843187
000190 7b 8c 58 3c ec b8 39 bd 0b d9 2e bc 67 10 fc 3b
       0.013217087 -0.04534237 -0.010671864 0.007692385
0001a0 9d 26 92 3c b9 0e 02 bd 76 b7 7e 3c 50 6a a4 3c
       0.017840678 -0.031752322 0.01554667 0.020070225
0001b0 11 35 f1 3c 23 29 a0 3d e9 1e b4 3c 44 de d1 3d
       0.02944425 0.07820346 0.021987395 0.10247472
0001c0 46 94 26 3e a2 87 ea 3d 29 b9 ea 3b 36 67 09 3e
       0.162675 0.11451651 0.007163186 0.13418278
0001d0 ad 6b 35 3d b9 46 17 3d d1 34 6e 3c 52 38 21 3d
       0.04429214 0.03693268 0.01453896 0.03936035
0001e0 ef 4d 5a bd e3 93 4d 3d c3 ca 8c 3d 1e 27 8e 3c
       -0.05329698 0.050189864 0.06874611 0.017352637
0001f0 40 62 df 3c c6 d0 4f 3b 01 1d ad 3c 4f 7c 1e bd
       0.027268529 0.0031710132 0.021131994 -0.03869277
000200 96 32 cf bb 90 4c 2b 3d d1 6f 21 bc 25 65 4a bd
       -0.006323169 0.041821063 -0.009853319 -0.049412865
000210 84 a0 5b 3b 49 a4 e4 3b 88 83 2d bc aa 1b 49 3d
       0.0033512423 0.006977592 -0.0105904415 0.049098648
000220 0c 24 a6 3c 20 f2 bd bc 02 6a a7 3c a9 4f f6 bc
       0.02028086 -0.023186743 0.02043629 -0.030067282
000230 a6 b8 fa 3c bc 6b b8 bd 70 0e 55 3d 8f 81 ba 3d
       0.030605625 -0.09004924 0.05201572 0.091067426
000240 08 e1 45 bd 85 c8 09 bd 25 6a 30 bb 05 9b 4b 3d
       -0.04831031 -0.033638496 -0.0026918736 0.049708385
000250 19 66 93 3d fb 36 e4 3c c0 a8 77 3d 66 9d e4 3a
       0.07197208 0.027858248 0.060463667 0.0017441928
000260 e9 d0 65 bb 8a 47 a0 bc 01 76 c8 3c 21 d0 08 3d
       -0.0035067147 -0.019565362 0.024470331 0.033401612
000270 40 31 da 3b 83 50 8b 3c 22 ab 20 bd e7 0f da 3b
       0.006658703 0.017006164 -0.039225705 0.0066547277
000280 d3 ee e3 bc 06 d6 a1 bd 07 06 e7 bb bc a1 c7 3d
       -0.027823841 -0.0790215 -0.007050279 0.09747645
000290 92 6d 9c 3d a7 55 b0 3d 20 ac 9f 3d fb f9 c9 3c
       0.076380864 0.08610087 0.07796502 0.024655333
0002a0 cb 5f 82 3d 6f b8 eb 3c 30 3d 4b bd ba 2d 48 be
       0.06365927 0.028774468 -0.0496189 -0.19548693
0002b0 9f 03 46 be 98 f2 e6 bd 55 98 5a be 5d 2b 15 be
       -0.19337319 -0.1127674 -0.21347173 -0.14567323
0002c0 f1 04 85 bd 38 e2 10 be 35 f7 02 be 56 a5 44 bd
       -0.06495083 -0.14148796 -0.12789614 -0.04800924
0002d0 11 86 ab 3d 21 1f 4b bd ea f1 14 be 1b bf 8d bc
       0.083751805 -0.049590234 -0.14545408 -0.01730304
0002e0 7f 64 23 be d0 4d 8b bd c3 8a 0e bc 69 11 03 be
       -0.15956305 -0.06801951 -0.008700076 -0.1279961
0002f0 5c e8 46 bd 2f 55 8c 3c 82 0d 16 bd 55 e1 bb bc
       -0.04856144 0.017130462 -0.036633976 -0.022934595
000300 c8 05 8f bd a1 c3 a5 bd 3f 1b c8 3c 21 a7 08 be
       -0.069835246 -0.08093954 0.024427054 -0.13345005
000310 cd e0 29 be ed 81 99 3d 10 45 6a 3d 4d 2b 4e 3d
       -0.16589661 0.074954845 0.05719477 0.050334264
000320 a8 bf ff 3c 3b aa 5f 3d 0f 17 4b bb 87 d2 88 3d
       0.031219319 0.054605704 -0.0030989086 0.0668078
000330 c9 cf 85 bd 51 9c 33 3d f0 b3 d8 3b c0 cd 6f bc
       -0.065337725 0.043850247 0.006613247 -0.014636457
000340 c3 53 1d 3c 2e 34 cc bb 18 24 73 bd 50 bd 5b bd
       0.00960249 -0.0062318062 -0.059360594 -0.05364734
000350 70 72 bd bd 69 17 08 be ab 32 1c be 86 49 14 be
       -0.09250343 -0.1329018 -0.15253703 -0.14481172
000360 d6 e3 4a bc b9 43 7d bc 80 10 f7 bc 24 5e 8a 3d
       -0.012383422 -0.015458041 -0.030159235 0.06756237
000370 50 44 93 bb 83 85 e6 3b 24 c7 fe bc 07 97 33 3d
       -0.0044942275 0.007034959 -0.031100817 0.043845203
000380 55 37 52 bd 90 b1 f9 3d 05 8a 14 3e 41 49 89 3d
       -0.0513223 0.121920705 0.14505775 0.06703425
000390 d8 5f fc 3d 93 14 93 3d 6b 29 cd 3d 65 42 23 3e
       0.12322968 0.071816586 0.100176655 0.15943296
0003a0 81 4c 82 3c c7 7f c7 3d ff 39 3e bd 63 f4 13 3d
       0.01590562 0.097411685 -0.046442028 0.036121737
0003b0 70 c9 03 bd 7d ac b9 bc 0e 44 95 bd 4f a8 f4 bd
       -0.032174528 -0.022665257 -0.07288371 -0.11946165
0003c0 6b 63 55 bc c8 ef 8d bd bf c3 e6 bd 41 52 8d bd
       -0.013024191 -0.069305 -0.11267804 -0.06900454
0003d0 be 81 12 3d 6b ee 0b 3d c4 09 4b bc 46 0f de bc
       0.035768263 0.03416292 -0.012392465 -0.027106892
0003e0 03 f3 80 3d c4 35 70 bd d3 73 29 bc 40 ec 76 bd
       0.06296351 -0.058645025 -0.010342556 -0.0602839
0003f0 1f cb 00 bd 77 a2 1c 3c 06 7d f3 3c 07 0e 77 bb
       -0.03144371 0.009560219 0.029722702 -0.003769757

classifier.layer2.0.bias f4 [32]
000000 d4 20 c7 bc e6 89 0e bc b6 f6 c8 bc 1e b8 3e 3d
       -0.024307646 -0.00869987 -0.024531703 0.046562307
000010 85 e6 da 3c 54 2e 0c bd f1 43 31 bd 93 0a 14 bd
       0.026721248 -0.03422387 -0.043277685 -0.036142897
000020 26 71 6d 3c aa b0 a4 bc d0 23 74 3d 98 26 fb bc
       0.014492309 -0.020103771 0.059604466 -0.030658051
000030 cc ae 3b bd 39 a9 17 3d 6f 3a a7 3c ba 7d 5a bc
       -0.045820996 0.037026618 0.020413605 -0.01333564
000040 ee cc 18 bb 4c bb 6e bd 93 24 43 3d 68 e9 57 bd
       -0.0023315507 -0.05828409 0.0476423 -0.052712828
000050 65 d9 8b bc f1 e1 d2 3a 4e f6 31 3d 73 ec ac bc
       -0.017071435 0.0016089064 0.043447785 -0.021108842
000060 ae bd b5 3c e7 df c3 bc 9f b3 b7 3c 63 e7 b6 3c
       0.022185173 -0.023910476 0.022424517 0.02232713
000070 41 df 8a 3b 8c 40 f1 bb 8b 90 a6 bc dc 62 2f 3d
       0.0042380397 -0.007362431 -0.020332595 0.04281889

classifier.layer2.1.weight f4 [32]
000000 f6 60 7c 3f d3 60 69 3f a0 f9 5d 3f 83 f9 53 3f
       0.9858545 0.9116337 0.8670902 0.828026
000010 2c 94 85 3f 4d ad 86 3f 14 e8 84 3f 97 6c 81 3f
       1.0435843 1.0521637 1.0383325 1.0111264
000020 5a 35 7a 3f 73 eb 75 3f c3 dc 5d 3f 7b b1 a7 3f
       0.9773766 0.9606239 0.8666498 1.3101038
000030 c8 1f 6f 3f 7a e3 89 3f 32 49 88 3f 68 f7 60 3f
       0.9340787 1.0772545 1.0647337 0.8787751
000040 46 8d 7c 3f b9 32 7a 3f 66 a8 85 3f 6d e6 68 3f
       0.98653066 0.97733647 1.0442016 0.909766
000050 14 a2 7a 3f 33 88 7c 3f 06 e8 95 3f 75 5b 84 3f
       0.9790356 0.98645324 1.1711433 1.034041
000060 d5 80 94 3f 78 3e 4b 3f 6c ec 42 3f a0 bf 81 3f
       1.1601816 0.79392195 0.76142 1.0136604
000070 2c ca 66 3f a0 22 5a 3f dc c5 68 3f 51 30 5e 3f
       0.9015224 0.85209084 0.9092691 0.86792475

classifier.layer2.1.bias f4 [32]
000000 81 4e a5 bd 0f 24 d7 3d 7d f4 ed bc af d1 5e be
       -0.08071614 0.105049245 -0.029047245 -0.21759675
000010 28 2e 66 3d 6f a7 56 bd 70 44 2c be f0 4d 2b bd
       0.05619636 -0.05240577 -0.16822982 -0.041822374
000020 88 57 1b bd c0 40 59 be 27 16 b8 3d 7d de 93 3e
       -0.037925273 -0.21216106 0.089886 0.28880683
000030 d0 d8 ec bd 30 2b f3 3d 3b 05 2b 3c 62 97 15 bf
       -0.11564791 0.11873472 0.010438259 -0.58434117
000040 8c 89 52 bd a8 d6 1c be 95 68 1b be e8 44 09 be
       -0.051400706 -0.1531626 -0.15176614 -0.13405192
000050 c7 9f 35 be 09 c3 41 3e ec 57 f7 3d 28 d0 8d bd
       -0.17736731 0.18922056 0.12077317 -0.06924468
000060 fd 45 9c bc dd b5 5f be d7 6c 6d be 7b a9 bd 3d
       -0.019076342 -0.21846719 -0.2318605 0.092608415
000070 94 62 59 be e7 9d 1e be 93 d5 6a bc ac af bc bd
       -0.21229011 -0.15489922 -0.014333147 -0.09213194

classifier.layer2.1.running_mean f4 [32]
000000 f4 6e 40 be 9c 85 a2 bb eb ec 92 3f 2a 6a 13 3f
       -0.18792325 -0.004959775 1.1478552 0.5758387
000010 c4 d2 75 bf 19 08 20 bf 42 d7 99 bf 62 25 b3 3e
       -0.9602473 -0.62512356 -1.2018816 0.34989458
000020 dc fd 08 c0 1b 35 1e bf 6f 5e 9d bf a2 32 da be
       -2.1404943 -0.6179978 -1.2294444 -0.42616755
000030 c1 f3 0a bf b9 84 f8 3e f1 e3 2d be 89 ec 10 bf
       -0.5427819 0.4853876 -0.16981484 -0.56610924
000040 7c 93 b3 be 2e 85 98 3f a6 71 1c bf 08 ca a2 bf
       -0.3507346 1.1915643 -0.61110914 -1.2717905
000050 a7 da 31 bf db 0a f4 bf cc dd 0e bf 1b ef c8 bf
       -0.6947426 -1.9065813 -0.55807185 -1.5697969
000060 7f 4e d7 3d 92 70 e6 3e 18 a9 62 3f 3b f5 29 bf
       0.10513019 0.4500776 0.88539267 -0.66389817
000070 e2 e4 44 bf 8d 32 82 3f 0e 99 48 bf c1 06 05 3d
       -0.7691175 1.0171677 -0.7835854 0.032477144

classifier.layer2.1.running_var f4 [32]
000000 6b 44 36 40 94 9c 20 40 a2 6e 2d 40 4d bc 40 40
       2.847926 2.5095568 2.7098775 3.011493
000010 91 bb fa 3f 6f 99 f2 3f 1b ce ef 3f 35 ba 0b 40
       1.9588491 1.8953074 1.8734773 2.1832402
000020 e9 b9 f6 3f 8c 87 f1 3f 1a 36 02 40 f8 ef 4d 3f
       1.9275485 1.8869491 2.034552 0.8044429
000030 39 3e bd 3f 43 0e 6e 3f 9b e9 0a 40 5f 5b 52 3f
       1.4784614 0.9299051 2.1705081 0.8217067
000040 7c b1 2d 40 19 ce 1c 40 f8 49 26 40 ce de c8 3f
       2.7139578 2.4500792 2.5982647 1.5692995
000050 e4 e9 ae 3f 50 90 b2 40 8f 1f aa 3f ce 6d d8 3f
       1.3665128 5.5801163 1.3290881 1.690851
000060 2b c8 11 40 d4 2c b4 3f 77 fb 08 40 87 a1 73 3f
       2.2778423 1.407618 2.1403482 0.95168346
000070 f0 7d d9 3f ce c8 0c 40 78 52 c8 3f 0d f4 b1 3f
       1.6991558 2.1997561 1.5650167 1.3902603
