model/Experiment/DWNs_0.9.pt (torch, 446405 bytes, 70 tensors)

conv_spa.weight f4 [6, 3, 3, 3]
0.09033817 0.1779864 -0.103969224 0.0055356175 -0.14732052 -0.10784784 0.14584394 -0.016442765
0.16583902 -0.04694787 -0.06498059 -0.18855289 0.003049343 -0.23669516 0.095910616 -0.14801408
-0.15840444 -0.043812294 0.07257158 -0.18532167 0.026893098 0.01716473 -0.0953901 0.12897626
0.12377394 0.23056866 0.074591324 -0.08275743 0.14870873 -0.11609827 -0.110930875 -0.08515161
-0.054606713 -0.15577884 -0.079688296 0.024316778 -0.0072768014 0.0038142381 0.23095238 0.027917527
0.10272968 -0.021846386 0.28743622 0.28912354 0.08090545 0.101335324 -0.14715758 -0.1137792
0.11038825 -0.07907815 0.08838792 -0.15746595 -0.19646378 -0.089842185 -0.030507678 -0.053152423
0.13699141 0.061216936 -0.043924555 -0.11414256 -0.01151185 0.030050686 0.05669416 0.044317123
-0.11317789 -0.16037092 0.18613368 -0.08218009 0.094431005 0.1339146 -0.13573499 0.052926823
-0.1827246 -0.48976883 -0.44200048 -0.13233301 -0.28370848 -0.55402845 0.06401411 -0.23410876
-0.18220574 -0.21734098 -0.2381448 -0.17633703 0.11382874 -0.19523795 -0.113425076 -0.058279578
-0.18765111 -0.077671066 0.11166577 -0.08701653 0.16074117 -0.061134834 0.112652615 0.009781539
0.08996132 0.004387424 0.08372662 0.1326214 0.22274947 0.10615572 -0.04926179 0.16269486
-0.014089269 -0.04501937 0.12368439 0.07065791 -0.06954228 0.15109602 0.2142431 -0.07299016
-0.1781479 0.12908 0.11135675 -0.058842115 -0.22164643 -0.098023064 0.04366501 0.091691546
0.12453605 -0.12664805 0.16302443 -0.21262297 0.08466695 -0.13587694 -0.14349656 0.066816844
0.20800215 0.07293227 -0.14055972 0.03236366 -0.028497953 -0.17225005 0.17257576 -0.010495038
-0.09978376 0.23494962 0.031090694 0.19176334 0.17445496 0.052302588 0.14264813 0.15519027
-0.011525943 0.0027452942 -0.21513562 -0.07289108 -0.17038296 -0.18020824 -0.04426408 -0.29196903
-0.029432796 -0.051874846 0.1955992 -0.036742494 0.13545804 -0.12070631 0.040073503 -0.04547382
0.17352109 -0.1239818
00000000: 3803 b93d 1142 363e d1ed d4bd 2064 b53b
00000010: 31db 16be 54df dcbd 1d58 153e fab2 86bc
00000020: b4d1 293e 694c 40bd 8b14 85bd 0214 41be
00000030: 7cd7 473b 3760 72be c96c c43d 0191 17be
00000040: c634 22be 8574 33bd 69a0 943d f7c4 3dbe
00000050: ea4e dc3c 0c9d 8c3c e25b c3bd 5a12 043e
00000060: 317d fd3d 311a 6c3e 56c3 983d ba7c a9bd
00000070: 1a47 183e eec4 edbd ba2f e3bd f863 aebd
00000080: 4aab 5fbd 7d84 1fbe 9e33 a3bd fb33 c73c
00000090: 3c72 eebb 4cf8 793b c87e 6c3e 4cb3 e43c
000000a0: f063 d23d 31f7 b2bc d72a 933e 0008 943e
000000b0: c2b1 a53d e588 cf3d 7ab0 16be 1205 e9bd
000000c0: 3c13 e23d baf3 a1bd ba04 b53d c13e 21be
000000d0: cd2d 49be 2eff b7bd 3deb f9bc 5bb6 59bd
000000e0: 7a47 0c3e 9cbe 7a3d 3cea 33bd 93c3 e9bd
000000f0: 339c 3cbc db2c f63c 2338 683d df85 353d
00000100: cfc9 e7bd 4638 24be d499 3e3e 094e a8bd
00000110: 0b65 c13d e920 093e 1dfe 0abe ccc9 583d
00000120: 281c 3bbe fbc2 fabe e34d e2be 4e82 07be
00000130: 3d42 91be cfd4 0dbf d419 833d 35ba 6fbe
00000140: 2494 3abe a28e 5ebe 3bdc 73be b291 34be
00000150: 0b1f e93d 75ec 47be 684b e8bd 91b6 6ebd
00000160: 9d27 40be 0212 9fbd 06b1 e43d b935 b2bd
00000170: 5599 243e 8568 7abd 6ab6 e63d c042 203c
00000180: a43d b83d 61c4 8f3b dd78 ab3d e7cd 073e
00000190: 7018 643e 2c68 d93d bbc6 49bd 7b99 263e
000001a0: add6 66bc 3b66 38bd 3e4e fd3d 18b5 903d
000001b0: 2f6c 8ebd eab8 1a3e 8b62 5b3e dd7b 95bd
000001c0: 676c 36be 8c2d 043e 020f e43d 6e04 71bd
000001d0: 48f7 62be 51c0 c8bd 15da 323d c7c8 bb3d
000001e0: c20c ff3d 07b0 01be e0ef 263e d6b9 59be
000001f0: de65 ad3d 5323 0bbe c3f0 12be 45d7 883d
00000200: 84fe 543e 845d 953d e3ee 0fbe c28f 043d
00000210: 8a74 e9bc 5162 30be b3b7 303e 61f3 2bbc
00000220: 6e5b ccbd a296 703e e9b1 fe3c 9c5d 443e
00000230: 52a4 323e 3d3b 563d 5a12 123e 33ea 1e3e
00000240: 4fd7 3cbc 65ea 333b 834c 5cbe eb47 95bd
00000250: df78 2ebe 8288 38be 404e 35bd f77c 95be
00000260: 0c1d f1bc b87a 54bd 284b 483e 4c7f 16bd
00000270: 83b5 0a3e df34 f7bd 1d24 243d c242 3abd
00000280: 83af 313e 2cea fdbd

conv_spa.bias f4 [6]
0.075112455 -0.058695465 0.166696 0.18197785 -0.20598921 0.14992546
00000000: 8fd4 993d a86a 70bd 5bb2 2a3e 6758 3a3e
00000010: d6ee 52be 0f86 193e

conv_fre.weight f4 [58, 3, 3, 3]
0.109844424 0.106165305 -0.18644744 0.20451206 -0.088286534 -0.063365206 -0.048612233 0.17913343
-0.04164778 -0.024078472 0.27402654 -0.07447255 0.03209454 0.01744528 0.24075708 0.08039049
-0.05816093 -0.08110234 -0.042676248 -0.14316756 -0.072687835 -0.07335426 0.22191603 -0.0811175
-0.15153158 -0.10539788 -0.063009635 0.0042690546 -0.24138995 0.16563842 -0.22414659 -0.06634001
0.18279693 0.045174886 -0.107253626 -0.1459793 -0.133048 -0.24686188 0.10499544 -0.008240742
-0.08536115 -0.100857325 0.20199071 -0.09752008 -0.1282731 0.19339609 -0.050864596 0.017824877
-0.10309353 0.04276848 0.058140058 0.18323019 -0.027485562 0.08036392 0.06188882 -0.24221185
-0.104242854 0.20874272 0.040524896 0.18377131 0.013610119 -0.08631534 0.033727553 -0.02580718
0.43721563 -0.090294786 -0.093308866 0.12866732 -0.1960717 -0.030447291 0.022635031 0.11066596
-0.054845344 -0.087787434 0.16111158 -0.08568823 -0.20569685 0.05930773 -0.014298087 0.039237607
-0.14520442 -0.08296174 0.101181045 0.06987312 0.14853202 0.3097674 0.13901182 -0.16494566
-0.11437813 0.08438913 0.07285813 -0.1123302 0.1592004 -0.1294966 -0.103250004 -0.17373225
-0.07437002 0.009247656 0.06900154 -0.05001234 -0.00028804486 -0.12961139 -0.06681208 -0.10360071
0.02566675 0.23878042 0.05868442 -0.16863053 -0.059017938 0.04089343 -0.14408611 -0.101248875
-0.12679526 0.12764047 0.08081821 -0.055980172 0.12824176 0.29521587 0.0071700243 0.14280249
0.07734668 0.251247 0.10760725 -0.111483246 0.029680604 -0.0033686226 -0.18773845 -0.12742788
0.12055549 -0.04243503 -0.07488809 -0.113485366 -0.042472918 0.017822994 -0.07427619 0.076066434
-0.032530136 0.11689994 -0.0069180797 0.17522882 0.15037203 0.08662697 0.28978983 -0.048514355
0.089398704 -0.04900685 -0.14756316 -0.108963184 -0.05702001 -0.26191536 0.036049888 -0.23127133
-0.14201067 -0.09665663 -0.048872244 0.040844936 0.050671253 -0.12162445 0.14099121 -0.0945158
0.105686724 0.08417957 0.009217336 -0.095591865 0.09686933 -0.19151928 -0.100680225 -0.027354257
-0.07110182 0.13374439 -0.0090567805 -0.03471177 0.07103273 -0.03706624 0.28832346 0.2237476
0.12849621 0.09161561 0.18263695 -0.113735825 0.02957317 -0.15799712 -0.14054154 0.03322503
-0.038371127 -0.16818684 0.048560288 -0.11739152 0.0022947823 -0.101469986 0.109139346 0.1305488
0.061294854 -0.106606126 -0.11998283 -0.078607194 -0.05458858 0.14154832 0.13494644 -0.22253859
-0.067457244 -0.012217383 0.33707443 0.11127525 -0.009837392 -0.0411696 -0.1114552 -0.053566188
0.1972095 -0.06948365 -0.058616202 -0.18486094 -0.024876267 0.11503103 0.056687597 -0.02547587
-0.15314385 0.035165787 -0.013483777 0.102467835 -0.07244635 -0.055086177 0.027330892 -0.05879338
-0.2681857 -0.037839685 -0.0184572 0.06049068 -0.13625515 -0.027173823 -0.11521809 -0.07923955
0.055438217 0.26192927 0.22819093 0.04193049 -0.14507455 0.12540285 0.1254437 0.33620614
-0.10191641 -0.038374588 -0.011260851 0.15874456 -0.15568039 -0.09148854 0.037747398 0.1208115
-0.0041563916 0.011700768 -0.07062953 -0.18756759 0.07365381 0.01411416 0.024394687 -0.15376554
00000000: 1df6 e03d 326d d93d 14ec 3ebe 9c6b 513e
00000010: 92cf b4bd 9ec5 81bd 9f1d 47bd c16e 373e
00000020: dd96 2abd 3740 c5bc 354d 8c3e 1085 98bd
00000030: 9075 033d 67e9 8e3c 0689 763e c5a3 a43d
00000040: 283a 6ebd fc18 a6bd 4acd 2ebd 849a 12be
00000050: 5cdd 94bd c23a 96bd f53d 633e ef20 a6bd
00000060: 182b 1bbe d8da d7bd 320b 81bd 6de3 8b3b
00000070: ed2e 77be 1e9d 293e af86 65be 45dd 87bd
00000080: 1e2f 3b3e 4d09 393d caa7 dbbd 997b 15be
00000090: bc3d 08be 5cc9 7cbe d907 d73d 2d04 07bc
000000a0: d4d1 aebd 498e cebd a7d6 4e3e 9cb8 c7bd
000000b0: 065a 03be a009 463e 6557 50bd 7a05 923c
000000c0: b322 d3bd 002e 2f3d 4524 6e3d b2a0 3b3e
000000d0: 6729 e1bc d795 a43d 227f 7d3d 6206 78be
000000e0: 477d d5bd a7c0 553e 6ffd 253d 8c2e 3c3e
000000f0: fafc 5e3c 19c6 b0bd e725 0a3d 9469 d3bc
00000100: bada df3e 79ec b8bd b818 bfbd 5ec1 033e
00000110: 05c7 48be 996c f9bc 1a6d b93c d6a4 e23d
00000120: 83a5 60bd e6c9 b3bd 6ffa 243e 507d afbd
00000130: 32a2 52be aaec 723d 8642 6abc 9db7 203d
00000140: 78b0 14be d8e7 a9bd 0238 cf3d a319 8f3d
00000150: c718 183e d599 9e3e 1d59 0e3e 84e7 28be
00000160: 153f eabd 35d4 ac3d a536 953d 600d e6bd
00000170: 6e05 233e c29a 04be bd74 d3bd dee6 31be
00000180: 4f4f 98bd 7b83 173c ae50 8d3d bdd9 4cbd
00000190: ba04 97b9 d9b8 04be c6d4 88bd 9c2c d4bd
000001a0: 1343 d23c db82 743e 135f 703d 7bad 2cbe
000001b0: cbbc 71bd df7f 273d 4f8b 13be 925b cfbd
000001c0: 9ed6 01be 2fb4 023e 0584 a53d 774b 65bd
000001d0: cf51 033e 8926 973e 86f2 ea3b d13a 123e
000001e0: f067 9e3d 72a3 803e 3161 dc3d 5451 e4bd
000001f0: bd24 f33c 1cc4 5cbb 823e 40be 747c 02be
00000200: cce5 f63d 5bd0 2dbd ed5e 99bd 046b e8bd
00000210: 15f8 2dbd 8701 923c 1d1e 98bd b8c8 9b3d
00000220: 523e 05bd 3c69 ef3d 0fb1 e2bb 2f6f 333e
00000230: 20fb 193e 7b69 b13d 555f 943e fdb6 46bd
00000240: ab16 b73d 68bb 48bd cc1a 17be 1728 dfbd
00000250: d08d 69bd c519 86be 0ca9 133d 64d2 6cbe
00000260: 3f6b 11be e9f3 c5bd 432e 48bd 054d 273d
00000270: a98c 4f3d 3d16 f9bd 0060 103e 8091 c1bd
00000280: 4872 d83d 5766 ac3d 4f04 173c abc5 c3bd
00000290: 6d63 c63d a11d 44be 6f31 cebd 0916 e0bc
000002a0: d59d 91bd 4af4 083e e462 14bc ee2d 0ebd
000002b0: 9c79 913d c5d2 17bd 229f 933e 171e 653e
000002c0: 8394 033e f7a0 bb3d 2e05 3b3e 54ee e8bd
000002d0: 6f43 f23c ffc9 21be 1fea 0fbe f816 083d
000002e0: 0b2b 1dbd 2c39 2cbe 27e7 463d f76a f0bd
000002f0: 0f64 163b 7fcf cfbd 7384 df3d 96ae 053e
00000300: 5010 7b3d 5054 dabd 8fb9 f5bd cffc a0bd
00000310: 4698 5fbd 0bf2 103e 662f 0a3e 28e1 63be
00000320: 0627 8abd 6b2b 48bc 0595 ac3e 47e4 e33d
00000330: 032d 21bc 74a1 28bd a042 e4bd 3868 5bbd
00000340: 4af1 493e 724d 8ebd 8b17 70bd 304c 3dbe
00000350: 50c9 cbbc 6395 eb3d 4131 683d c6b2 d0bc
00000360: bed1 1cbe 000a 103d 0feb 5cbc a8da d13d
00000370: c05e 94bd 0ba2 61bd 09e5 df3c 54d1 70bd
00000380: a34f 89be c9fd 1abd 8e33 97bc 13c5 773d
00000390: 7886 0bbe a39b debc 76f7 ebbd 5848 a2bd
000003a0: 2f13 633d 981b 863e e2aa 693e 4ebf 2b3d
000003b0: 6c8e 14be 9b69 003e 5074 003e 3623 ac3e
000003c0: 8db9 d0bd ac2e 1dbd 6f7f 38bc ef8d 223e
000003d0: ae6a 1fbe 585e bbbd 049d 1a3d 056c f73d
000003e0: 5732 88bb 94b4 3f3c 37a6 90bd b811 40be
000003f0: cfd7 963d 143f 673c 5ed7 c73c b774 1dbe

conv_fre.bias f4 [58]
0.14225914 -0.053157184 0.09204661 0.025821658 0.1463935 -0.013941748 0.03827972 -0.10461119
-0.15879953 0.17949258 -0.12533969 0.11357082 0.16373867 0.05274451 0.042753376 0.07777718
-0.056786034 0.13945244 -0.050715603 0.10809098 0.116192736 0.052415133 0.015235069 0.1668236
0.15970455 -0.006576563 0.07579035 0.08797906 0.17837252 -0.16949669 0.020066295 0.12266448
0.13430187 -0.08258448 0.12584618 -0.13907745 -0.07261228 0.10796733 -0.18423703 -0.24158318
-0.06729118 -0.1983131 -0.05595514 0.17604835 0.08681208 0.12737061 -0.17420308 0.0302298
-0.14401962 0.06473097 -0.031613834 -0.13101462 0.22153294 0.041445654 -0.051555812 -0.12450214
-0.051012937 0.20137876
00000000: 61ac 113e 59bb 59bd ef82 bc3d f187 d33c
00000010: 2de8 153e ee6b 64bc 32cb 1c3d 643e d6bd
00000020: 589c 22be e7cc 373e 0c59 00be d197 e83d
00000030: 1cab 273e a10a 583d 2a1e 2f3d a449 9f3d
00000040: 7998 68bd 9fcc 0e3e 2abb 4fbd ce5e dd3d
00000050: 75f6 ed3d 40b1 563d 839c 793c ced3 2a3e
00000060: 9789 233e 3680 d7bb f937 9b3d 5e2e b43d
00000070: 49a7 363e 8a90 2dbe 1262 a43c 8437 fb3d
00000080: 6e86 093e 0d22 a9bd d2dd 003e 526a 0ebe
00000090: bfb5 94bd fa1d dd3d a2a8 3cbe 9561 77be
000000a0: f5cf 89bd 9712 4bbe 3831 65bd 0546 343e
000000b0: 88ca b13d 716d 023e 4b62 32be 7ca4 f73c
000000c0: e179 13be ac91 843d 827d 01bd b228 06be
000000d0: 88d9 623e ebc2 293d 302c 53bd fafa febd
000000e0: f1f2 50bd 3c36 4e3e

BN.weight f4 [64]
0.43566737 0.49313417 0.572799 0.7210231 0.70922714 0.55840486 0.8519416 0.8617697
1.5438428 1.1077484 1.1744769 1.1907226 1.0632441 1.2749828 0.9697005 0.98425967
1.3700769 0.92964345 1.2489839 1.0633583 0.9768196 0.9423003 0.9482312 1.3157508
1.2621436 1.2552264 1.0194526 0.868664 1.1993338 1.065525 1.0494869 0.7082487
0.8795302 1.0170584 1.1280026 0.8301374 1.0476865 0.94735414 1.2325002 1.3756236
1.4335315 0.8395877 1.0191436 0.93660504 0.8651915 1.1036612 1.2344127 1.1501039
0.80223787 0.9535108 0.90346086 0.9610686 0.9659186 1.1691285 0.8908378 1.0829158
0.89921236 0.92478424 0.94935656 1.0173857 0.94119954 0.854927 1.0188781 1.4088135
00000000: cb0f df3e 157c fc3e f5a2 123f f894 383f
00000010: e98f 353f 9ff3 0e3f d818 5a3f f09c 5c3f
00000020: a49c c53f b3ca 8d3f 4255 963f 9969 983f
00000030: 6218 883f a332 a33f 4b3e 783f 71f8 7b3f
00000040: ae5e af3f 1dfd 6d3f b4de 9f3f 201c 883f
00000050: d910 7a3f 983a 713f 48bf 723f 866a a83f
00000060: ec8d a13f 42ab a03f 6c7d 823f c460 5e3f
00000070: c583 993f 2063 883f 9655 863f c94f 353f
00000080: e428 613f f82e 823f 6462 903f e283 543f
00000090: 971a 863f cd85 723f 91c2 9d3f 6f14 b03f
000000a0: f67d b73f 38ef 563f 4c73 823f 59c5 6f3f
000000b0: 317d 5d3f c544 8d3f 3c01 9e3f 9b36 933f
000000c0: 765f 4d3f 4919 743f 3649 673f 9708 763f
000000d0: 7146 773f 01a6 953f f20d 643f fc9c 8a3f
000000e0: c832 663f a9be 6c3f 0809 733f b239 823f
000000f0: 74f2 703f 7fdc 5a3f 996a 823f 0054 b43f

BN.bias f4 [64]
-0.2669827 0.03560725 -0.6873639 -0.29431108 -0.17642532 0.047901932 0.20620911 0.16623548
0.788356 0.49210796 0.14667873 0.61244977 0.43876034 0.4300907 0.4347631 0.35276866
0.6807348 0.07540836 0.74042183 0.22868913 0.010660924 -0.039171945 0.39771232 0.7038229
0.64941144 0.52554554 0.18339612 -0.027827218 0.55251145 0.17055357 0.36445305 -0.099897265
0.22515987 -0.023045113 0.20944054 -0.06429072 0.1726421 0.30290958 0.37885314 0.5720471
0.8035421 -0.0126901725 0.25623906 0.12612352 0.062651776 0.28832477 0.33255017 0.27620676
0.055072807 -0.0134994015 0.29659665 0.29279214 0.11076174 0.540274 0.22522666 0.2385489
0.15035044 0.0681956 0.21903051 0.26410052 0.24104397 0.10361491 0.01234945 0.8247825
00000000: f5b1 88be e8d8 113d 15f7 2fbf f1af 96be
00000010: d7a8 34be d134 443d 7b28 533e a239 2a3e
00000020: b3d1 493f 93f5 fb3e f332 163e 82c9 1c3f
00000030: 32a5 e03e d934 dc3e 4599 de3e 189e b43e
00000040: a344 2e3f b36f 9a3d 498c 3d3f 7c2d 6a3e
00000050: 28ab 2e3c c372 20bd f3a0 cb3e bd2d 343f
00000060: d43f 263f 278a 063f 31cc 3b3e e8f5 e3bc
00000070: 6471 0d3f 98a5 2e3e 9799 ba3e f096 ccbd
00000080: 4f90 663e 1bc9 bcbc 9577 563e daaa 83bd
00000090: 17c9 303e f716 9b3e 0af9 c13e ae71 123f
000000a0: efb4 4d3f 71ea 4fbc c431 833e 8626 013e
000000b0: 934f 803d 4e9f 933e 0444 aa3e f96a 8d3e
000000c0: 0694 613d 982c 5dbc 84db 973e dae8 953e
000000d0: 0dd7 e23d 664f 0a3f d1a1 663e 2a46 743e
000000e0: 77f5 193e 22aa 8b3d 8949 603e 2f38 873e
000000f0: 3bd4 763e 0e34 d43d 5955 4a3c f224 533f

BN.running_mean f4 [64]
0.066344604 -0.06743789 -0.30316943 0.27922666 -0.20049863 0.121972896 -0.07952246 1.6460919
-0.045707114 -0.07644117 -0.40490454 -0.07172097 -0.03035712 -0.24401255 -0.36460218 0.060426824
-0.16169417 -0.26417765 0.06638697 -0.18153304 -0.19917192 0.057109196 -0.23945163 0.007819952
-0.13640377 -0.003728745 -0.21638016 0.16101521 -0.11137171 -0.036885172 0.11237985 0.90822953
-0.13782986 0.32996425 -0.13283552 -0.38188976 -1.2797809 -0.035889346 -0.027531385 -0.23141868
0.1716853 -0.73804176 -0.1720384 -0.6146725 -0.5236222 -0.49487284 -0.3803777 -0.4173751
-0.36061412 0.2242833 0.12580575 2.6217284 -0.1567258 0.019036181 -0.13404484 0.020170486
-0.2537815 -0.04680898 -0.3976417 -0.09111468 1.5791056 -0.5794079 -0.15891053 0.14887565
00000000: aedf 873d e01c 8abd 0639 9bbe ccf6 8e3e
00000010: 834f 4dbe edcc f93d acdc a2bd 24b3 d23f
00000020: 6237 3bbd 308d 9cbd a64f cfbe 72e2 92bd
00000030: 7faf f8bc 6dde 79be 23ad babe 1e82 773d
00000040: 2893 25be 4b42 87be e4f5 873d cce3 39be
00000050: b9f3 4bbe 55eb 693d cf32 75be 421f 003c
00000060: 6ead 0bbe f65d 74bb c392 5dbe 2ce1 243e
00000070: da16 e4bd e814 17bd 6827 e63d bb81 683f
00000080: 4523 0dbe 13f1 a83e 0906 08be 0e87 c3be
00000090: dccf a3bf b500 13bd 8089 e1bc 05f9 6cbe
000000a0: 45ce 2f3e 4ef0 3cbf d62a 30be 2d5b 1dbf
000000b0: 1b0c 06bf f95f fdbe dec0 c2be 30b2 d5be
000000c0: 6aa2 b8be 85aa 653e 39d3 003e 66ca 2740
000000d0: ba7c 20be c4f1 9b3c 0d43 09be 933c a53c
000000e0: a6ef 81be c6ba 3fbd b197 cbbe 559a babd
000000f0: 2220 ca3f 1354 14bf 71b9 22be dc72 183e

BN.running_var f4 [64]
0.13388619 0.08389737 9.611299 0.46334818 0.10639058 0.15346973 0.36813962 0.85170424
0.12674959 0.12100023 0.14827922 0.13199063 0.20355389 0.090861805 0.1687841 0.2465946
0.15738001 0.58704776 0.093296476 0.26746795 0.39624965 0.33606613 0.78830624 0.09471215
0.122770764 0.12170469 0.43534073 0.6231229 0.118434876 0.2352715 0.18366787 0.6871312
0.31017503 0.6717757 0.14258564 0.45205036 0.5651429 0.70116544 0.14503251 0.15035933
0.091690734 0.5634244 0.38421556 0.45639622 0.2832031 0.19173782 0.11004114 0.13625464
0.68805116 0.20922494 0.33476394 1.3715432 0.32493505 0.08767677 0.28625557 0.27132753
0.15542896 0.42980665 0.44100136 0.42452365 0.53071946 0.7091578 0.21519086 0.107541695
00000000: 7619 093e 62d2 ab3d e1c7 1941 f93b ed3e
00000010: 4ee3 d93d 2b27 1d3e cc7c bc3e 4a09 5a3f
00000020: a5ca 013e f8ce f73d 82d6 173e 8d28 073e
00000030: 6e70 503e c115 ba3d bdd5 2c3e 4b83 7c3e
00000040: 3a28 213e c348 163f 3912 bf3d 8ff1 883e
00000050: 3ce1 ca3e dc10 ac3e 70ce 493f 72f8 c13d
00000060: 3d6f fb3d 4f40 f93d fbe4 de3e fb84 1f3f
00000070: fc8d f23d 03eb 703e 6e13 3c3e d5e7 2f3f
00000080: 43cf 9e3e 7ef9 2b3f f801 123e 2573 e73e
00000090: 35ad 103f 947f 333f 6783 143e ccf7 193e
000000a0: 5ac8 bb3d 953c 103f e7b7 c43e c4ac e93e
000000b0: ffff 903e eb56 443e 405d e13d 5686 0b3e
000000c0: 1f24 303f 103f 563e 2e66 ab3e ba8e af3f
000000d0: e35d a63e e18f b33d 1790 923e 71eb 8a3e
000000e0: c528 1f3e 9e0f dc3e eeca e13e 2a5b d93e
000000f0: 3bdd 073f 5e8b 353f fe5a 5c3e d23e dc3d

classifier.layer1.0.weight f4 [32, 64, 3, 3]
0.008307709 0.0017630968 0.06901096 0.032072287 0.0711488 0.035400562 0.049022008 0.10144252
0.08482319 -0.076801024 -0.0682659 -0.02922419 -0.017941931 -0.06506033 -0.03990677 -0.020317214
-0.08140997 -0.0654435 0.06373654 0.09142281 0.09606554 0.021460082 0.023323428 0.011918027
0.04660204 0.014815227 0.04763153 -0.008918762 0.034301423 0.03143529 -0.0059628645 0.03547717
0.049280625 0.024432354 0.004458049 0.011249103 0.14955914 0.09106485 0.025799233 0.13770404
0.06967347 0.05100283 0.1978577 0.110448964 0.07507347 0.015534599 -0.0017833535 0.020158077
0.021444008 -0.04820236 0.016279371 -0.008961233 -0.045147467 0.019721515 0.081772394 0.018865863
-0.05244332 0.070638284 0.022753596 0.07705867 0.01285576 -0.0852156 -0.025056163 -0.045500588
-0.00019856576 0.07820668 0.036930986 0.16503583 -0.008179004 0.10930099 0.008159331 0.09399977
-0.06261687 0.0146594765 0.061937194 -0.02154866 -0.049796797 0.058975376 0.013799799 -0.17564616
0.10233957 -0.020738645 -0.007137209 0.07509582 0.007517178 0.060875986 -0.071307115 0.03791473
-0.014960675 -0.029040536 0.02387224 -0.09626636 -0.11413173 -0.15027243 0.020825902 -0.09940529
0.006636648 -0.19667199 -0.1210684 0.034041334 -0.04678681 -0.0042009447 -0.07306737 0.006105108
-0.012356165 0.077080846 -0.13248779 0.020365529 -0.005236322 -0.02361788 0.07379252 -0.07511097
0.09089297 0.09748128 0.10776436 -0.025877569 -0.01609806 -0.07376834 0.09142469 0.05198511
0.054838836 -0.081568144 0.036648378 -0.031271294 0.0073029683 0.03335529 0.041364476 -0.0076064677
-0.039277956 0.14110821 0.042820632 0.09816664 -0.055516843 0.049197033 0.016919471 0.08704961
-0.01726961 0.09870091 0.10111836 0.049155578 -0.00551032 0.04717044 0.031404432 0.0263379
0.09661767 -0.05227782 -0.0009094235 -0.12756817 -0.03385099 0.07607644 0.0133891655 -0.16079865
0.016313007 -0.01889684 -0.16689166 -0.11390559 -0.09018177 0.04699852 -0.096867636 -0.06432649
-0.09189844 -0.14643545 0.07567045 0.039246477 -0.045445696 0.034994256 -0.08087391 -0.014200939
0.0562874 -0.047913123 0.001354744 -0.06977193 -0.2361343 -0.1373753 -0.15721752 -0.11019379
-0.13348621 -0.056424983 -0.15731865 -0.12029447 0.08335216 -0.12329414 -0.08085112 -0.0010799945
0.13653073 -0.17688583 0.039352447 -0.176295 -0.09496985 0.08602902 0.01970155 0.026105931
0.11347012 -0.070787735 0.018706555 0.101794116 -0.02639589 -0.14129357 0.15816203 0.12448704
0.045267925 0.20687124 0.081753775 0.024156662 0.14055142 0.0428275 -0.0018141641 0.036803357
0.075266026 -0.013578443 -0.0027344036 0.008673426 0.05817317 -0.15874583 0.010836944 0.08922281
-0.038595557 -0.011306422 0.029092075 0.06998147 -0.075518556 0.050279073 0.07030769 0.014723341
-0.07657607 0.13540551 0.029605083 0.016828313 0.0067275004 -0.13385244 0.048585232 0.054824464
-0.06623144 -0.017190577 0.077753924 -0.02923793 -0.0003370289 -0.082920216 -0.012946223 -0.10965596
-0.09451644 0.028877249 -0.07019473 -0.053054154 0.12957086 0.10142822 0.008018085 -0.07418398
-0.04726579 0.008438968 0.03848518 0.036728613 -0.1915055 0.0940534 0.05818661 -0.05446999
00000000: 0f1d 083c b617 e73a 9e55 8d3d 3b5e 033d
00000010: 76b6 913d 2e00 113d 4dcb 483d 19c1 cf3d
00000020: c8b7 ad3d db49 9dbd fece 8bbd 9267 efbc
00000030: f5fa 92bc 5a3e 85bd 4875 23bd 4970 a6bc
00000040: 45ba a6bd 3e07 86bd 4e88 823d e23b bb3d
00000050: 03be c43d 0ecd af3c c610 bf3c d443 433c
00000060: c8e1 3e3d 91bb 723c 4719 433d 0020 12bc
00000070: a67f 0c3d 4ac2 003d 2264 c3bb 8250 113d
00000080: 7bda 493d 5c26 c83c d314 923b 284e 383c
00000090: 0826 193e 3580 ba3d ea58 d33c 4a02 0d3e
000000a0: f7b0 8e3d 58e8 503d 359b 4a3e 1133 e23d
000000b0: 1fc0 993d d584 7e3c 6abf e9ba 8d22 a53c
000000c0: 58ab af3c d66f 45bd 515c 853c 23d2 12bc
000000d0: 8dec 38bd 048f a13c 4978 a73d 958c 9a3c
000000e0: cfce 56bd ceaa 903d c065 ba3c f0d0 9d3d
000000f0: f7a0 523c 8485 aebd 9542 cdbc d35e 3abd
00000100: 1736 50b9 d32a a03d f244 173d 27ff 283e
00000110: 3b01 06bc 33d9 df3d b7ae 053c f482 c03d
00000120: 463d 80bd 4d2e 703c dbb1 7d3d d186 b0bc
00000130: baf7 4bbd 2a90 713d 8d18 623c 96dc 33be
00000140: 6997 d13d 17e4 a9bc 40df e9bb d6cb 993d
00000150: a952 f63b 1959 793d 7709 92bd 7a4c 1b3d
00000160: 9e1d 75bc 6be6 edbc b78f c33c 4c27 c5bd
00000170: e5bd e9bd 04e1 19be 159b aa3c 0095 cbbd
00000180: 3d78 d93b 6264 49be b6f2 f7bd ed6e 0b3d
00000190: 87a3 3fbd 14a8 89bb 58a4 95bd 5c0d c83b
000001a0: 8371 4abc 90dc 9d3d e1aa 07be 9cd5 a63c
000001b0: 7495 abbb 497a c1bc 8820 973d c8d3 99bd
000001c0: 1826 ba3d 44a4 c73d 90b3 dc3d 32fd d3bc
000001d0: 14e0 83bc db13 97bd de3c bb3d 57ee 543d
000001e0: b09e 603d 330d a7bd 9c1c 163d 5416 00bd
000001f0: bd4d ef3b 8e9f 083d cc6d 293d ad3f f9bb
00000200: ece1 20bd ac7e 103e b064 2f3d 970b c93d
00000210: a165 63bd d482 493d b49a 8a3c 1147 b23d
00000220: ff78 8dbc b423 ca3d 2517 cf3d 5c57 493d
00000230: ea8f b4bb cb35 413d efa1 003d 94c2 d73c
00000240: 7cdf c53d 4421 56bd 6166 6eba 3ba1 02be
00000250: 56a7 0abd f7cd 9b3d 3b5e 5b3c 67a8 24be
00000260: dba2 853c 8ccd 9abc a6e5 2abe 5547 e9bd
00000270: 38b1 b8bd 8581 403d 8a62 c6bd 9bbd 83bd
00000280: 4035 bcbd 2df3 15be 1cf9 9a3d eac0 203d
00000290: 4425 3abd 2356 0f3d 38a1 a5bd 0eab 68bc
000002a0: 9e8d 663d 8d40 44bd aa91 b13a 96e4 8ebd
000002b0: 31cd 71be 1cac 0cbe a1fd 20be 48ad e1bd
000002c0: 9cb0 08be e21d 67bd 2418 21be f25c f6bd
000002d0: 8ab4 aa3d a381 fcbd 4695 a5bd 9a8e 8dba
000002e0: b6ce 0b3e 8f21 35be 0830 213d ad86 34be
000002f0: 8d7f c2bd fc2f b03d 2565 a13c 1bdc d53c
00000300: 0663 e83d 29f9 90bd 7d3e 993c 6f79 d03d
00000310: 323c d8bc 43af 10be 3af5 213e 10f3 fe3d
00000320: dc6a 393d 0ed6 533e 866e a73d 31e4 c53c
00000330: b6ec 0f3e e36b 2f3d 3fc9 edba 1ebf 163d
00000340: 1325 9a3d 1e78 5ebc ae33 33bb fc1a 0e3c
00000350: fd46 6e3d 448e 22be 708d 313c 73ba b63d
00000360: 6016 1ebd 923e 39bc 8152 ee3c 7252 8f3d
00000370: 79a9 9abd 6ef1 4d3d 7afd 8f3d 2b3a 713c
00000380: ead3 9cbd bea7 0a3e 5c86 f23c 88db 893c
00000390: 5d72 dc3b 9d10 09be 4f01 473d 9e8f 603d
000003a0: 59a4 87bd 41d3 8cbc 733d 9f3d 6284 efbc
000003b0: 41b3 b0b9 13d2 a9bd 651c 54bc 4e93 e0bd
000003c0: d691 c1bd fb8f ec3c 41c2 8fbd 504f 59bd
000003d0: 39ae 043e 99b9 cf3d 495e 033c c5ed 97bd
000003e0: c699 41bd 9943 0a3c a3a2 1d3d be70 163d
000003f0: 051a 44be 129f c03d 1555 6e3d ed1b 5fbd

classifier.layer1.0.bias f4 [32]
-0.020424103 0.007066582 0.0042384337 -0.0059375023 0.03250682 0.021779235 -0.0011533923 -0.02639547
-0.038718745 0.041290015 0.031106668 0.031816598 0.023509663 -0.044153403 0.008702819 0.022119924
0.036179114 0.00017305436 -0.038152065 0.016856294 0.04126824 -0.039999187 -0.01633197 -0.034396652
0.003981382 -0.021005215 0.007231177 -0.0014610381 0.017727628 0.010186028 -0.040748138 0.012147728
00000000: 7350 a7bc c98e e73b 8fe2 8a3b 618f c2bb
00000010: df25 053d 5e6a b23c 6c2d 97ba 503b d8bc
00000020: 8c97 1ebd b81f 293d 69d3 fe3c 1f52 023d
00000030: 5697 c03c 33da 34bd 4596 0e3c d834 b53c
00000040: 8d30 143d ed75 3539 5745 1cbd 3616 8a3c
00000050: e308 293d 30d6 23bd a0ca 85bc 81e3 0cbd
00000060: 4176 823b 2113 acbc 82f3 ec3b 4e80 bfba
00000070: 8839 913c 4ce3 263c 85e7 26bd 4407 473c

classifier.layer1.1.weight f4 [32]
0.8278308 0.863442 1.3240921 0.82115644 1.075522 0.7866255 0.91992885 1.0654305
0.8809903 1.1821774 1.1503252 0.88291943 0.8275577 0.89781517 0.88030595 0.79653853
0.69718957 1.0033375 0.88800734 0.8228554 0.8494191 0.9338525 1.1938667 0.836601
0.97829336 1.0709084 1.2079567 0.97267455 0.78545886 0.901583 1.0875155 1.1658223
00000000: b8ec 533f 890a 5d3f da7b a93f 4f37 523f
00000010: b4aa 893f 4a60 493f 7580 6b3f 0760 883f
00000020: 9588 613f 9751 973f db3d 933f 0207 623f
00000030: d2da 533f 37d7 653f bb5b 613f f3e9 4b3f
00000040: 047b 323f 5d6d 803f 7354 633f a7a6 523f
00000050: 8873 593f f510 6f3f a0d0 983f 7c2b 563f
00000060: 6f71 7a3f 8713 893f 539e 9a3f 3301 793f
00000070: d513 493f 25ce 663f b533 8b3f aa39 953f

classifier.layer1.1.bias f4 [32]
-0.21347623 -0.14398737 0.21740326 -0.2951825 0.06110127 -0.18907876 -0.1024964 -0.16175334
-0.20707212 0.25061288 -0.0844623 -0.34085587 -0.087003104 -0.16488333 -0.06565235 -0.020254754
-0.14978428 0.0734223 -0.08155928 -0.08695907 -0.07937023 -0.02933402 -0.2161035 -0.17521104
-0.1620746 -0.08380191 0.21908702 -0.08377974 -0.2240666 -0.10548342 0.00034616792 -0.089613914
00000000: 8399 5abe 6d71 13be f69e 5e3e 2922 97be
00000010: 5345 7a3d dd9d 41be a2e9 d1bd aba2 25be
00000020: b70a 54be 5550 803e 92fa acbd a984 aebe
00000030: af2e b2bd 2dd7 28be bd74 86bd 4ced a5bc
00000040: 0d61 19be 6e5e 963d 8d08 a7bd 9917 b2bd
00000050: dc8c a2bd e64d f0bc 3c4a 5dbe 866a 33be
00000060: e2f6 25be 56a0 abbd 5958 603e b694 abbd
00000070: b771 65be b107 d8bd df7d b539 8087 b7bd

classifier.layer1.1.running_mean f4 [32]
-0.2795891 -2.5345492 -2.824931 -0.8327938 -2.7080042 -1.9488646 -1.4387801 -1.1194999
-3.7290177 -3.8570955 -3.8294435 -1.7639419 -2.2924933 -4.525372 -0.655185 0.53080326
-1.3223116 -4.3824186 -4.103578 0.37298194 -3.6030202 -3.0414548 -0.7424979 -1.6111523
-1.6748995 -1.3293989 -2.3594258 -4.08294 4.801476 -0.49228212 -4.7520146 -1.3205979
00000000: 4d26 8fbe 0e36 22c0 abcb 34c0 f931 55bf
00000010: f14f 2dc0 6574 f9bf f229 b8bf c64b 8fbf
00000020: 3aa8 6ec0 a7da 76c0 9a15 75c0 d9c8 e1bf
00000030: 36b8 12c0 d9cf 90c0 34ba 27bf b9e2 073f
00000040: 8241 a9bf c63c 8cc0 8350 83c0 7df7 be3e
00000050: e297 66c0 32a7 42c0 5814 3ebf 3d3a cebf
00000060: 1b63 d6bf be29 aabf d500 17c0 72a7 82c0
00000070: b1a5 9940 670c fcbe 8110 98c0 5a09 a9bf

classifier.layer1.1.running_var f4 [32]
10.77758 20.389828 9.815454 3.0266943 13.247772 11.470745 12.805619 15.810601
9.130375 12.523093 12.839731 10.708465 16.843618 16.988287 19.745691 16.06205
7.9582047 10.752329 9.847532 10.674688 18.077797 8.771137 16.274351 13.922681
15.782899 11.354665 8.567148 14.5106325 8.742234 7.994532 19.368652 14.505892
00000000: f870 2c41 5e1e a341 190c 1d41 5cb5 4140
00000010: e0f6 5341 2c88 3741 d1e3 4c41 39f8 7c41
00000020: 0416 1241 975e 4841 8a6f 4d41 df55 2b41
00000030: bbbf 8641 03e8 8741 2df7 9d41 147f 8041
00000040: 9da9 fe40 8a09 2c41 7e8f 1d41 86cb 2a41
00000050: 549f 9041 9456 0c41 df31 8241 4dc3 5e41
00000060: c186 7c41 b5ac 3541 0a13 0941 8d2b 6841
00000070: 31e0 0b41 35d3 ff40 00f3 9a41 2218 6841

classifier.layer2.0.weight f4 [32, 32, 3, 3]
0.036110975 0.084177695 -0.04388714 -0.0249637 -0.04504911 0.052622404 -0.016501717 0.057381216
-0.039869882 -0.0617188 0.14562725 0.089002706 0.12022166 -0.004468424 0.15124013 -0.00050725415
0.15819812 -0.005295155 -0.1109208 -0.03431966 0.10610411 -0.029334988 -0.056922983 0.047230948
-0.007174097 -0.03691021 0.13174124 0.1441403 0.12599553 0.15113252 0.09905618 0.050455227
0.09556101 0.07785139 0.08392203 0.0756561 -0.06423218 0.014472261 0.006877625 -0.015427877
0.035832316 -0.086664766 0.08249927 -0.008206005 0.03479004 0.0119108055 0.00889708 0.085067466
0.088149644 0.02679185 0.035297263 -0.028467309 0.0146979485 0.00023150696 -0.09109711 -0.09940339
0.024671901 0.0074468968 0.025304273 -0.07100854 0.039947167 -0.14377868 0.093540184 0.033549197
-0.0036555687 -0.09206343 0.11688518 -0.06607221 -0.04545897 0.12794173 0.027456371 -0.009610925
0.079912126 0.13543227 0.11783065 0.057247993 0.06552173 -0.08021692 -0.024759227 0.083590634
-0.040140197 0.08876025 -0.02610341 0.08833276 0.03836355 -0.073493965 0.113354154 0.0071836365
0.020974327 -0.086294256 0.0729749 0.10841501 0.013105206 0.078680634 -0.11654586 -0.086237356
0.16371511 0.0060905763 -0.0012443643 0.0028200217 0.035520773 -0.145511 0.0022376205 0.14209954
0.019707091 0.09158028 -0.011511697 0.050354898 0.007647003 -0.18048595 0.09178597 0.10646156
-0.06788698 0.07731351 -0.07014959 0.08269496 -0.01931257 -0.0062201004 -0.033244733 0.06887482
-0.05341624 -0.050207064 -0.032578167 0.054187894 0.056070384 -0.050367564 -0.027396997 -0.05160807
-0.060906723 -0.024697581 -0.021354523 0.009968797 0.06759918 0.026240297 -0.017406119 0.031314835
0.08348028 -0.063870214 -0.031906374 0.104437165 0.003745908 -0.063758574 0.03022735 -0.007996669
0.04786664 -0.17779435 -0.08200594 0.112447 -0.004595826 0.079490766 0.059623424 0.023144387
0.018713977 0.038866933 -0.015097284 0.068491675 -0.13843107 0.03209875 0.033523217 -0.027191667
-0.0009375408 0.07892884 0.07977661 0.18679644 -0.089385934 -0.06305769 -0.1078192 -0.122796394
-0.019323308 0.09979232 -0.011489095 -0.023731742 0.00050971453 -0.0064812107 0.0866709 0.03328819
0.11158957 0.09579374 0.04214145 0.032804932 -0.037538294 0.08616429 -0.06565953 0.08494086
-0.06509065 0.099565335 -0.025463693 0.15743501 -0.097826995 0.08849839 0.08113849 0.14052473
-0.06281958 0.0034021616 -0.121811315 0.035806715 0.0041387943 0.18904231 -0.1853004 -0.2212865
-0.2736688 -0.18759568 -0.01002952 -0.15260123 -0.08713649 -0.069747284 -0.093642145 0.06995345
0.08363934 0.028737294 0.14604697 -0.031739507 0.11427542 -0.09044306 0.15317218 -0.07040439
-0.0008313505 0.057449747 -0.062020455 0.07184571 0.07439876 -0.10013902 0.037586547 -0.011512205
0.0152940815 -0.030101158 -0.021635933 -0.17178592 0.027151015 -0.0074854237 0.039372586 0.009440263
0.065040745 0.04171336 0.07456422 -0.023049736 -0.10532451 -0.095348455 0.041827578 0.005417254
0.07872802 0.07941989 -0.015716385 0.05233456 0.009736483 -0.053408604 0.07033415 0.05220468
-0.09416006 0.039790813 -0.02563514 0.058607552 0.01572306 0.044756215 -0.027693294 -0.013987025
00000000: 1ae9 133d 5b65 ac3d 00c3 33bd ac80 ccbc
00000010: 6a85 38bd 978a 573d 9c2e 87bc 9108 6b3d
00000020: 9a4e 23bd dacc 7cbd 4f1f 153e 0d47 b63d
00000030: c636 f63d db6b 92bb b1de 1a3e 40f9 04ba
00000040: b0fe 213e fb82 adbb 722a e3bd c692 0cbd
00000050: 1d4d d93d ee4f f0bc 1328 69bd 3d75 413d
00000060: b014 ebbb 292f 17bd 2de7 063e 8499 133e
00000070: f904 013e 7cc2 1a3e f7dd ca3d 24aa 4e3d
00000080: 7eb5 c33d 8d70 9f3d 50df ab3d 96f1 9a3d
00000090: 298c 83bd 101d 6d3c b35d e13b 35c5 7cbc
000000a0: e8c4 123d 4c7d b1bd 61f5 a83d 7b72 06bc
000000b0: 0080 0e3d 8a25 433c 0fc5 113c da37 ae3d
000000c0: cd87 b43d 957a db3c dd93 103d 4634 e9bc
000000d0: aacf 703c adc0 7239 1f91 babd 0194 cbbd
000000e0: ba1c ca3c 1905 f43b e84a cf3c ed6c 91bd
000000f0: a49f 233d b83a 13be ff91 bf3d e26a 093d
00000100: 4492 6fbb c08b bcbd 7f61 ef3d de50 87bd
00000110: 2f33 3abd 2803 033e 2fec e03c 2477 1dbc
00000120: f8a8 a33d c2ae 0a3e 3251 f13d df7c 6a3d
00000130: 4230 863d c548 a4bd ddd3 cabc 9131 ab3d
00000140: 0c6a 24bd efc7 b53d d2d6 d5bc cee7 b43d
00000150: 1923 1d3d 0184 96bd 3926 e83d b664 eb3b
00000160: 5ad2 ab3c 0bbb b0bd dd73 953d b008 de3d
00000170: 38b7 563c 5023 a13d 99af eebd 369d b0bd
00000180: efa4 273e 7593 c73b f019 a3ba 1dd0 383b
00000190: 3b7e 113d d600 15be 0ba5 123b 8b82 113e
000001a0: c470 a13c 718e bb3d 8f9b 3cbc f040 4e3d
000001b0: b693 fa3b 4fd1 38be 48fa bb3d 8508 da3d
000001c0: 5408 8bbd 8c56 9e3d 97aa 8fbd fa5b a93d
000001d0: 6535 9ebc fcd1 cbbb a12b 08bd 3e0e 8d3d
000001e0: fdca 5abd eca5 4dbd af70 05bd 20f4 5d3d
000001f0: 0faa 653d 384e 4ebd ab6f e0bc fc62 53bd
00000200: 5479 79bd 9552 cabc aeef aebc 2a54 233c
00000210: 7071 8a3d e4f5 d63c 4797 8ebc fc43 003d
00000220: b6f7 aa3d 63ce 82bd 42b0 02bd 27e3 d53d
00000230: e87d 753b db93 82bd 599f f73c 7604 03bc
00000240: cf0f 443d b90f 36be bbf2 a7bd 9d4a e63d
00000250: 9598 96bb 0ecc a23d b137 743d 4c99 bd3c
00000260: 0e4e 993c ef32 1f3d 995a 77bc 5d45 8c3d
00000270: e0c0 0dbe fb79 033d a44f 093d 0fc1 debc
00000280: 4cc5 75ba 72a5 a13d eb61 a33d 9147 3f3e
00000290: f90f b7bd 6424 81bd 50d0 dcbd ad7c fbbd
000002a0: ea4b 9ebc ea5f cc3d c23c 3cbc 1269 c2bc
000002b0: 5d9e 053a 5660 d4bb 8380 b13d 3259 083d
000002c0: 1389 e43d 822f c43d 839c 2c3d 775e 063d
000002d0: c1c1 19bd e776 b03d 8178 86bd 79f5 ad3d
000002e0: 3f4e 85bd e9e8 cb3d 3c99 d0bc a536 213e
000002f0: 8559 c8bd a53e b53d f02b a63d b7e5 0f3e
00000300: 8da7 80bd cdf6 5e3b 3678 f9bd 10aa 123d
00000310: b99e 873b 4f94 413e 63bf 3dbe ee98 62be
00000320: 511e 8cbe 1519 40be db52 24bc 7f43 1cbe
00000330: 9e74 b2bd aad7 8ebd 74c7 bfbd c143 8f3d
00000340: 1a4b ab3d 796a eb3c 568d 153e 4901 02bd
00000350: 3b09 ea3d 363a b9bd 2bd9 1c3e 2d30 90bd
00000360: fdee 59ba 6d50 6b3d 2909 7ebd d823 933d
00000370: 615e 983d b015 cdbd 5af4 193d b09d 3cbc
00000380: 0794 7a3c b496 f6bc d73d b1bc a6e8 2fbe
00000390: ce6b de3c 4948 f5bb 2645 213d 55ab 1a3c
000003a0: 1534 853d a1db 2a3d 20b5 983d cdd2 bcbc
000003b0: 60b4 d7bd 0d46 c3bd 6553 2b3d 3883 b13b
000003c0: 283c a13d e5a6 a23d a6bf 80bc c35c 563d
000003d0: c585 1f3c fbc2 5abd 5a0b 903d 93d4 553d
000003e0: fdd6 c0bd b1fb 223d c900 d2bc 790e 703d
000003f0: a6cd 803c 4b52 373d 0cdd e2bc d629 65bc

classifier.layer2.0.bias f4 [32]
-0.050013956 0.07662627 -0.02121922 -0.095995806 0.03569857 -0.00909031 -0.07047645 0.01668752
0.0001753421 0.042553276 -0.027887672 0.024327612 0.09860139 -0.055724535 0.00875641 -0.015510134
-0.039042074 0.09161847 0.028657077 -0.0139034195 -0.021154523 -0.05947306 0.0042859423 -0.010463839
-0.065818444 -0.040347558 -0.020229265 0.052002363 0.010555823 0.042834885 0.014000306 -0.09516209
00000000: 6fdb 4cbd 3cee 9c3d eed3 adbc 7399 c4bd
00000010: aa38 123d 86ef 14bc f555 90bd 44b4 883c
00000020: 09dc 3739 584c 2e3d b074 e4bc b34a c73c
00000030: 87ef c93d 693f 64bd 0c77 0f3c 381e 7ebc
00000040: 95ea 1fbd 77a2 bb3d 3fc2 ea3c 2bcb 63bc
00000050: 404c adbc 069a 73bd 1771 8c3b 8670 2bbc
00000060: d2cb 86bd 7b43 25bd d8b7 a5bc 6e00 553d
00000070: 55f2 2c3c a273 2f3d 8a61 653c 58e4 c2bd

classifier.layer2.1.weight f4 [32]
0.9162155 1.1166958 0.96774095 0.9542142 0.962536 1.0967295 0.9974978 0.90735185
0.9405038 0.96479326 0.98401916 1.1563439 0.9606734 0.9095675 0.9281591 1.0490605
1.0057994 1.08391 1.0246677 1.0977335 0.98808 1.0502797 1.0748587 0.92934126
0.89927924 1.0096587 1.0786169 1.0063305 0.87230605 0.8996113 1.0052596 0.9853711
00000000: 198d 6a3f e3ef 8e3f dfbd 773f 6247 743f
00000010: c268 763f a261 8c3f 045c 7f3f 3648 683f
00000020: dbc4 703f b1fc 763f aee8 7b3f 1403 943f
00000030: b1ee 753f 6ad9 683f d69b 6d3f 9d47 863f
00000040: 09be 803f 90bd 8a3f 5028 833f 8882 8c3f
00000050: d0f2 7c3f 916f 863f f894 893f 4fe9 6d3f
00000060: 2a37 663f 7f3c 813f 1e10 8a3f 70cf 803f
00000070: 734f 5f3f ed4c 663f 59ac 803f 4841 7c3f

classifier.layer2.1.bias f4 [32]
-0.16867599 -0.09524706 -0.068462364 -0.14004785 -0.05621834 -0.20087004 -0.02252785 -0.14738236
0.0040376093 -0.21359633 -0.21843052 -0.13219091 -0.12190455 -0.23074768 -0.31788835 -0.08750379
-0.02225651 -0.13006462 -0.14279814 -0.20631635 -0.13377121 -0.116020024 -0.1732315 -0.11364841
-0.1387648 -0.15736485 -0.17133786 -0.14699619 -0.14722115 -0.18223058 -0.110378146 -0.071116865
00000000: 66b9 2cbe e410 c3bd ff35 8cbd b468 0fbe
00000010: 3445 66bd e0b0 4dbe 538c b8bc 67eb 16be
00000020: ec4d 843b ffb8 5abe 40ac 5fbe 0e5d 07be
00000030: 18a9 f9bd 1f49 6cbe 43c2 a2be 3035 b3bd
00000040: 4953 b6bc a92f 05be ad39 12be 9844 53be
00000050: 52fb 08be e89b edbd 9963 31be 7fc0 e8bd
00000060: 5c18 0ebe 4024 21be 3173 2fbe 2b86 16be
00000070: 24c1 16be a79a 3abe f00d e2bd b8a5 91bd

classifier.layer2.1.running_mean f4 [32]
0.7389953 -1.2112832 -0.31807145 -1.4164883 -0.61342865 -1.3270025 -0.14811008 -2.3618035
-1.2022913 -1.5196315 -1.3996239 -0.6724665 -1.1413047 0.18964209 -0.29066938 -0.8869143
-1.5625043 -1.021108 -1.149199 -0.518661 -0.51792246 -1.446995 -0.46639314 -0.6529633
-0.8177282 -0.878146 -0.21742271 -0.73235106 1.7565755 1.184116 -0.42352864 -0.92124903
00000000: cc2e 3d3f 540b 9bbf 43da a2be 7d4f b5bf
00000010: a909 1dbf 38db a9bf 2baa 17be ca27 17c0
00000020: aee4 99bf 4983 c2bf e026 b3bf c426 2cbf
00000030: 4616 92bf 8931 423e 9ed2 94be d10c 63bf
00000040: 2400 c8bf abb3 82bf f418 93bf f8c6 04bf
00000050: 9196 04bf 2237 b9bf 15cb eebe 9a28 27bf
00000060: a356 51bf 2dce 60bf 0fa4 5ebe 5c7b 3bbf
00000070: 77d7 e03f 1d91 973f bfd8 d8be fad6 6bbf

classifier.layer2.1.running_var f4 [32]
0.9175338 1.1063181 1.1199056 0.7773688 0.9305041 1.2349075 0.8315551 1.824114
1.3146715 1.074837 1.0871792 1.2985452 1.0527035 0.9038723 0.54708755 1.4413939
1.0117121 0.8669312 1.1864314 1.2331649 0.62646234 1.253648 1.5032945 0.6769873
0.81283987 1.8345473 1.5002898 1.303384 1.389887 0.6647523 1.1746583 1.0326648
00000000: 7fe3 6a3f d59b 8d3f 1159 8f3f a401 473f
00000010: 8435 6e3f 7311 9e3f cce0 543f 917c e93f
00000020: 2847 a83f 4294 893f b028 8b3f bb36 a63f
00000030: fdbe 863f 2d64 673f ee0d 0c3f 987f b83f
00000040: c87f 813f 34ef 5d3f fcdc 973f 59d8 9d3f
00000050: d65f 203f 8a77 a03f f46b c03f 0a4f 2d3f
00000060: 4616 503f 72d2 ea3f 7f09 c03f 49d5 a63f
00000070: d1e7 b13f 352d 2a3f 345b 963f 5c2e 843f

classifier.layer3.0.weight f4 [32, 32, 3, 3]
-0.060367946 0.012130766 -0.07210768 0.009734283 -0.11681175 0.01224673 0.0068630977 -0.11121029
0.01889892 0.0039460715 0.18067305 -0.021281976 0.0064582736 0.026591588 0.019684395 0.2283207
-0.11229163 0.09392191 0.010719039 0.040058747 0.083160914 -0.19020438 -0.008083225 -0.048036408
-0.03127458 -0.1262655 0.010410352 0.022906203 -0.08685965 -0.013265528 -0.011009801 -0.05954664
-0.070151046 -0.067493096 0.019336201 0.0063563804 -0.07363012 -0.025377844 0.04738504 -0.0719018
-0.05275173 -0.020428145 0.03348877 -0.014186938 0.03821234 0.025098743 0.03184609 -0.069701724
0.0425875 0.079581045 -0.004350451 -0.0066902633 0.0063700164 0.03627389 -0.0022221718 -0.10079744
0.055455707 0.018094571 -0.024593065 -0.008805536 -0.099101715 -0.118211135 -0.051424984 0.019080663
-0.025316607 -0.005601863 0.04676687 -0.0666075 -0.0014188774 0.07534891 0.039178047 -0.019422634
0.025245639 -0.013187856 0.012675305 -0.017007925 0.048691723 -0.015922524 0.024718931 -0.012832082
-0.07250555 0.09162471 0.072670974 0.018489653 0.0052879485 0.22309364 0.04348671 0.118555665
0.013555999 0.07597576 -0.058892913 -0.0031948132 0.06677781 0.15286729 -0.03319485 0.15787229
0.09095274 -0.09755587 0.17414105 0.05669622 -0.027447999 0.0100336885 -0.187996 0.042861998
0.009774117 0.026258742 -0.09327409 0.048379466 0.029397959 -0.043957 -0.07640115 0.011706941
-0.061203327 -0.052429892 -0.0845178 0.023083666 -0.088118896 -0.11103284 -0.1215523 -0.029524222
-0.17486355 -0.096168585 -0.039807588 -0.016616166 -0.09714962 0.0019723747 0.04384945 -0.068817176
-0.081186816 -0.01950184 -0.06772039 -0.014507939 -0.05129916 -0.06706007 -0.0395303 -0.042609204
0.15645474 -0.11889955 -0.09974127 0.21581818 -0.005476438 -0.049104527 0.14073017 -0.010047999
-0.1762057 -0.16156593 -0.08648595 -0.17256595 -0.22928736 -0.1484153 -0.1967756 -0.029122913
-0.21396144 -0.09321637 0.014898207 -0.09558213 -0.062010027 0.06630053 -0.054651055 -0.12095594
0.016194588 -0.14733683 -0.12382796 0.023085183 -0.051659934 0.057849325 0.09376356 -0.03171147
-0.00827091 0.08346805 0.030399827 -0.044651914 0.01561103 -0.11200274 -0.10376212 0.060275346
-0.072888665 0.13348423 0.04137631 -0.11591457 -0.06864511 0.046590954 -0.0952119 -0.0063771564
0.08783955 -0.07676576 0.05979476 0.06834099 -0.029979637 0.077550344 0.045547083 -0.08491847
-0.10237119 -0.0790867 0.0024790782 0.024024785 0.03037575 -0.07193675 -0.088478975 0.0006033573
-0.054309037 -0.08355978 0.103784986 -0.07063402 -0.01904697 0.028460462 0.0060865195 0.1155243
0.0012679852 -0.035240076 -0.04208644 0.03771497 0.057738587 -0.019134248 0.012536648 0.07788768
-0.06896464 -0.07564142 -0.014762126 -0.015920356 0.07602972 -0.010641714 0.0018984121 0.0868539
0.031124806 -0.18994038 0.11746219 -0.1062049 0.09756783 0.029186228 0.062015418 -0.0556358
-0.023735674 -0.0191151 -0.047245786 0.14596689 -0.0037233634 0.036800873 0.09367651 0.012554397
0.04960788 0.1060382 -0.00039899893 0.14734104 -0.14016144 0.03695464 -0.059949834 0.08854393
0.019452691 -0.017428888 0.016898183 -0.014446552 -0.023707375 -0.014451122 -0.023918567 -0.007925237
00000000: 6144 77bd 1fc0 463c 31ad 93bd 8b7c 1f3c
00000010: 003b efbd 82a6 483c d6e3 e03b 38c2 e3bd
00000020: e8d1 9a3c 0c4e 813b 5b02 393e 8a57 aebc
00000030: ed9f d33b 9ad6 d93c 2b41 a13c e7cc 693e
00000040: 27f9 e5bd 215a c03d e89e 2f3c a414 243d
00000050: 4550 aa3d f0c4 42be 816f 04bc d3c1 44bd
00000060: c619 00bd be4b 01be 2e90 2a3c caa5 bb3c
00000070: 79e3 b1bd a857 59bc 7462 34bc 2de7 73bd
00000080: 5aab 8fbd d239 8abd f466 9e3c 2f49 d03b
00000090: 63cb 96bd 32e5 cfbc d116 423d 4041 93bd
000000a0: 3312 58bd ed58 a7bc 852b 093d 5570 68bc
000000b0: 8b84 1c3d e19b cd3c 0c71 023d c7bf 8ebd
000000c0: 3b70 2e3d 63fb a23d 3a8e 8ebb ff39 dbbb
000000d0: 92bb d03b ee93 143d dba1 11bb e36e cebd
000000e0: 8625 633d 113b 943c 6577 c9bc 1845 10bc
000000f0: d7f5 cabd ae18 f2bd 01a3 52bd 0d4f 9c3c
00000100: c664 cfbc d58f b7bb 9e8e 3f3d 8369 88bd
00000110: a0f9 b9ba 8850 9a3d 2979 203d 371c 9fbc
00000120: f1cf ce3c e111 58bc 15ac 4f3c 3454 8bbc
00000130: f970 473d f46f 82bc 5b7f ca3c a73d 52bc
00000140: ca7d 94bd bca5 bb3d 85d4 943d 9d77 973c
00000150: 8746 ad3b a972 643e 1f1f 323d 50cd f23d
00000160: fb19 5e3c 2e99 9b3d b239 71bd 1260 51bb
00000170: cec2 883d 3e89 1c3e 53f7 07bd 46a9 213e
00000180: 6e45 ba3d 5fcb c7bd 0852 323e 4c3a 683d
00000190: a0da e0bc 5764 243c 0682 40be 1090 2f3d
000001a0: 9e23 203c 931c d73c 7c06 bfbd 8c29 463d
000001b0: fdd3 f03c 410c 34bd 3578 9cbd 78ce 3f3c
000001c0: 57b0 7abd bac0 56bd ab17 adbd f519 bd3c
000001d0: ae77 b4bd 3065 e3bd 6af0 f8bd c8dc f1bc
000001e0: 6e0f 33be 09f4 c4bd 480d 23bd a01e 88bc
000001f0: 61f6 c6bd f542 013b 7b9b 333d 05f0 8cbd
00000200: 4645 a6bd 53c2 9fbc fdb0 8abd b5b2 6dbc
00000210: 111f 52bd ca56 89bd 86ea 21bd fd86 2ebd
00000220: ac35 203e 9b81 f3bd 2745 ccbd 71ff 5c3e
00000230: b173 b3bb d421 49bd 921b 103e 5da0 24bc
00000240: 446f 34be 8a71 25be 8c1f b1bd 21b5 30be
00000250: 4eca 6abe 2efa 17be 8b7f 49be 2d93 eebc
00000260: b518 5bbe 39e8 bebd 9c17 743c 90c0 c3bd
00000270: 3afe 7dbd 93c8 873d c9d9 5fbd bfb7 f7bd
00000280: 83aa 843c 77df 16be 8399 fdbd 231d bd3c
00000290: 5e99 53bd 6af3 6c3d 1c07 c03d e3e3 01bd
000002a0: b682 07bc 4cf1 aa3d 0f09 f93c ede4 36bd
000002b0: 68c5 7f3c b161 e5bd 3c81 d4bd 48e3 763d
000002c0: a746 95bd 17b0 083e 357a 293d 9e64 edbd
000002d0: cf95 8cbd 28d6 3e3d 75fe c2bd 77f7 d0bb
000002e0: 39e5 b33d 5e37 9dbd 5aeb 743d 5cf6 8b3d
000002f0: db97 f5bc b7d2 9e3d 948f 3a3d bce9 adbd
00000300: fda7 d1bd 35f8 a1bd 0878 223b a0cf c43c
00000310: 91d6 f83c 9353 93bd 7734 b5bd 9f2a 1e3a
00000320: 2773 5ebd 6421 abbd 398d d43d 92a8 90bd
00000330: 6408 9cbc ea25 e93c 6d71 c73b 0198 ec3d
00000340: 8632 a63a e657 10bd d562 2cbd 037b 1a3d
00000350: 4c7f 6c3d 6dbf 9cbc 8366 4d3c 9383 9f3d
00000360: 553d 8dbd e4e9 9abd d8dc 71bc 686b 82bc
00000370: 78b5 9b3d 955a 2ebc 24d4 f83a 75e0 b13d
00000380: 73f9 fe3c bb7f 42be 0490 f03d f481 d9bd
00000390: a4d1 c73d f517 ef3c e103 7e3d 5de2 63bd
000003a0: 5171 c2bc 4597 9cbc cc84 41bd 5878 153e
000003b0: ac03 74bb 83bc 163d 78d9 bf3d f5b0 4d3c
000003c0: a231 4b3d 8e2a d93d bb30 d1b9 92e0 163e
000003d0: 7b86 0fbe c05d 173d f58d 75bd 8556 b53d
000003e0: 405b 9f3c 07c7 8ebc 0f6e 8a3c 3bb1 6cbc
000003f0: f835 c2bc 66c4 6cbc dff0 c3bc dad8 01bc

classifier.layer3.0.bias f4 [32]
0.057177085 -0.055537593 -0.009071282 -0.050758544 -0.03537979 -0.025030661 0.06122599 0.06637197
0.002911198 0.001333883 0.033556286 -0.05462498 -0.048653048 -0.017394288 0.025586465 -0.04433182
-0.019811084 -0.025913537 -0.023542697 -0.047720876 -0.05108272 -0.06818924 0.0017273198 0.04327701
0.018231781 -0.043011192 0.032436457 -0.033367034 -0.014145674 0.009339661 0.02038534 0.004623418
00000000: 8532 6a3d 637b 63bd b79f 14bc 31e8 4fbd
00000010: 66ea 10bd 1a0d cdbc 1bc8 7a3d 07ee 873d
00000020: ccc9 3e3b b0d5 ae3a 5172 093d 71be 5fbd
00000030: 6b48 47bd 777e 8ebc b59a d13c 4895 35bd
00000040: db4a a2bc a048 d4bc 9ddc c0bc f776 43bd
00000050: 1d3c 51bd cda6 8bbd 3c67 e23a 3c43 313d
00000060: d15a 953c 812c 30bd 17dc 043d dfab 08bd
00000070: 42c3 67bc 6105 193c 28ff a63c 0b80 973b

classifier.layer3.1.weight f4 [32]
0.9324843 0.88706183 0.9488797 1.0061387 1.0587837 1.0162332 0.97864825 0.9612721
0.96931154 0.9803199 1.0139502 0.9701458 0.9514919 1.0410491 1.0370289 0.916371
1.0062602 0.9520686 1.0155927 1.0357356 1.0269387 1.0751218 0.95780784 0.9545593
1.1231538 1.0382174 1.0424072 0.9961582 0.86801136 1.024214 0.9411802 1.044927
00000000: 4bb7 6e3f 7c16 633f c8e9 723f 27c9 803f
00000010: 3986 873f ee13 823f b188 7a3f ee15 763f
00000020: cd24 783f 3ff6 7a3f 1fc9 813f 7a5b 783f
00000030: f994 733f 1941 853f 5dbd 843f 4a97 6a3f
00000040: 22cd 803f c5ba 733f f1fe 813f fc92 843f
00000050: ba72 833f 979d 893f e532 753f 005e 743f
00000060: 81c3 8f3f 4fe4 843f 996d 853f 3904 7f3f
00000070: fe35 5e3f 7219 833f 30f1 703f 2bc0 853f

classifier.layer3.1.bias f4 [32]
-0.15080746 -0.1314826 -0.02186331 -0.06009243 -0.13709223 -0.115418874 -0.037887845 -0.058366053
0.025316268 -0.061638594 -0.12802559 -0.10369215 -0.13185523 -0.05558799 -0.0081557445 -0.04066619
0.058797672 -0.030936697 0.019722724 -0.21106255 -0.086835004 -0.03173293 -0.13368073 -0.16247879
-0.09857132 -0.07569293 -0.08940772 -0.055478245 -0.09640015 -0.08115625 -0.0834967 -0.0006534283
00000000: 456d 1abe 60a3 06be af1a b3bc 7b23 76bd
00000010: e861 0cbe bb60 ecbd 4930 1bbd 3e11 6fbd
00000020: 1064 cf3c c078 7cbd 2419 03be 8d5c d4bd
00000030: 0f05 07be 3bb0 63bd ac9f 05bc 9791 26bd
00000040: d4d5 703d f56e fdbc 8d91 a13c c820 58be
00000050: 8dd6 b1bd 64fa 01bd 9ae3 08be d760 26be
00000060: c3df c9bd e504 9bbd 651b b7bd 283d 63bd
00000070: 716d c5bd 3f35 a6bd 5100 abbd d54a 2bba

classifier.layer3.1.running_mean f4 [32]
-1.4117079 -1.3928436 -0.021316405 0.22054791 -1.2210217 -0.610128 -1.6549344 0.973565
-1.316965 -0.43172282 -0.32084498 0.30125484 -2.6192 -1.8466086 -2.166092 -2.3243177
-0.3846446 -2.0131192 -2.187839 0.15604639 -1.5255862 -0.7703455 -0.8497239 0.044573784
-0.96021855 -1.1634461 -1.1577328 -2.8736439 -1.2210543 -1.2806302 -0.6977675 -2.0573018
00000000: d8b2 b4bf b348 b2bf be9f aebc 50d7 613e
00000010: 704a 9cbf 5931 1cbf e4d4 d3bf 8e3b 793f
00000020: 4f92 a8bf c60a ddbe cb45 a4be 133e 9a3e
00000030: f9a0 27c0 ac5d ecbf 40a1 0ac0 9fc1 14c0
00000040: 23f0 c4be f2d6 00c0 8e05 0cc0 a0ca 1f3e
00000050: 6946 c3bf 5d35 45bf 8187 59bf 0093 363d
00000060: e2d0 75bf cdeb 94bf 9730 94bf c8e9 37c0
00000070: 824b 9cbf b1eb a3bf e4a0 32bf d5aa 03c0

classifier.layer3.1.running_var f4 [32]
1.4734349 1.5106711 1.611979 1.2595865 1.1027151 1.8229417 1.3646514 0.9756693
1.5054083 1.3034084 1.2996836 1.5954068 1.3457539 1.2969667 1.2591383 1.0748162
1.2855864 1.3012754 2.0506954 0.78501934 1.975866 1.1268139 1.1919818 1.0252151
1.3681921 0.9998685 1.6188687 1.4593943 1.4846354 1.9270878 1.3153434 1.1697819
00000000: 8499 bc3f ac5d c13f 5455 ce3f 213a a13f
00000010: c525 8d3f 2756 e93f e6ac ae3f 77c5 793f
00000020: 38b1 c03f 16d6 a63f 085c a63f 4a36 cc3f
00000030: aa41 ac3f 0103 a63f 722b a13f 9493 893f
00000040: 188e a43f 3190 a63f 983e 0340 07f7 483f
00000050: 2de9 fc3f 703b 903f dc92 983f 403a 833f
00000060: eb20 af3f 62f7 7f3f 1737 cf3f 6fcd ba3f
00000070: 8808 be3f d0aa f63f 2c5d a83f 6abb 953f
