model/Experiment/DWNs_0.3.pt (torch, 446405 bytes, 70 tensors)

conv_spa.weight f4 [44, 3, 3, 3]
000000 9d d1 24 3d 50 36 dd 3d ab b1 2e 3e 94 f9 b0 3d
       0.040238965 0.10801375 0.17059962 0.08641353
000010 b7 53 50 be 5c 88 6e 3d 01 85 7a bd 32 cd 1a be
       -0.20344435 0.05823551 -0.061162 -0.15117338
000020 a6 68 24 be 31 ee 26 bd 98 83 40 be a2 ab 9a 3d
       -0.16055545 -0.0407545 -0.18800199 0.075522676
000030 95 b1 aa bd 3c af b7 3d c3 9e ba bd 9f 11 77 bd
       -0.08334652 0.0896897 -0.09112313 -0.06031954
000040 ef 95 70 bd 75 b3 87 bd 7c 08 b9 bd 03 fa e1 3d
       -0.058736738 -0.066260256 -0.090348214 0.11034014
000050 2d 9c a4 3c 56 de 57 bd cf e4 26 be d8 71 9c be
       0.020094002 -0.05270227 -0.16298221 -0.30555606
000060 09 34 8a bd dd 59 39 be 89 df 6f be f5 78 6c bc
       -0.06748206 -0.18100686 -0.23425116 -0.014433135
000070 a6 17 34 be 87 cc 14 3e 9d 16 f7 3d 9b b9 b7 bd
       -0.17587146 0.14531146 0.1206486 -0.08970948
000080 a1 e4 f2 3b 80 d5 e0 3d 41 cd 21 be 2c 31 a0 3d
       0.0074125086 0.10978222 -0.15800954 0.07821879
000090 bb 62 4a 3e 71 d5 15 be ab 8a 95 bd be 5c 5a 3d
       0.19764225 -0.14632203 -0.073018394 0.053311102
0000a0 c6 8c 09 3e 2a 8a 65 be 7a a6 06 3e a2 8a c8 3d
       0.13432607 -0.22415987 0.13149443 0.09792067
0000b0 df cf 37 be 16 17 8b 3c bc 9c 54 be de 32 1d 3e
       -0.1795039 0.016978782 -0.20762914 0.15351436
0000c0 96 e1 25 3e 3b c3 98 3d c0 93 25 be ce 87 77 3b
       0.16199335 0.07459112 -0.16169643 0.0037770155
0000d0 05 91 6e bd e6 cb 2b 3c 5d f9 21 3e 11 e1 9f 3d
       -0.05824377 0.010485625 0.15817781 0.078066
0000e0 dc 4e 67 3e c4 0a 31 3e 46 7d 85 bd af 69 1e 3e
       0.22588676 0.17289263 -0.06518035 0.15470003
0000f0 d1 e9 80 3d 4d 7b 92 bd 85 4d 4b 3e 6a ee ae 3d
       0.06294597 -0.07152424 0.1985379 0.085415676
000100 81 65 51 bc cc d4 37 3d 4a 83 35 3e 0d 85 3e 3e
       -0.012780548 0.044880673 0.17725864 0.18605442
000110 bb 84 06 3e 0f 27 0a be 18 5f 52 3e 25 fa 6b 3d
       0.1313657 -0.13491462 0.20544088 0.057611603
000120 d1 0f 41 bb ad 37 f9 3d 74 bd d5 bd 83 74 bd 3d
       -0.002945889 0.121688224 -0.10436526 0.092507385
000130 d7 ba 77 bb 46 34 0d 3e 49 13 90 3d f1 2b 2e be
       -0.0037800574 0.13789472 0.07034928 -0.1700895
000140 c4 71 dc 3c 1e 00 e6 bd 3b 44 7b 3e af 51 a2 3c
       0.026909716 -0.11230491 0.24537747 0.01981434
000150 bf 36 13 3e d9 67 eb bd 16 81 17 be 7b ec 6f 3d
       0.14376353 -0.11494417 -0.14795336 0.058575135
000160 bf f6 60 be 17 dc 13 3e 62 2c 61 bc 56 8e 17 3d
       -0.21969126 0.14439426 -0.013743492 0.037000977
000170 05 50 14 be 15 7d 71 3e 31 46 6a bd 52 d0 3f be
       -0.1448365 0.23582871 -0.057195846 -0.18731812
000180 f6 74 58 be 25 e0 e6 3d 88 9b 5c 3e d7 17 1e be
       -0.21138367 0.11273221 0.21543705 -0.15438782
000190 59 cc 11 3e 5e b0 36 3e 86 e8 f6 3d 85 e3 0f be
       0.14238109 0.17840716 0.12056069 -0.14051636
0001a0 e2 ff 88 3c fb 46 f0 3d 3c 6c 34 be ff 8e a4 bd
       0.016723577 0.117322885 -0.17619413 -0.08035087
0001b0 97 da d2 3d ac 42 5c be 7a da c3 bd 00 72 e5 bd
       0.10295599 -0.21509808 -0.095631555 -0.112033844
0001c0 c3 fd 38 be d2 09 4e bc 85 0b e7 3b 43 28 1b be
       -0.18065552 -0.0125755835 0.007050934 -0.15152077
0001d0 12 92 7c bc 67 ff 34 3e 99 44 71 3c 93 a5 43 3e
       -0.015415685 0.17675553 0.014725828 0.1910613
0001e0 34 40 a9 bd 75 8b 9c bc 13 59 66 3e 83 26 6d 3d
       -0.08264199 -0.019109467 0.22494917 0.057898056
0001f0 e6 42 72 3e 99 7a d4 3d 14 32 13 bd c6 1f 7c 3c
       0.23658332 0.10374946 -0.03593643 0.015388435
000200 af 3e 12 be e6 c3 32 3e 07 07 00 3d e5 48 71 bc
       -0.14281724 0.17457542 0.0312567 -0.014726852
000210 8d b7 e2 bc 59 98 47 bd e0 f4 41 be 2a a5 79 bd
       -0.027675414 -0.048729274 -0.18941069 -0.06094853
000220 fd d7 31 be 62 9c 4b 3d 1b 50 40 bd 93 c1 6f bd
       -0.17367549 0.049709685 -0.046951395 -0.058534216
000230 3f 95 09 3e 30 14 95 3d c2 6b 4d 3e 64 de 05 be
       0.13435839 0.07279241 0.20060638 -0.13073117
000240 df e5 d8 bd 93 7e 9c 3c 87 62 08 3e 57 9f e6 bd
       -0.105907194 0.019103324 0.13318835 -0.112608604
000250 ce 35 6a 3d 55 08 cd 3d da cb 7b 3c e1 9c d9 3d
       0.05718022 0.10011355 0.015368426 0.106256254
000260 ba 92 3e be 38 29 b0 bc 77 f7 2d be 97 c0 a7 3d
       -0.18610659 -0.02150403 -0.16988932 0.081910305
000270 57 c4 bb bd b7 71 85 3d 5f 8a c7 3d d1 1f 07 3e
       -0.09168308 0.0651583 0.09743189 0.13195731
000280 1a b5 15 3d e7 ae 04 be 7c dc ab 3d 86 51 d7 bd
       0.036549665 -0.12957345 0.083916634 -0.10513596
000290 7e 2d 11 be 70 8d 1f bd de 0c 5d bd e6 90 19 3d
       -0.1417751 -0.038953245 -0.05396735 0.0374917
0002a0 eb 74 4a bd 13 ad 6c 3d a3 82 3e 3e 6c 49 96 bd
       -0.049427908 0.057782244 0.18604521 -0.07338223
0002b0 bf 7a 13 be 3c 8e 8c bd 5a 88 d3 3d b6 91 05 3d
       -0.14402293 -0.068630666 0.10328741 0.032609664
0002c0 52 e5 b3 3d 5f e8 cc bd 37 a5 a0 bd db 6f 96 3d
       0.08783974 -0.10005259 -0.07844012 0.073455535
0002d0 4e 44 50 be 1d e1 61 bc 21 67 31 be 27 27 3e be
       -0.20338556 -0.013786581 -0.17324497 -0.18569623
0002e0 a4 99 ad be 63 14 a7 be f7 f3 08 3d 61 42 0d be
       -0.3390628 -0.3263274 0.033435788 -0.13794853
0002f0 80 40 02 3e 86 35 3a 3e b0 a6 e0 3d 06 c2 32 3e
       0.12719917 0.1818448 0.10969293 0.17456827
000300 49 a3 d8 3d 8b 17 60 bd b3 fc 73 be 20 a2 40 bd
       0.10578019 -0.054709952 -0.23826866 -0.047029614
000310 95 7a 37 bd 5e 4e ab bd 2f ee 5e bd a1 41 24 3e
       -0.044794638 -0.08364557 -0.05442637 0.1604066
000320 f3 54 21 3e dc d2 e7 bd dc a9 70 bd 60 9c 26 be
       0.15755062 -0.11319515 -0.05875574 -0.1627059
000330 a1 b9 1d be 9c 36 9e 3d be 09 28 3d 92 3d e9 3d
       -0.15402843 0.0772526 0.041024916 0.11388697
000340 17 99 21 3d e7 c4 79 3d b4 d6 78 bd f0 a2 fc bd
       0.03945264 0.060978796 -0.06075163 -0.12335765
000350 df 67 4e be c6 90 6f 3d 21 62 1b 3e 30 0b 15 3c
       -0.20156811 0.058487676 0.15174152 0.009096906
000360 b3 31 e2 3d cc e7 e1 3d fc 90 a6 bd 7d cf 79 bd
       0.110446356 0.1103054 -0.08133122 -0.060988892
000370 b7 f6 01 3e 48 2d 39 be 0c a8 20 bd ee e7 32 3c
       0.1269177 -0.1808368 -0.039222762 0.010919554
000380 6e fe 1a 3c a0 92 1e bd 2e 26 f2 bd 25 b2 6f be
       0.009460075 -0.03871405 -0.118236884 -0.234078
000390 73 8d 3b 3e df 5e 50 3e a2 7f 45 be d1 7e ba bc
       0.18315677 0.2034869 -0.1928697 -0.022765549
0003a0 06 d3 39 3e a1 60 eb 3d 26 c9 b2 bc 9c 24 7a bd
       0.18146905 0.1149304 -0.02182443 -0.06107007
0003b0 30 e8 e1 bd 12 69 44 3e 80 f1 10 3d d6 3b d4 3d
       -0.110306144 0.19180706 0.035386562 0.10362975
0003c0 ca 23 75 bd 4e ad f1 bd 1d 4c fc bc ed fd 65 bd
       -0.059848584 -0.11800633 -0.030798012 -0.056150366
0003d0 b4 96 d4 bd 06 f1 97 bc 00 7a eb 3d 3d 13 57 be
       -0.10380307 -0.018547546 0.11497879 -0.21003433
0003e0 70 d0 c1 bd 95 2e 60 bd 55 d4 2b be ee 11 fe 3c
       -0.094635844 -0.054731924 -0.16780217 0.031014409
0003f0 da b9 b4 bd 2e e0 30 be a9 e4 0f 3e f9 9c cd ba
       -0.08824511 -0.17273018 0.1405207 -0.001568704

conv_spa.bias f4 [44]
000000 54 43 f3 bc d3 5e 38 bd 33 40 b5 3d eb 9e 20 3e
       -0.02969519 -0.045012306 0.08850136 0.15685622
000010 ba 29 c5 bc c4 e4 10 3e f1 f3 02 3e 5b b3 82 3d
       -0.024067748 0.14149767 0.12788369 0.063818656
000020 04 49 b4 3d 6b f4 c7 bb cd 9a 17 3e 70 aa f3 3d
       0.08802989 -0.006102135 0.14805146 0.11897743
000030 f4 3f 13 3e 63 98 03 be 1d a0 22 3e 49 93 c6 bd
       0.14379865 -0.128511 0.15881391 -0.09696061
000040 39 0c 87 bd 70 c0 17 3e 8c f4 7e 3c 85 16 38 bd
       -0.06594128 0.14819503 0.015561234 -0.04494335
000050 fd 85 40 3e 3d c8 e7 3d 12 66 fa bd 27 8f 33 3c
       0.18801112 0.11317489 -0.122264996 0.010959423
000060 fa 0e 37 be fa 22 36 be 55 b3 35 bd 73 3e b1 3d
       -0.17876807 -0.1778678 -0.044360477 0.08654489
000070 cf 3b e2 3c bd f9 d8 3c 2d 14 9b 3c 2f 22 f2 bd
       0.02761641 0.026486272 0.018930519 -0.11822926
000080 a4 cf eb bc ec 13 2d be c6 53 13 bc e0 89 31 3e
       -0.028785534 -0.16902131 -0.008992141 0.17337751
000090 cb c4 a5 be 4e 84 f9 ba 06 28 40 3e ea 7b 1b 3e
       -0.32376704 -0.0019036622 0.18765268 0.15183988
0000a0 f5 91 1a bd 93 c0 fe 3d b0 72 53 be ba c8 1d 3e
       -0.03773685 0.12439074 -0.20649219 0.15408602

conv_fre.weight f4 [20, 3, 3, 3]
000000 ea 90 5e 3e 68 b9 1c bd ec 58 78 3d 28 71 26 3e
       0.21734968 -0.038262755 0.060631678 0.16254103
000010 ff a5 00 be 59 b7 ff 3d 27 5a 95 3d 49 09 f1 3c
       -0.12563322 0.12486143 0.07292586 0.029423373
000020 d4 d9 c1 bc 70 7e 57 bc ac 8b 68 3d e9 5a a2 3d
       -0.023663439 -0.013152704 0.056773826 0.07927496
000030 de 72 a8 bb 1b af a2 bd ce 08 53 3c 3e 8d 2b be
       -0.0051406464 -0.07943555 0.012880517 -0.16753098
000040 e2 a8 19 be 60 95 f3 bb 12 83 66 be 48 84 58 bc
       -0.1500583 -0.0074335784 -0.22510937 -0.013215132
000050 16 3a 0f be d1 28 30 be 3f 12 47 3e a9 8d f4 bd
       -0.13987002 -0.1720307 0.19440554 -0.11941082
000060 fc 3f ea 3d 4a 14 08 3e f6 35 1a 3d d8 f2 14 bd
       0.11437985 0.1328899 0.037649117 -0.036364406
000070 9d 94 aa 3e be ea 31 bd ee ea 84 3d 38 1b 00 be
       0.33316508 -0.04343676 0.06490122 -0.12510383
000080 71 65 7e 3e cb 2d 36 3e 3c 75 19 3e c7 c6 1d 3c
       0.24843384 0.17790906 0.14986128 0.009629912
000090 53 d4 a2 3d 36 20 b4 3d f3 6d d9 3d 98 cf 28 3d
       0.07950654 0.08795206 0.10616674 0.0412136
0000a0 92 cd 49 3e 2e 12 94 bc bc e5 b1 bd 92 23 c9 bd
       0.19707325 -0.018075075 -0.086863965 -0.098212376
0000b0 90 8d 60 bd da b8 ce 3c 55 24 01 be bb dc 49 3e
       -0.054822505 0.025234628 -0.12611516 0.19713108
0000c0 c3 f1 df 3d 58 4f 61 3e 93 1f 2b 3c 14 a6 a9 bd
       0.10934784 0.22002923 0.01044454 -0.0828363
0000d0 38 74 92 bd 56 c2 94 bc d3 da 89 be a0 77 5c 3d
       -0.07151073 -0.018159073 -0.26924762 0.05382502
0000e0 34 d0 a5 3d 01 71 5c be b3 4c ea bd 5f 20 bd 3c
       0.08096352 -0.21527483 -0.114404105 0.023086725
0000f0 72 75 05 3d 67 02 1f bd 89 71 49 be 67 04 d0 3c
       0.032582708 -0.03882065 -0.19672216 0.025392724
000100 f6 ba 15 3e 06 9e ec bd 84 8d 1b 3d 9e c2 e1 bd
       0.14622101 -0.11553578 0.037976757 -0.110234484
000110 6c 7c 30 3c 22 d6 6f bd 1a c4 20 bd c5 be 0e be
       0.010771852 -0.058553822 -0.039249517 -0.1393996
000120 60 0d 72 3e 16 e3 55 bd 6a 41 f9 3d 32 70 3c 3e
       0.23637915 -0.05221852 0.1217068 0.18402174
000130 cd 9b 80 3e 12 8f 72 bc 08 f9 c9 bd 12 7f 35 3e
       0.25118867 -0.014804618 -0.09861952 0.17724255
000140 5f 0d 90 3e 78 0a 52 be 5f cc 88 bb 4a 5b 0e 3e
       0.281352 -0.20511806 -0.0041747536 0.13902012
000150 d9 4c 04 3e ce 4d 17 3e 36 e1 14 3e 18 1a 2a bd
       0.1291994 0.14775774 0.14539036 -0.04152879
000160 dd 74 df bc fb c3 96 3b e3 b6 f9 bd b3 fd de 3c
       -0.027277404 0.0046009994 -0.12193086 0.027220583
000170 5e 8a 9d 3d a3 4a 86 bd 55 e8 b6 3d b7 f1 28 3e
       0.07692407 -0.065572046 0.089310326 0.16498457
000180 d3 63 16 be 79 40 cf bd 47 53 ce 3c c7 ce c2 bd
       -0.14686517 -0.10119719 0.025186194 -0.09512096
000190 70 0d a5 bc 89 7e 66 3c 70 a0 21 be c6 d5 35 3e
       -0.020148009 0.014068254 -0.15783858 0.1775733
0001a0 fc c9 a7 3c 2d 4f 96 bd 9c fa d2 bd e2 09 06 bd
       0.020482056 -0.0733932 -0.10301706 -0.03272427
0001b0 5b 32 05 be 65 a4 1a 3e 08 7e 35 3d c7 f1 89 bd
       -0.1300749 0.15101774 0.044309646 -0.067355685
0001c0 bc ce de 3d ca b7 3f be 58 f6 48 3e c5 db 97 3e
       0.10879275 -0.18722454 0.19625223 0.29659858
0001d0 76 bc fd bd fd 7a 06 3e 9d 38 44 3e d5 94 32 be
       -0.12389462 0.13132854 0.19162221 -0.17439587
0001e0 b3 18 8d 3d 13 17 7a bd 22 e5 8c bd 22 da 61 3c
       0.068894766 -0.06105716 -0.06879641 0.013784917
0001f0 7e 62 77 3e 33 cd 47 be e6 91 45 be e4 5e c3 3d
       0.24158666 -0.19511871 -0.19293937 0.09539583
000200 e5 3b c8 3d d9 fc b2 3d 9c fb db bc 2a 05 25 be
       0.09777049 0.08739633 -0.026853375 -0.16115251
000210 2b 25 13 3e 1f e4 5b 3e bc e7 3a bb 86 3d 03 3e
       0.14369647 0.2147374 -0.0028519472 0.12816438
000220 8c 4a 22 3e 09 62 fd bd 1a 28 4a bd 4e 04 50 3e
       0.1584875 -0.12372214 -0.04935465 0.20314142
000230 78 9c 05 be ff cf d4 bd df f5 c7 bd c3 c6 e9 3c
       -0.1304797 -0.103912346 -0.09763693 0.02853716
000240 d3 68 9d 3d 57 88 9f 3d 02 41 d7 bd 40 97 7e bd
       0.07686009 0.07789677 -0.10510446 -0.062155962
000250 f7 d3 6e 3e 73 9d 1f be 59 d1 47 bd 79 17 16 bc
       0.23323046 -0.15587406 -0.048783634 -0.00916087
000260 69 bf 00 be 2e 65 d1 bd cc 1d f4 3d 03 51 ff bd
       -0.12573017 -0.102243766 0.11919746 -0.12466624
000270 c6 8b 62 bd 29 93 81 3e 26 09 db bd fd 2d 8b bd
       -0.05530908 0.25307587 -0.10695104 -0.06795881
000280 60 56 8b bd fa c7 60 3e e7 92 68 3d 10 69 0a 3e
       -0.06803584 0.21951285 0.056780722 0.1351664
000290 7f 71 37 be 19 af 86 3d 12 c5 30 be e0 23 46 3e
       -0.17914389 0.06576366 -0.17262676 0.19349623
0002a0 1f 8a 45 be ac 33 ca 3d 77 92 57 bd ae 9e 4f 3e
       -0.1929097 0.09873137 -0.052629914 0.20275375
0002b0 86 d7 5a bd 4e 88 37 be 78 09 29 be 6a 1a 35 be
       -0.053428195 -0.1792309 -0.16507518 -0.17685857
0002c0 88 5e 1d be 19 31 24 bd 9d 92 34 bd 93 9c 3d 3e
       -0.15368092 -0.040085886 -0.044085134 0.1851676
0002d0 ab c0 e5 3c e2 d7 31 bd b0 d2 62 bd 23 8a 02 3e
       0.028045973 -0.043418773 -0.05537671 0.12748007
0002e0 5a 8f 81 3d ea 1e 66 3e 3c 3b 02 be cb 5f 40 3e
       0.0632617 0.2247273 -0.12717909 0.18786542
0002f0 a4 51 d5 bd e4 dc 06 be b7 f0 96 bd 3f dd 31 be
       -0.10415962 -0.131702 -0.073701315 -0.17369555
000300 30 ab e3 3d 47 19 a3 3e 5c cb d1 bc 3d 21 1e be
       0.11116636 0.31855223 -0.025609665 -0.15442367
000310 4a de cc 3d 94 ee 14 be db d4 51 bd 35 d7 1f 3d
       0.10003336 -0.14544135 -0.051228385 0.039023597
000320 b2 97 e6 3d 07 f5 4e 3d e2 85 fe bd ef 3f 8a 3d
       0.11259402 0.050526645 -0.1242788 0.067504756
000330 6a 7c 88 3d b2 80 ce bd 36 9e 5b 3c 71 60 37 3e
       0.06664355 -0.100831404 0.01340442 0.17907883
000340 a4 76 f4 3c 69 68 76 3d d2 e5 0c be ef 7b 59 be
       0.029841729 0.060158167 -0.13759544 -0.21238683
000350 d5 73 79 3b d6 8b a9 3d fa eb 85 bb f8 5f e3 3d
       0.0038063426 0.08278625 -0.0040869685 0.11102289
000360 14 76 d2 bd ff 16 d5 bd c9 eb 23 3e 8e 31 9f 3d
       -0.10276428 -0.10404777 0.16007914 0.07773124
000370 a7 b4 34 be f7 f8 4d be aa ae 58 3e da e3 6e bd
       -0.17647038 -0.20114504 0.21160379 -0.058322765
000380 87 d1 2b 3d e5 18 0e 3e 5e 04 ed 3d cb 4b 1a 3d
       0.041947868 0.13876684 0.115730986 0.037669938
000390 71 24 48 3a 09 aa 37 be b4 0a b4 3c 1a c1 bb 3d
       0.0007634825 -0.17935957 0.02197776 0.091676906
0003a0 57 0a a8 bd 2b 82 f6 bd 25 07 47 3c d9 c8 a3 bc
       -0.08205097 -0.12036546 0.0121476995 -0.019993233
0003b0 06 55 f6 bc 98 86 36 3e c6 9a e1 3d a2 73 28 be
       -0.03006984 0.17824781 0.11015849 -0.1645036
0003c0 b1 49 87 3e 91 63 8b bd 86 3d 68 be 35 43 10 3e
       0.2642341 -0.068061 -0.2267972 0.14088137
0003d0 c4 58 7e be 05 e8 0a 3e e0 dc da bd 9c 3c 5b bc
       -0.24838549 0.13565071 -0.1068666 -0.01338115
0003e0 72 8c b0 bd e5 08 e5 bd a8 49 1d 3e 64 c8 b5 3d
       -0.08620538 -0.11183337 0.15360129 0.08876112
0003f0 a3 10 20 3e eb f2 4c 3c 23 f9 2b bd dd ca b8 3c
       0.15631346 0.012509088 -0.041985642 0.02255767

conv_fre.bias f4 [20]
000000 cb 49 a6 3d bf d3 0d be a0 87 0e be eb ee 3b 3e
       0.08119544 -0.13850306 -0.13918924 0.18352859
000010 16 e6 24 be 0c 41 15 3e f8 65 8a 3d 45 00 79 3d
       -0.16103396 0.14575595 0.0675773 0.060791273
000020 44 0d c6 bd 36 3e 66 3b 1a 8c 9d 3d d7 80 c3 bd
       -0.09670499 0.0035132295 0.07692738 -0.095460586
000030 f0 66 43 3d 1d 4c 10 be 6c 00 04 bd 04 70 d7 3d
       0.04770559 -0.14091535 -0.032226965 0.10519412
000040 d1 48 09 be 1c 07 b3 bb 93 6b 0d be 65 0a bc 3a
       -0.13406684 -0.005463494 -0.13810568 0.001434636

BN.weight f4 [64]
000000 0a 58 28 3f 0b 6f 40 3f a1 41 59 3f f8 1c 6c 3f
       0.65759337 0.7516944 0.84865767 0.922317
000010 d4 54 4d 3f ef 01 43 3f 1d ec 22 3f 0a e6 6b 3f
       0.8020756 0.76174825 0.6364153 0.92147887
000020 26 9f 27 3f 09 8d 1b 3f 10 94 1d 3f ab d9 7f 3f
       0.65477216 0.6076208 0.6155405 0.9994151
000030 dc 6c 7d 3f d3 b9 2d 3f 83 a5 73 3f c4 e3 32 3f
       0.9899423 0.6786167 0.95174426 0.6987879
000040 5c ff 59 3f f8 3b 87 3f 85 f3 4e 3f e1 13 25 3f
       0.8515527 1.0565176 0.8084033 0.6448346
000050 40 89 2c 3f 8e e1 b1 3f 1a 77 0f 3f 3b 12 3a 3f
       0.67396927 1.3896959 0.5604111 0.7268407
000060 d1 08 68 3f f8 fa 6d 3f 21 90 51 3f 5e 56 45 3f
       0.9063845 0.9296107 0.8186055 0.7708491
000070 39 9d 46 3f 7e 78 26 3f 91 41 3d 3f 43 ac 3c 3f
       0.7758365 0.65027606 0.7392817 0.7370035
000080 7f 8a 3e 3f e4 f7 26 3f f8 8e 37 3f ef 85 4e 3f
       0.7443008 0.65222 0.7170253 0.80673116
000090 b8 6d 9f 3f f0 bd 8a 3f e6 44 22 3f 79 35 3c 3f
       1.2455359 1.0839214 0.6338638 0.7351909
0000a0 67 0d 0b 3f d1 18 59 3f 8e 75 61 3f b4 3a 12 3f
       0.54317325 0.8480349 0.8807 0.57120824
0000b0 42 8d 8a 3f b3 b3 79 3f d9 44 82 3f 31 8f 94 3f
       1.0824358 0.97539824 1.0177261 1.1606199
0000c0 0d ca 5e 3f 6f 42 81 3f 92 57 72 3f 0b ef a4 3f
       0.87027055 1.0098399 0.9466487 1.288545
0000d0 3f 6e 63 3f 06 ab 93 3f a6 41 6e 3f 47 d9 81 3f
       0.888401 1.1536567 0.9306892 1.0144433
0000e0 a7 8e a7 3f 58 2b 85 3f ac 98 89 3f 64 56 8a 3f
       1.3090409 1.0403852 1.0749717 1.0807614
0000f0 90 0b 8a 3f 93 4c 62 3f 08 78 8b 3f 98 bc 77 3f
       1.0784779 0.88398093 1.0896006 0.96772146

BN.bias f4 [64]
000000 6c f8 e5 be b0 8d 92 be 9f 77 8c be bc 6c a3 be
       -0.44916093 -0.28623724 -0.27435014 -0.31918895
000010 a7 2a 8b 3e 43 bb ab be 9f ed ee be 65 2e 14 be
       0.2718098 -0.33541307 -0.46665666 -0.14470823
000020 39 05 57 be c2 01 8c be d1 a8 ef be e1 14 3d 3e
       -0.20998086 -0.2734509 -0.46808484 0.18464996
000030 a1 55 ba 3e f6 01 c0 be 30 91 07 be 9f 44 26 be
       0.36393455 -0.37501496 -0.13238978 -0.16237114
000040 fd d5 3d be 5d 7f e9 3e 62 15 43 3d 85 04 f6 be
       -0.18538661 0.45604983 0.047627814 -0.48050323
000050 a8 6b 63 be ea d5 0e 3f 77 5e f3 be 7c 75 7f be
       -0.22209036 0.55795157 -0.47533008 -0.2494716
000060 c1 31 48 3f 1d a3 24 be a3 be 95 be 45 14 5d be
       0.7820092 -0.16077848 -0.29247007 -0.21589763
000070 9d df 8c be 03 d4 2a bd 39 e4 b3 be d4 5e fc 3b
       -0.27514353 -0.041706096 -0.35135058 0.007701734
000080 14 bb 92 be 3c 69 e8 be a1 2e b1 be 71 b3 c0 be
       -0.28658354 -0.45392787 -0.34605888 -0.37636903
000090 b2 97 40 3f 0d 5f 0d be ad 87 65 be d2 03 85 be
       0.7523147 -0.1380579 -0.22415037 -0.25979477
0000a0 95 6b af be 11 f7 d3 bd 6b 20 1d 3d fd d7 cf be
       -0.34261766 -0.103498586 0.038360994 -0.40594473
0000b0 8b 57 82 be e3 3c 80 bc d0 59 25 be 62 29 c4 3d
       -0.25457415 -0.015654033 -0.16147542 0.09578206
0000c0 ca 84 13 be cc 10 ca 3e f5 d7 3b bd 36 03 9f be
       -0.14406124 0.3946594 -0.04586025 -0.31057137
0000d0 71 58 8c bd 70 41 9a be bf 26 1f be 83 41 0f 3e
       -0.06852806 -0.3012805 -0.15542124 0.13989834
0000e0 a3 52 8c be 45 aa 80 bc 09 09 4c be d6 93 19 3e
       -0.27406797 -0.01570619 -0.19925322 0.14997801
0000f0 79 7b b9 be 94 9c b0 be bd cc 1b bf 06 22 85 3a
       -0.36227015 -0.3449446 -0.6085928 0.0010157235

BN.running_mean f4 [64]
000000 26 df ab be 91 87 3c bd 29 5f bb 3e ab fb 23 3e
       -0.33568686 -0.046027724 0.3659604 0.16013972
000010 09 55 dd bc 26 94 12 3e 40 76 3f be a3 8f 90 3d
       -0.027018087 0.14314327 -0.18697453 0.070586465
000020 bb 97 b3 3d 51 69 15 3d 8d 5a 75 3d 06 5d 76 3b
       0.08769175 0.03647739 0.05990081 0.0037592067
000030 4c 71 23 3e d1 91 c9 be 82 44 11 3e 70 2b 9e bd
       0.15961188 -0.39369062 0.1418629 -0.07723129
000040 40 a1 85 bd 44 74 48 3e 7b d3 94 bc 78 95 26 bd
       -0.065248966 0.19575602 -0.018167248 -0.04066989
000050 b5 68 3b 3e 65 82 b6 3d c2 b6 6f be d5 4b 42 b9
       0.18301661 0.089115895 -0.2340956 -0.00018529531
000060 75 7b 3c be ed d7 30 be 6d 73 87 bd 87 82 09 3e
       -0.1840647 -0.17269869 -0.066138126 0.13428698
000070 29 21 bd 3c 14 4b 91 3d 5f bb 99 be fe 0d 90 bd
       0.023087101 0.07094398 -0.30025765 -0.07033919
000080 50 e3 70 be 29 52 03 be d0 e8 a6 be b5 63 c3 3e
       -0.23524213 -0.1282431 -0.32599497 0.38162008
000090 f1 1a 9c be 2f c5 ed ba 6a ee b2 3d 4f 73 09 3f
       -0.30489305 -0.001814043 0.0873688 0.5369157
0000a0 1a 72 f5 bc 6a 0e fc 3d ba 6d 10 be 44 f9 02 3d
       -0.029961634 0.12307437 -0.14104357 0.031976
0000b0 86 87 d3 3c 8d 15 94 c0 7e 5f 4e bf 11 25 98 3e
       0.025821459 -4.6276307 -0.8061446 0.2971578
0000c0 80 01 26 c0 39 20 8b 3e ae 1d 24 3f 9e 04 59 3d
       -2.5938416 0.2717302 0.6410779 0.05298292
0000d0 f2 16 0f 3e 82 5a c3 be e5 db 82 3d d7 45 6d 3f
       0.13973597 -0.3815499 0.06389598 0.9268469
0000e0 9f cb 2e bd 7c 38 5d c0 2b 1e 55 bf c6 42 b1 3d
       -0.042674657 -3.4565725 -0.8324916 0.08655314
0000f0 e0 35 3d bf 52 4a 8f bf 5b 2d 34 bf 71 ee cf be
       -0.7391033 -1.1194556 -0.70381707 -0.40611604

BN.running_var f4 [64]
000000 5e 34 72 40 0b 62 89 3d 22 12 a6 40 36 e9 d3 3c
       3.7844462 0.06708153 5.1897135 0.02586804
000010 db 58 ce 3d 14 31 33 3d 1e 2d 5d 40 82 91 b9 3d
       0.100755416 0.043747976 3.4558787 0.090609565
000020 71 8f 93 3d 4a de 84 3e a0 5d bd 3e 97 77 e8 3e
       0.07205094 0.25950843 0.36985493 0.4540374
000030 3b 7f 53 3d b5 fd 45 40 97 e8 35 3e be 39 c9 3d
       0.05163501 3.09361 0.17764507 0.098254666
000040 d1 0e de 3d 1a 30 cd 3d 06 52 7c 3d fc 66 0b 3e
       0.1084267 0.1001894 0.06160166 0.13613504
000050 41 4d f1 3d 78 bb d5 3d bc aa d0 3e 61 2f 5e 3e
       0.11782313 0.104361475 0.4075526 0.21697761
000060 a0 34 27 3c a5 4c 83 3d 40 ba 29 3d 44 c1 37 3e
       0.010205418 0.06411103 0.041437387 0.17944819
000070 48 45 96 3d 7f 85 e5 3d a7 d9 8d 40 79 d4 57 3e
       0.07337433 0.11207103 4.432819 0.21077146
000080 46 86 eb 3f 02 41 4b 3e 53 35 86 40 d0 de 8e 40
       1.8400352 0.19849017 4.1940093 4.464699
000090 e7 1d 74 3d b3 f8 01 3e b7 d4 95 3e 90 b6 07 41
       0.05959883 0.12692527 0.2926385 8.482071
0000a0 2e ee b0 3d 1b c6 ca 3d 5f 9e 48 3e e4 61 01 3f
       0.08639179 0.09901067 0.19591664 0.50539994
0000b0 97 93 b6 3d ef df 92 3f f1 17 49 3e 41 4f 12 3f
       0.08914869 1.1474589 0.19638039 0.5715218
0000c0 83 d9 9e 3f 22 40 41 3f f7 79 e0 3e 44 37 ca 3d
       1.2410129 0.75488484 0.43843052 0.09873822
0000d0 30 02 20 3f 6e c4 ec 3e 4a 88 d7 3e ca fd eb 3e
       0.6250334 0.46243614 0.42096168 0.46092063
0000e0 01 87 e9 3d 73 a8 2d 3f f5 21 5c 3e 52 90 20 3f
       0.11402703 0.6783516 0.21497329 0.62720215
0000f0 21 8f 6d 3e d3 95 66 3f 56 0f df 3d 5b b6 42 3f
       0.2319913 0.90072364 0.10891597 0.760595

classifier.layer1.0.weight f4 [32, 64, 3, 3]
000000 c5 fa 13 3d 2b 4b ef ba b4 60 5a 3b f1 35 37 bc
       0.036127824 -0.0018256655 0.00333218 -0.011182294
000010 c0 cf 34 3d 09 22 1b 3d 6a f0 a5 3c e1 fd 28 3d
       0.04414344 0.037874255 0.02025624 0.041257743
000020 31 f6 3b 3d 8e e2 94 3d 8d 40 27 3d ed 2f af 3c
       0.045889083 0.072697744 0.040833045 0.021385157
000030 d0 01 76 3d 8f 00 f0 3b a1 1a d5 3c db 5b b9 3d
       0.060060322 0.0073242853 0.026013674 0.09050723
000040 e5 f4 74 3c 6c 87 e5 3c a6 de 56 bc 89 9a 82 3d
       0.0149509655 0.028018676 -0.013114607 0.063771315
000050 36 a8 14 3d e0 8c 47 bc 54 85 0a 3d e8 69 65 bb
       0.03629323 -0.012179583 0.033818558 -0.0035005752
000060 50 4c 4e 3c 11 2f af bb 72 98 59 3d aa d6 9e 3d
       0.0125914365 -0.005346187 0.0531239 0.07755788
000070 7f 00 2e 3d 22 13 3c 3d 91 23 b4 3d db b8 37 3d
       0.04248094 0.045916684 0.08795846 0.044854026
000080 bd 07 2d 3c c1 eb c4 3d 06 d2 69 3d e8 f5 4c 3d
       0.010560927 0.09615279 0.05708506 0.050039202
000090 cb 98 6e bb a6 20 05 bd 4c e7 88 bd d7 e6 72 3b
       -0.003640699 -0.03250184 -0.066847414 0.003706386
0000a0 24 97 b3 bd 2a ef de bd 7a d3 fb bd 96 2f 28 be
       -0.08769062 -0.10885461 -0.12296195 -0.16424403
0000b0 9f 11 a4 bd 5f 6d a3 3d 3f 5c 64 bb b8 44 4b bd
       -0.080111735 0.07979845 -0.0034845022 -0.049626082
0000c0 a1 dd cf 3c ec 60 16 3c d8 04 13 bd 2c a5 e9 3c
       0.025374236 0.009178381 -0.03589329 0.028521143
0000d0 5b 21 26 3d 4a aa 18 3d 20 8a 09 3b a5 68 1e 3d
       0.040559154 0.037271775 0.002098687 0.038674016
0000e0 c2 44 6c 3c 91 b2 12 3c 0b 39 df 3c 48 70 0f 3d
       0.01442069 0.008953706 0.02724888 0.03501919
0000f0 41 f0 8d bb 49 b1 7c 3c 7e 98 5c bc 58 83 3b 3d
       -0.004331619 0.015423127 -0.013464091 0.045779556
000100 fd 4f 85 3d 73 d2 1c bc aa 53 4a bd d8 75 cd ba
       0.06509397 -0.009571659 -0.049396195 -0.0015675379
000110 3c 5e 11 bd 28 0f a8 bc 07 b5 7b bc b5 3a 64 3c
       -0.03549026 -0.02051504 -0.0153629845 0.0139300125
000120 3d 65 6f bd b2 c8 1d bd f5 c8 93 3c d8 3a 57 bd
       -0.058446158 -0.038521476 0.01804016 -0.052546352
000130 f2 df 05 bd 2c eb 17 bc 2a fd 0c 3d 07 b9 9f 3b
       -0.032684274 -0.009272378 0.034421124 0.004874352
000140 ce 1e 31 3d c4 17 2a bd 13 cd 60 39 a8 0b 49 3c
       0.04324227 -0.04152657 0.00021438701 0.0122708455
000150 a2 c4 8f bd f8 39 06 bd de 2f ce bc 04 13 9a bd
       -0.070199266 -0.032770127 -0.02516931 -0.07523158
000160 32 d4 2b bd 8f 4a 87 bd d2 8b 50 3c e1 55 9f 3c
       -0.041950412 -0.06606018 0.012728648 0.01945013
000170 63 90 f1 3c 6b 29 3f 3d 72 56 13 bc 2d ab 83 bc
       0.029487794 0.04667036 -0.008992778 -0.016072834
000180 62 81 80 3c 74 ed 63 3d 45 49 15 3d 9d 2f 7f be
       0.015686695 0.055646375 0.03644683 -0.24920507
000190 fc d9 8f be 85 d9 8f be ac 59 a0 be d2 03 a6 be
       -0.28095996 -0.28095642 -0.31318414 -0.3242479
0001a0 c9 75 a9 be 8e 2c 91 be 62 28 94 be 71 6d a1 be
       -0.33097675 -0.28354305 -0.2893706 -0.3152881
0001b0 66 cb cb bd 8a 8c d2 bd 92 39 03 bd d0 41 ba bd
       -0.099509045 -0.10280712 -0.032037325 -0.09094584
0001c0 18 20 ef 3c c2 9e 0f bc 5a a1 c4 bd 04 cb 12 bd
       0.029190108 -0.008765878 -0.09601088 -0.035838142
0001d0 fb 1d 8e bb ce f3 01 3c 07 19 83 3c 49 f3 6d bb
       -0.00433707 0.007931663 0.016003145 -0.003630834
0001e0 89 28 48 bc ac 4c a7 3c 73 5d 8b 3c d8 78 c1 3c
       -0.012216696 0.020422302 0.017012333 0.023617193
0001f0 63 4e 5f 3d 61 35 23 3d 16 3f 90 3d b4 92 a7 3d
       0.054518115 0.039845828 0.07043283 0.08182278
000200 66 2b 38 3d be 33 9a 3c 8a 1c 95 3d 0d 15 3a 3d
       0.044963263 0.0188235 0.07280834 0.04543023
000210 85 7d 85 3d e9 95 7b 3c d6 f9 55 3d 4d 07 7f bd
       0.065180816 0.015355566 0.052240215 -0.062262822
000220 9e 0b 97 3c 40 7b 36 3d bf d0 c0 bd f8 bc cc 3a
       0.018438157 0.044551134 -0.09414815 0.0015620282
000230 f0 14 bb 3c 3e 8a c8 bd 19 53 4b bc 17 51 a7 3c
       0.022837132 -0.097919926 -0.012409949 0.020424409
000240 9e 5e 83 3d 40 86 2a 3c 28 16 3d 3d b9 51 40 3d
       0.06414531 0.010407984 0.046163708 0.046952937
000250 8b 6b d0 3c 88 e4 f5 bc 82 26 38 3d 22 13 ad 3d
       0.025441905 -0.030016199 0.0449586 0.08450915
000260 ce 3b c0 3d 62 94 64 be 24 b5 10 be ac f5 df bd
       0.09386407 -0.22322229 -0.141316 -0.1093553
000270 16 9a 25 be 6f 6e 7d bd dc 4e a4 bb f0 68 17 be
       -0.1617206 -0.061872896 -0.0050142836 -0.14786124
000280 eb 20 6d bc 74 13 0f 3d e7 f0 0b be 7e 66 fc bd
       -0.01447318 0.03493066 -0.13666116 -0.12324236
000290 9e b5 52 bd 14 bc 03 be b4 6d b6 bd e5 81 b3 bc
       -0.051442735 -0.12864715 -0.08907643 -0.021912524
0002a0 b5 c8 1b be ba 6d f1 bd b8 8e cf bd 10 c2 9f bd
       -0.15213282 -0.11788507 -0.10134643 -0.07800686
0002b0 43 36 8d 3c e2 94 4b 3d ad 08 71 bc 8e 53 62 3c
       0.017237788 0.049702533 -0.014711541 0.013813866
0002c0 12 7c 03 bc 14 e3 d0 bc 08 19 b9 bc 63 47 06 3d
       -0.008025186 -0.025498904 -0.022594944 0.032782923
0002d0 35 09 96 3d 69 23 cc 3c ec e2 43 bc cd d5 63 3d
       0.07325975 0.024919229 -0.011955958 0.05562382
0002e0 c2 2e 9b bc 7e 6b 76 bc 85 0c 61 bb af 52 41 3c
       -0.018943194 -0.015040277 -0.0034339738 0.011799498
0002f0 fa 9b f5 ba 31 25 3c 3d a8 11 17 bd f4 7e c3 bd
       -0.0018738501 0.045933906 -0.036882073 -0.09545699
000300 59 a6 c2 bd d8 d0 2e be 49 73 70 be 07 c7 48 be
       -0.095043845 -0.17071855 -0.23481478 -0.19607173
000310 5b f0 9f be 9f 00 9c be 7b f6 c2 bc dc 47 c6 3b
       -0.31238064 -0.30469224 -0.023799172 0.006051047
000320 10 0d e6 3c f6 d8 a3 bc c9 f6 e2 bc 02 6c 99 bb
       0.0280824 -0.020000916 -0.027705567 -0.004682065
000330 80 82 20 3c 73 2d 40 bd e8 26 1b bb a8 65 d9 3b
       0.009796739 -0.046918344 -0.0023674313 0.006634433
000340 ce e6 42 bd 6c c2 44 3c e7 4d 9e 3b fb ec ec bc
       -0.047583394 0.012009244 0.004831064 -0.028921595
000350 fe 13 1a 3d a6 8e fc 3c 97 d1 8f bc 9c 35 c5 3c
       0.037616722 0.030829739 -0.017555995 0.024073415
000360 43 dc d5 bc 30 89 04 3c 92 4b 85 3c 18 ef 0c bd
       -0.026106006 0.008089349 0.016271386 -0.034407705
000370 c7 ff 98 3a 10 f5 88 bd d7 4b eb bd 9a 08 ef bd
       0.0011672907 -0.06687367 -0.11489075 -0.116715625
000380 05 8e 21 be ed 6b 19 bb 6b ad 7e bc 92 ac 14 bd
       -0.15776832 -0.0023410276 -0.015544276 -0.03629739
000390 96 29 6e bb 60 b4 19 3d e4 76 99 ba 3a 63 69 3b
       -0.0036340705 0.037525535 -0.0011708406 0.0035612122
0003a0 3e cf a7 3c fc bc 94 3d a4 19 d5 3c 2b 13 2c bd
       0.020484563 0.072626084 0.026013203 -0.042010467
0003b0 6c 1c b0 bd 3d 9d cf bb c7 54 16 39 79 d4 1e bd
       -0.08599171 -0.006335883 0.00014336697 -0.03877685
0003c0 be 42 b8 3c cc 52 87 bc 46 9b c9 3a 02 72 42 bd
       0.022492763 -0.016518973 0.0015381358 -0.047472008
0003d0 f8 41 f9 3c 01 7a 14 3b 9e 05 24 bd 1b 0d ed 3c
       0.030426964 0.0022655728 -0.04004442 0.028936913
0003e0 86 31 75 3c c4 d9 2c 3d 97 8f 0b 3d 30 2f 49 3d
       0.014965421 0.042199865 0.034072485 0.049117267
0003f0 c2 a7 30 3d 44 1e 10 bd 87 67 61 3d 18 89 67 3d
       0.043128736 -0.035185114 0.055030372 0.056527227

classifier.layer1.0.bias f4 [32]
000000 66 d9 29 3c 85 f3 b6 bc 5b 22 10 3d ea 12 5e bc
       0.010366773 -0.022332916 0.035189014 -0.013554314
000010 40 c4 c3 3c 98 d0 c5 3a e3 64 0f 3d fc f1 1f bc
       0.02389729 0.0015092073 0.035008322 -0.009762283
000020 57 5c f5 3c c4 84 ec 3c fc c0 7f bc 07 65 2d bd
       0.029951258 0.028871901 -0.015609976 -0.042332675
000030 c2 54 a9 bc 08 84 18 bc b7 d4 18 3d 4d 90 c6 3b
       -0.020670298 -0.009308822 0.037312236 0.0060596825
000040 be 1b bc 3c f8 74 2f 3c 00 b3 11 3d 37 c9 ca 3c
       0.022962447 0.01070904 0.0355711 0.02475415
000050 b0 f5 22 3d 2e 54 25 bc 44 e9 d1 bc da d0 c8 3c
       0.039785087 -0.010090871 -0.025623925 0.02451365
000060 a6 9e 7e bc 6f f3 a2 bc aa cc 1c bd e4 13 e5 bc
       -0.015540754 -0.019891469 -0.03828112 -0.027963586
000070 4b 61 b9 bc a6 5c 99 bb 2a ea 16 3d d7 fd b6 b9
       -0.0226294 -0.004680234 0.03684441 -0.0003490287

classifier.layer1.1.weight f4 [32]
000000 f0 86 84 3f 1a ed 61 3f 6d bc 3b 3f 65 75 73 3f
       1.035368 0.88252413 0.7333439 0.95101005
000010 52 9c 62 3f 7f 17 70 3f a8 90 82 3f 59 58 6a 3f
       0.88519776 0.9378585 1.0200396 0.9154106
000020 56 18 86 3f ec 7f 80 3f f3 7c 5a 3f 4d 9c 87 3f
       1.0476177 1.0039039 0.8534691 1.0594574
000030 b5 23 87 3f 3f 75 95 3f b9 11 69 3f ed 7f 95 3f
       1.0557772 1.1676406 0.9104267 1.1679665
000040 5b 91 65 3f 2d 4b a0 3f e0 bd 59 3f d9 36 56 3f
       0.8967492 1.2522942 0.8505535 0.8367744
000050 b7 25 6e 3f 73 23 5f 3f 08 2d 52 3f b7 9c 99 3f
       0.930263 0.87163466 0.8209996 1.200095
000060 34 aa 81 3f cc a7 8e 3f d7 5c 88 3f df e9 63 3f
       1.0130067 1.1144958 1.0653332 0.89028734
000070 37 0a 5f 3f e5 32 5c 3f c1 f3 43 3f 72 bb 6d 3f
       0.8712496 0.8601516 0.76543814 0.92864144

classifier.layer1.1.bias f4 [32]
000000 f1 1f b3 bc 93 90 2c be 4d 76 8d be ce be 89 3d
       -0.021865817 -0.16852026 -0.2762932 0.06725846
000010 d7 a5 5b be cf ae 43 be 27 27 2b be f8 36 dc ba
       -0.21449982 -0.19109653 -0.16714154 -0.001680105
000020 f5 6e 37 be aa 0d 76 3d ed 65 80 be 73 d2 46 3e
       -0.1791342 0.060071625 -0.25077763 0.19416218
000030 7e 90 6e be 1a 78 75 3e f7 00 a5 bd 0a eb 89 3e
       -0.23297307 0.23971596 -0.08056825 0.26937133
000040 50 a4 0e bf b8 52 78 3d aa 35 9a be 41 22 3b be
       -0.5571947 0.06062576 -0.30119067 -0.18274786
000050 4e 68 31 3d d9 79 0c be 73 83 e3 bd e4 a0 ae bc
       0.043312363 -0.13718356 -0.11109056 -0.021316953
000060 2a 70 24 bd 26 57 bd 3d 41 90 64 3d 64 2b 15 bd
       -0.04014603 0.09245138 0.055801634 -0.036418334
000070 bb 90 90 bd d5 82 8d bd 99 ca 29 be 01 2f 19 3e
       -0.07058855 -0.0690972 -0.16581191 0.14959337

classifier.layer1.1.running_mean f4 [32]
000000 13 79 90 c0 4f 87 38 c0 79 df 79 bf f0 78 32 bf
       -4.5147796 -2.8832586 -0.9760662 -0.69715786
000010 d3 38 e3 3f 21 8e 80 c0 f8 a2 37 c0 86 e4 7f c0
       1.7751716 -4.0173497 -2.8693218 -3.998323
000020 5f c0 6a c0 23 e1 81 c0 40 79 ad bf 1a d1 fc bf
       -3.6679914 -4.0587325 -1.3552628 -1.9751313
000030 bc 83 29 c0 91 ae f2 bf 40 a2 d3 bf bc 04 f1 bd
       -2.6486654 -1.8959523 -1.653389 -0.11768481
000040 b4 ef 1e 40 d0 f0 4e c0 d2 53 a0 3f 23 0b 0a c0
       2.4833803 -3.233448 1.252558 -2.1569297
000050 6a 42 be be 6c 52 da 3f c4 7e 93 bf 98 e3 62 bf
       -0.37160045 1.7056403 -1.1523061 -0.8862853
000060 12 9d 38 c0 5f 21 2e c0 00 0e ca c0 15 e7 1b c0
       -2.8845868 -2.7207868 -6.314209 -2.4359791
000070 c9 e2 00 c0 9c 07 c5 bf 0f 5b 1d be 0e 06 32 be
       -2.0138419 -1.5392947 -0.15366767 -0.17385122

classifier.layer1.1.running_var f4 [32]
000000 99 79 31 41 ec 64 f2 40 0f ea 57 40 ea c3 87 3f
       11.092187 7.5748196 3.3736608 1.0606663
000010 7f 19 81 40 c4 c2 c2 40 7c 8f c6 40 77 c6 89 40
       4.0343623 6.086275 6.205015 4.3054767
000020 ca d0 92 40 fd 7e 23 41 04 14 3b 41 47 d3 3b 40
       4.587987 10.218503 11.692387 2.9347703
000030 8e ba 06 41 c8 d6 5c 40 bd 79 14 41 48 09 2c 3f
       8.420546 3.4506092 9.279721 0.6720166
000040 eb 81 31 40 09 58 cc 41 e4 52 b4 40 7f 12 a8 40
       2.7735546 25.542986 5.6351185 5.252258
000050 af 40 e8 3f e3 34 f4 40 32 9c 06 40 09 6b b0 41
       1.814474 7.631456 2.1032834 22.052263
000060 6d 77 8b 41 4e 74 7d 41 0c 00 bb 40 c2 cc ea 40
       17.433313 15.840895 5.8437557 7.337495
000070 db 2c 33 40 92 ed d2 40 d5 2e 89 40 ca 0f ea 3f
       2.7996128 6.5915003 4.286967 1.8286068

classifier.layer2.0.weight f4 [32, 32, 3, 3]
000000 bb fb 0a 3c 48 6a 99 3a 9f 70 6a 3d 6a a5 aa bc
       0.008482869 0.0011704648 0.05723631 -0.020830829
000010 74 cf 27 bd b5 73 51 3c c3 67 47 3d 8f 0e ef bb
       -0.040969327 0.012783934 0.04868294 -0.0072954367
000020 bf c8 03 ba 7c 0b 57 3d 5b da d7 bb 40 7e 18 3d
       -0.0005027167 0.052501187 -0.0065873093 0.037229776
000030 49 fd 00 3d 9f 33 7c bd 24 aa 0e 3d f1 5b ff 3c
       0.03149155 -0.061572667 0.034830227 0.03117177
000040 02 e4 3c 3d 13 af 5e 3d 76 d2 d7 bd f8 11 d8 bd
       0.046115883 0.054366183 -0.10538189 -0.10550302
000050 3f fc 9c bd 99 8f cf bd c7 f8 e7 bd 32 61 dd bc
       -0.076652996 -0.10134811 -0.113267474 -0.027023885
000060 32 2e 04 be c2 93 c0 bd f0 81 ce bd 6d 02 a5 3d
       -0.12908247 -0.094031826 -0.10083377 0.08057103
000070 cb 0e 44 3d 8c 07 fd 3d e8 1e 0e 3d 6b 15 c9 3d
       0.04786567 0.12354955 0.034697443 0.09818538
000080 11 78 5d bc 36 99 f1 3c 7d 23 e7 ba e1 f0 4e bd
       -0.013517396 0.029492002 -0.0017634478 -0.05052269
000090 52 c5 d7 3c ca 1a 07 bc a5 a1 ad 3b db d1 9f 3c
       0.026339207 -0.008246133 0.0052988105 0.019509247
0000a0 42 1a 8f 3c 37 60 43 3c e7 bb cb 3c 7c 1b b9 3d
       0.017468575 0.011924795 0.024869872 0.09038445
0000b0 7e 77 b8 3c d8 bd 1b be 15 9b 1e bd b9 0e e2 bd
       0.022517916 -0.15209138 -0.038722117 -0.110379644
0000c0 56 ca 0c be 7d ba 0b be 1e d6 de bc 6c 5a 2c bd
       -0.1374906 -0.13645358 -0.027201708 -0.04207842
0000d0 2c 73 80 bd b6 a0 bc 3c a6 19 7e bd ed e1 79 bb
       -0.06271967 0.023025852 -0.06203618 -0.0038129047
0000e0 fd a9 41 bd a1 b4 60 bd eb 8c d0 3c e5 3b 0f bd
       -0.047281254 -0.05485976 0.02545782 -0.03496923
0000f0 f4 5a 07 bc 75 aa 67 bd fc 45 14 bc 72 a0 f1 bd
       -0.008261431 -0.056559045 -0.009049889 -0.11798181
000100 bf 89 f5 bd b7 c6 f5 bd 33 9e ce bd 44 b8 a7 bc
       -0.119891636 -0.120007925 -0.10088768 -0.020473607
000110 b9 ac ae bd 18 79 58 bd 07 3e d9 bd c2 a8 99 bd
       -0.08529038 -0.05284986 -0.10607534 -0.07502891
000120 45 15 e7 3c 1e c8 ed 3c 99 7c 3c 3d 00 f6 8f 3d
       0.028208384 0.029026087 0.046017263 0.07029343
000130 e8 d0 b2 3d 08 b4 13 3d bc 66 f3 3a 02 07 61 3c
       0.08731252 0.036060363 0.0018570046 0.013734581
000140 0f e4 c1 3d fd 23 05 bd 64 95 0a bd 83 3a 70 bc
       0.09467327 -0.032505024 -0.033833876 -0.014662388
000150 cb fa 22 3c a3 9f c8 bc dc ab b0 bc 2e a5 a7 bd
       0.009947489 -0.024490183 -0.021566324 -0.081858024
000160 82 45 88 bc 92 62 29 bd 50 cf 7f bb 14 0b 07 3d
       -0.016634706 -0.04135377 -0.003903348 0.03296955
000170 94 ac e5 bc 8d c6 f1 bc 0d 9a 2f 3d 78 a8 77 3d
       -0.028036393 -0.029513622 0.042871524 0.0604634
000180 15 2c 00 3d e5 2a d4 bc 74 f0 f1 3b 66 6f c8 b9
       0.03129204 -0.02589936 0.0073834006 -0.0003822997
000190 8f 43 62 3d 4a 3f c0 bc db 68 a9 3c 0d 91 83 3d
       0.05524021 -0.023467679 0.020679882 0.064241506
0001a0 ad 50 14 3d 5e 4c d2 3d ed e1 7e 3d c4 d9 72 3d
       0.03620975 0.10268472 0.06222718 0.05928971
0001b0 3d dc 3d bd ed 10 71 bd 24 51 0e bd 3b 51 b9 3c
       -0.046352614 -0.058854032 -0.03474535 0.022621742
0001c0 fc b2 42 bc e9 8f f5 bb 3a 55 f9 bc b3 78 b5 3c
       -0.0118834935 -0.007493962 -0.030436147 0.02215228
0001d0 9a 91 a7 bc 87 c3 61 bd ae 97 fd bc 96 2b 30 bd
       -0.02045517 -0.05511811 -0.030956116 -0.043010317
0001e0 34 b4 3c 3d 8b 70 6f 3d bb 8b 51 3b 86 e7 32 bd
       0.046070293 0.05845694 0.0031974155 -0.04367783
0001f0 bd 1f 3d 3d 36 fa 2b bd 2c 91 cb 3a db e2 5a 3d
       0.046172846 -0.041986667 0.0015530935 0.053439002
000200 01 cd 43 bb 81 ae cb 3d 5a 6a 21 bb 50 47 94 3d
       -0.002987683 0.09945393 -0.002463004 0.07240164
000210 86 af 5b 3d 04 0f 74 3d dc 9c 96 3d d0 4d 6f bc
       0.05363419 0.059584633 0.07354137 -0.014605954
000220 21 91 af bc f0 07 0b bd d1 34 22 3d f4 80 9e 3d
       -0.021431508 -0.033943117 0.03960115 0.077394396
000230 c8 15 9e 3c dd 0e 84 bd 88 60 b4 bd 26 d2 83 bd
       0.019297495 -0.064481474 -0.088074744 -0.06436567
000240 4e 3e 71 bd ba aa 24 3d 26 f7 87 3d d0 83 73 3c
       -0.05889731 0.04020188 0.06638937 0.0148629695
000250 18 5e aa 3d b6 12 61 3d 36 29 eb 3d d4 9f cc 3d
       0.08318728 0.054949485 0.1148247 0.09991422
000260 89 39 cd 3d 70 d5 2b be ac 31 a9 bd e4 9c aa bd
       0.100207396 -0.16780639 -0.08261427 -0.08330706
000270 b1 3a 31 be 2f 8d 3f be 98 f7 cf bd 68 37 47 be
       -0.17307545 -0.18706201 -0.10154647 -0.1945473
000280 00 c7 45 be d0 14 3a be e1 82 34 3d d2 7f 0f bc
       -0.19314194 -0.18172002 0.04407013 -0.008758502
000290 e7 00 87 3c 61 ae 36 3d 84 a3 c8 3d c2 b3 af 3d
       0.016479922 0.044599894 0.09796813 0.08579208
0002a0 48 58 8c 3d 2e 93 dc 3d 84 50 5f 3d 30 35 ba 3d
       0.06852776 0.1077026 0.054520145 0.09092176
0002b0 08 08 c6 3d af 93 d6 3d d7 9e c9 3d 18 28 bb 3d
       0.096695006 0.10477387 0.098447494 0.09138507
0002c0 4f 1b 9b 3d d5 09 8d 3d 2b 46 02 3d f8 d4 9d 3c
       0.07573568 0.06886641 0.0318052 0.01926659
0002d0 74 04 c4 bd 4d b5 2a be 11 b3 18 be 3a a9 c3 3b
       -0.09571162 -0.16670723 -0.14912058 0.005971101
0002e0 87 00 de bd b6 4d a8 bd 8b 07 4b bc c9 18 30 bd
       -0.10839944 -0.08217947 -0.012391935 -0.042992387
0002f0 b9 bb 49 bd 77 b2 84 bd 69 ad 94 bd 7e ed 72 bd
       -0.049251292 -0.06479352 -0.07259638 -0.05930852
000300 f7 bc e8 3c 98 75 89 bd 40 45 e3 3c 57 ca d1 bb
       0.028410418 -0.06711882 0.027742982 -0.0064022946
000310 75 29 b5 3a 34 2c 59 3c de ed 01 3d 8f 1f 33 bd
       0.0013821559 0.013255168 0.03172099 -0.04373127
000320 b8 8a 29 bd 5e 27 95 bd fd 1a 00 bd 66 ee 05 3d
       -0.041392058 -0.07282899 -0.031275738 0.032698058
000330 bf 00 59 3d 56 a3 62 3c 03 f3 ca bc f1 da b7 bc
       0.052979227 0.013832888 -0.02477408 -0.022443267
000340 00 5a 2c be 98 3e 0f be a2 be f0 bd 26 38 ea bd
       -0.16831207 -0.13988721 -0.1175511 -0.11436491
000350 53 d8 2b be 4c e1 93 bd 53 54 11 be 7b c9 1f be
       -0.1678174 -0.07220706 -0.14192323 -0.15604202
000360 c2 0b a8 bd f4 4f be bd eb c5 cd bd ef 99 53 bd
       -0.082053676 -0.092925936 -0.100475155 -0.051660474
000370 06 33 9a 3c 9c ef 44 3c 0e 08 9d bc 72 e7 71 bd
       0.018823158 0.012020018 -0.01916888 -0.059058614
000380 0a 9e 12 bd a1 f3 5b bd 2d 13 bc bd 76 c7 c9 bc
       -0.03579525 -0.05369914 -0.09183345 -0.024631243
000390 aa 99 88 bc a1 3f de bd 2a 63 8d bd 71 91 2a bd
       -0.016674835 -0.1085198 -0.0690368 -0.04164261
0003a0 cd 1d 01 be 96 5f a7 bd f9 6c d6 bd 5f 2c f3 bd
       -0.12609024 -0.081725284 -0.10470004 -0.118736975
0003b0 d8 c3 93 bd c9 6f 75 bd 6d 8c 9a bd fd 19 62 bd
       -0.072150886 -0.05992106 -0.07546315 -0.055200566
0003c0 0f 6a 0a be fe b3 91 bd 3b 00 13 be dd 76 1b be
       -0.1351702 -0.07114409 -0.14355557 -0.15182061
0003d0 15 4f 26 be b9 6c 27 be ce 25 d2 bd c1 f4 89 bd
       -0.16241105 -0.16350068 -0.10261117 -0.06736136
0003e0 81 69 b2 bd 1f c1 87 bd 06 eb 97 bd 4e ba b5 3b
       -0.087115295 -0.06628632 -0.07417874 0.005545891
0003f0 1d ae 11 bd 41 66 84 bd 7e c7 c0 bc 17 e1 a7 bd
       -0.035566438 -0.06464816 -0.023532625 -0.08197229

classifier.layer2.0.bias f4 [32]
000000 70 39 f6 3c 46 e9 52 3c d7 4a 02 bd 66 7f 45 bd
       0.030056685 0.0128729995 -0.031809654 -0.0482172
000010 4b 04 ce bc 61 e1 05 3d 40 d0 02 bd 2f 9e 12 bd
       -0.025148531 0.03268564 -0.031936884 -0.035795387
000020 7c 2e f3 bb ac a7 40 bd 6a 33 a9 3c 1e 0c 5e bd
       -0.007421313 -0.047034904 0.020654399 -0.054210775
000030 c8 86 68 3d 7d cd 19 bd eb 0e 0c 3c a0 8f fe 3b
       0.056769162 -0.037549485 0.008548479 0.0077685863
000040 64 b1 40 bd e8 9e 1c 3d ed e7 41 3c e9 b6 46 3c
       -0.047044173 0.038237482 0.011835081 0.01212857
000050 ef 60 21 3c ea fc f0 3c f8 fb 25 3b 07 b5 4e 3d
       0.009849771 0.029417474 0.0025327187 0.05046561
000060 51 08 63 3d a9 82 a6 3c d9 92 03 bd 4b 6e 8e bd
       0.055427853 0.020325975 -0.032122467 -0.069546305
000070 f6 32 c3 3c 91 7c 2d 3d c1 04 d8 3b 53 da 15 bd
       0.023828011 0.042355124 0.0065923636 -0.036585163

classifier.layer2.1.weight f4 [32]
000000 97 33 68 3f 6e 99 6b 3f 92 5b 60 3f de a1 85 3f
       0.9070372 0.9203099 0.87639725 1.0440023
000010 94 75 81 3f 91 3e 8c 3f c4 57 62 3f ec 64 84 3f
       1.0114007 1.0956594 0.8841517 1.0343299
000020 62 1a 9a 3f 48 10 92 3f 36 47 86 3f 1b ab 80 3f
       1.2039301 1.1411219 1.0490482 1.0052217
000030 07 a1 ab 3f fe f1 6c 3f 36 a0 4b 3f 3e 12 6f 3f
       1.3408517 0.9255675 0.7954134 0.9338721
000040 b4 0d 61 3f a1 46 57 3f 77 b1 6c 3f 2f 8d 48 3f
       0.87911534 0.84092146 0.9245829 0.7834043
000050 d9 68 68 3f b9 c0 70 3f 6b 76 85 3f 9b 19 76 3f
       0.90784985 0.9404407 1.0426763 0.9613282
000060 50 5b 87 3f 15 e6 56 3f 04 c1 84 3f 27 00 92 3f
       1.0574741 0.8394483 1.0371404 1.1406296
000070 9a 19 47 3f e0 eb 7b 3f ae cd 73 3f 57 8c 56 3f
       0.7777344 0.9840679 0.9523572 0.8380789

classifier.layer2.1.bias f4 [32]
000000 8e b7 19 be c7 57 49 be 6a 72 9a bd 76 74 a3 bd
       -0.15011427 -0.1966239 -0.07541354 -0.079811975
000010 c1 82 d4 bd a2 7f 73 3d 12 91 ce be fd 5a 3c 3d
       -0.10376502 0.059447892 -0.40345055 0.04598521
000020 99 85 d6 ba 9e 11 ed 3c 94 01 71 3d 5d 74 58 be
       -0.001636672 0.028939065 0.058839396 -0.21138139
000030 83 f2 4c 3e 4a a6 89 bd 95 b4 1a be 34 53 d0 bd
       0.20014386 -0.0672117 -0.15107949 -0.1017212
000040 04 59 4f be 6d b0 b9 be c1 db f4 be 3e 53 99 be
       -0.202488 -0.36267415 -0.4782391 -0.2994632
000050 b0 69 3d be e1 8b 78 be 0c 72 0e be d4 50 a8 bd
       -0.18497348 -0.2427211 -0.13910693 -0.08218542
000060 66 bf 72 bd 8d 61 9c bd b2 af cb bc d9 a9 11 3e
       -0.059264563 -0.07635794 -0.024864051 0.14224948
000070 63 f4 1b be 8e 97 69 bd 9a da 66 bd cc a8 22 bd
       -0.15229945 -0.0570293 -0.05636082 -0.03971176

classifier.layer2.1.running_mean f4 [32]
000000 25 7b 21 c0 3b 6a c9 be 5a 8f 05 c0 66 fc 1b 3f
       -2.5231411 -0.3933886 -2.0868745 0.60932004
000010 e5 8f 85 3f 48 a5 34 bf 26 c7 82 bf 51 a8 00 bf
       1.0434538 -0.705647 -1.0217025 -0.5025683
000020 f8 27 3a 3e 8f 30 c3 be e5 2d 0f bf a5 ae 59 bf
       0.1817931 -0.38122985 -0.55929404 -0.8503211
000030 8d 4b 59 3d 7b 38 8a 3f 10 6d 43 be a9 2e fe bf
       0.053050566 1.0798486 -0.19084573 -1.985799
000040 dc 8d 3a be 1e 5d 2d 3f 72 dd ad bd eb 48 f3 3e
       -0.18218178 0.6772021 -0.08489503 0.4751657
000050 a7 e4 c1 3e b2 b4 9b 3f 13 41 01 bf 8c ee 11 3f
       0.3786976 1.2164519 -0.5048992 0.5700462
000060 d1 b4 47 bf 15 53 4e 3f f7 11 d6 bf f0 d6 55 bf
       -0.7801028 0.80595523 -1.6724232 -0.83531094
000070 56 a0 95 bf ba 9b b7 bf 88 77 d8 bf b5 44 98 be
       -1.1689556 -1.4344399 -1.6911478 -0.2973992

classifier.layer2.1.running_var f4 [32]
000000 cb a2 6e 40 6c 86 bf 3f a9 a1 16 40 bf e3 fd 3f
       3.728686 1.4962897 2.353617 1.9835128
000010 58 6c 42 40 94 5d 98 3f 19 f0 14 3f 04 77 53 3f
       3.0378628 1.1903558 0.5817886 0.8260348
000020 e8 bf 13 3f 72 c3 2b 3f 3e 9f a4 3f 8b 40 d8 3f
       0.577147 0.670951 1.2861097 1.6894697
000030 a2 c6 2b 3f 5a e9 2b 40 86 76 d4 3f b5 54 fb 3f
       0.67099965 2.6861176 1.659867 1.9635226
000040 0a b6 ef 3f 46 d3 88 3f 4b d5 2f 3f 2d 53 9d 3f
       1.8727429 1.0689476 0.68684834 1.2291008
000050 b0 f1 90 3f 2b 58 60 40 30 f5 ed 3f ec d9 74 40
       1.1323757 3.5053813 1.859045 3.825801
000060 64 30 80 3f 46 43 22 40 9a e1 00 40 4b 14 b1 3f
       1.0014768 2.535356 2.0137696 1.3834318
000070 eb c3 1e 40 a1 d9 b4 3f b8 db 96 3f d1 aa b8 3f
       2.480708 1.4128915 1.1785803 1.4427129
