model/Experiment/DWNs_0.5.pt (torch, 446533 bytes, 70 tensors)

conv_spa.weight f4 [32, 3, 3, 3]
0	0xbd927971	-0.07152069
1	0x3e24d6a2	0.16097501
2	0xbdf5689a	-0.11982842
3	0x3e1c6b96	0.15275416
4	0x3d3c3248	0.04594639
5	0xbe627726	-0.22115764
6	0xbcc15582	-0.023600344
7	0x3cc21b2e	0.0236946
8	0x3cf8d0d0	0.030373007
9	0xbe38adcb	-0.18035047
10	0xbdd526d5	-0.10407797
11	0x3d84b30a	0.064794615
12	0x3de982f4	0.114019305
13	0xbddefb09	-0.10887725
14	0x3d11f16b	0.035630625
15	0x3e68d249	0.22736467
16	0x3dd2693d	0.10273979
17	0xbe28dbe4	-0.16490132
18	0xbe090ea6	-0.13384494
19	0x3d39b439	0.04533789
20	0x3e88a1b6	0.26685876
21	0x3dd1ce3f	0.102444164
22	0x3dce6d47	0.10079437
23	0xbe0861b3	-0.1331852
24	0xbded3a69	-0.115834065
25	0xbdcbd0c1	-0.09951926
26	0xbd9fc52f	-0.07801282
27	0xbdedd23b	-0.11612364
28	0xbb8b4cc7	-0.004251096
29	0x3e0a4729	0.13503708
30	0xbe4bdf85	-0.19909485
31	0x3dc08be8	0.09401685
32	0x3e1c4bd1	0.15263297
33	0xbe111dae	-0.14171478
34	0x3d7dd709	0.06197265
35	0xbc893b24	-0.016751833
36	0xbdedee5f	-0.11617731
37	0xbd51c623	-0.05121435
38	0x3e341e1d	0.17589612
39	0xbe331e97	-0.17492138
40	0xbe414470	-0.18873763
41	0x3e507b73	0.20359592
42	0xbe6991b9	-0.22809495
43	0xbd96ab24	-0.07356861
44	0x3d926eb6	0.07150023
45	0xbe2a611c	-0.16638607
46	0x3e53b3d0	0.20674062
47	0xbd58922e	-0.052873783
48	0xbe0d97fa	-0.13827506
49	0x3d0bd0cb	0.034134667
50	0x3b11da7d	0.0022255473
51	0xbce3fde5	-0.027831027
52	0x3e106ff7	0.14105211
53	0xbc4bab10	-0.012430921
54	0x3d20ff16	0.03930577
55	0xbe677482	-0.22603038
56	0xbd88d0ea	-0.06680472
57	0x3cd71ce7	0.026258899
58	0x3e349e6d	0.1763856
59	0x3af885b1	0.0018960742
60	0xbe4ebf65	-0.20190199
61	0x3e067fa5	0.1313463
62	0x3db81da2	0.08990027
63	0x3ce523d9	0.027971195
64	0xbe1779e6	-0.14792594
65	0x3e0f1d1f	0.13975953
66	0x3d9ec4e5	0.077523984
67	0x3e67d1c7	0.22638617
68	0xbcce731c	-0.025201373
69	0xbdbcbbe9	-0.092155285
70	0xbdf274f2	-0.11838712
71	0xbd86ca72	-0.06581582
72	0xbd3be1dc	-0.045869693
73	0xbe67a7c8	-0.22622597
74	0x3dfdafd0	0.12387049
75	0x3d9a16c6	0.07523875
76	0x3e20705b	0.1566786
77	0xbdd89f78	-0.10577291
78	0x3debb828	0.115097344
79	0xbd90b19b	-0.070651256
80	0xbd3689b1	-0.044564907
81	0x3b73f66f	0.0037225743
82	0xbd977527	-0.07395392
83	0xbe491257	-0.19635902
84	0x3daff4e9	0.08591635
85	0x3e2ca70f	0.16860603
86	0x3e3c218c	0.18372172
87	0x3b66483d	0.0035138272
88	0xbdc2e75c	-0.095167845
89	0xbba2a774	-0.0049638096
90	0x3de264bb	0.11054369
91	0x3e116c87	0.14201556
92	0xbd445da1	-0.047940854
93	0x3c153836	0.00910764
94	0x3e0ccd5c	0.13750213
95	0x3d9ad259	0.07559652
96	0xbe6d8509	-0.2319528
97	0xbdb85c06	-0.09001927
98	0xbe55ab6d	-0.20866175
99	0x3e030d45	0.1279803
100	0x3dd9f91d	0.10643218
101	0xbe05fc76	-0.13084587
102	0x3dedd479	0.116127916
103	0x3d57db32	0.052699275
104	0xbe1de334	-0.15418702
105	0x3d4ea1a0	0.050447106
106	0xbdd02330	-0.101629615
107	0xbea50a4c	-0.32234418
108	0xbd323ba1	-0.043513898
109	0xbd846f26	-0.064665124
110	0xbdb9a705	-0.090650596
111	0xbe11c8ae	-0.1423671
112	0xbe410719	-0.18850364
113	0xbe441f9c	-0.19152683
114	0xbe3770ee	-0.17914173
115	0xbe04d161	-0.12970497
116	0xbd5770dd	-0.05259787
117	0x3e3f5abe	0.18686959
118	0xbd92d592	-0.071696416
119	0x3be95405	0.0071206116
120	0xbd3b2f2a	-0.045699276
121	0xbca26b4f	-0.01982656
122	0x3e290704	0.16506582
123	0x3df09e2d	0.1174892
124	0x3e44fb30	0.19236445
125	0x3d845d97	0.06463163
126	0x3e2ec020	0.17065477
127	0x3dfe95cf	0.124309175
128	0x3c6532ee	0.013989193
129	0x3e454f07	0.19268428
130	0xbdadb0d1	-0.08480991
131	0xbd8caf9b	-0.068694316
132	0xbc33664d	-0.010949683
133	0x3d607f32	0.054808803
134	0xbca824da	-0.020525385
135	0xbe30827f	-0.1723728
136	0xbd75d576	-0.060018025
137	0xbc644fc3	-0.013935032
138	0x3ddd18ba	0.10795732
139	0xbe16e022	-0.14733937
140	0xbe00570a	-0.12533203
141	0xbe4ec538	-0.2019242
142	0x3cd4a16c	0.025955878
143	0x3df0d415	0.117592014
144	0x3e02dccc	0.1277954
145	0xbe2e7719	-0.1703762
146	0xbbe30123	-0.0069276257
147	0x3b480de1	0.003052585
148	0xbdfe3d89	-0.12414081
149	0xbdf99de7	-0.121883206
150	0x3e0e48b0	0.13894916
151	0x3d96ae65	0.07357482
152	0xbde26788	-0.11054903
153	0xbe44c823	-0.19216971
154	0xbe130693	-0.14357977
155	0xbdd29e32	-0.102840796
156	0xbe75c450	-0.24000669
157	0xbd5c5006	-0.053787254
158	0xbca9d602	-0.02073193
159	0xbdf81265	-0.121128835
160	0xbe622bf7	-0.22087084
161	0xbe6f0a1c	-0.233437
162	0x3ea02885	0.31280914
163	0x3e793995	0.24338372
164	0x3dcee915	0.101030506
165	0x3ea775b9	0.32707003
166	0x3e9bd0a3	0.30432615
167	0x3e61f272	0.22065142
168	0xbcfc92d0	-0.030831724
169	0x3e33dbda	0.17564335
170	0x3e04fc50	0.12986875
171	0xbe2acf25	-0.16680582
172	0xbc6345b1	-0.013871596
173	0xbc919271	-0.017770024
174	0xbe32efdf	-0.17474316
175	0xbd98444e	-0.07434903
176	0xbd949498	-0.072549045
177	0xbd8e627c	-0.06952378
178	0xbd7eb3ed	-0.06218331
179	0x3dd406fa	0.10352893
180	0x3d9970e9	0.07492239
181	0x3d6b8da2	0.05750812
182	0x3bd673b9	0.006544557
183	0xbe02ec31	-0.12785412
184	0x3e237099	0.15960921
185	0x3c265fc1	0.010154665
186	0xbe01dc97	-0.12681805
187	0x3d2c167b	0.042013627
188	0x3e0bfd37	0.13670813
189	0xbdf0fc34	-0.11766854
190	0xbd827ebc	-0.06371829
191	0x3dc09047	0.09402519
192	0x3d17188a	0.036888637
193	0x3ca73ac5	0.020413766
194	0x3d1ea970	0.038735807
195	0x3d0ca01d	0.034332383
196	0xbda82bf4	-0.082115084
197	0xbcc7f05c	-0.024406604
198	0x3d54230a	0.05179123
199	0xbe1d02ac	-0.1533305
200	0xbdd9678a	-0.10615452
201	0xbdfeafda	-0.12435885
202	0x3e2b6696	0.16738352
203	0xbe2079ff	-0.15671538
204	0x3d03145f	0.03200185
205	0xbdfca83c	-0.12336776
206	0xbe308474	-0.17238027
207	0xbe5756c8	-0.21029198
208	0xbe731200	-0.23737335
209	0xbe276ba0	-0.1634965
210	0xbd50ccc5	-0.050976533
211	0xbe8fc03b	-0.28076348
212	0xbdacef39	-0.084440656
213	0x3d283167	0.04106274
214	0xbdd3cf58	-0.10342282
215	0xbd7f0d7e	-0.062268727
216	0xbddaf5c5	-0.10691408
217	0xbdba7f60	-0.09106326
218	0x3cc21055	0.023689428
219	0xbe22709c	-0.1586327
220	0x3be5bb63	0.0070108636
221	0x3d547a79	0.05187461
222	0xbcbc9375	-0.023019532
223	0x3da7bc65	0.0819023
224	0x3e47e5ed	0.19521303
225	0xbe24c47e	-0.16090581
226	0xbc6ab0c8	-0.0143243745
227	0x3dae76d8	0.085187614
228	0xbe5d1694	-0.21590644
229	0x3d2507b0	0.040290534
230	0x3dc660b6	0.09686415
231	0x3d2143de	0.039371364
232	0x3d8afcd5	0.06786505
233	0x3e07b35e	0.13252017
234	0x3e040ffb	0.12896721
235	0x3cb77540	0.022394776
236	0xbe063a59	-0.13108195
237	0xbe4bdb9d	-0.19907995
238	0x3addf097	0.0016932663
239	0xbe31eb62	-0.17374948
240	0x3dcb4714	0.099256665
241	0x3e23e8c1	0.16006757
242	0x3d974b11	0.07387365
243	0x3e07df3f	0.13268755
244	0xbe10a2fd	-0.14124675
245	0x3e2f9c0d	0.17149372
246	0x3c859e57	0.016310854
247	0x3e09658d	0.13417645
248	0x3da3713e	0.079805836
249	0x3e7c5058	0.24640024
250	0xbdd4d452	-0.103920594
251	0x3d5c7e3a	0.053831317
252	0xbcad4403	-0.021150595
253	0x3e0146bd	0.12624641
254	0xbd9a1e6c	-0.07525334
255	0x3e815b93	0.25265178

conv_spa.bias f4 [32]
0	0xbd5c0afc	-0.053721413
1	0xbd9f4901	-0.07777596
2	0x3d4d1126	0.050065182
3	0x3db675af	0.08909165
4	0x3e458780	0.1928997
5	0x3dbe5ff7	0.092956476
6	0xbdf64c34	-0.12026253
7	0xbe1135f0	-0.14180732
8	0xbe178df2	-0.14800242
9	0xbddc19cb	-0.10747107
10	0xbe252628	-0.16127837
11	0xbe0784fa	-0.1323432
12	0xbda0dae7	-0.07854252
13	0x3cd9517a	0.026528109
14	0x3ca2dcf2	0.019880746
15	0xbd6a365c	-0.057180747
16	0xbd56f960	-0.052483916
17	0xbe227a9f	-0.15867089
18	0xbe2c5c0d	-0.1683199
19	0x3b83cd67	0.0040222886
20	0x3d6c219f	0.05764925
21	0xbcccce3f	-0.02500069
22	0x3cb4ac2c	0.022054754
23	0xbcb22755	-0.02174727
24	0x3e36b188	0.1784116
25	0xbe39d790	-0.18148637
26	0x3d17dece	0.037077717
27	0x3bc5d48b	0.0060373
28	0xbdb7c8f5	-0.089738764
29	0xbd970e51	-0.073757775
30	0xbdd7eacb	-0.1054283
31	0x3e1fc6a9	0.15603127

conv_fre.weight f4 [32, 3, 3, 3]
0	0xbd35831c	-0.04431449
1	0xbe551297	-0.20807873
2	0xbd4f9f45	-0.050689
3	0xbe8b3ad3	-0.27193317
4	0xbe2e7224	-0.17035729
5	0x3db5a7d9	0.08869905
6	0x3e1a6c3a	0.15080348
7	0x3d51fd31	0.051266853
8	0x3e6534c9	0.22383417
9	0xbcb937ea	-0.02260967
10	0x3d815702	0.063154235
11	0x3e44abd2	0.19206169
12	0xbdc3da8f	-0.09563171
13	0x3de42993	0.11140742
14	0xbc7856ac	-0.015157383
15	0xbd5e6c30	-0.054302394
16	0xbc8f50ed	-0.017494643
17	0x3d30f346	0.043200754
18	0x3dc65aeb	0.0968531
19	0xbe2babac	-0.16764706
20	0xbcc3d8a9	-0.023907023
21	0xbe66443a	-0.22486964
22	0xbdf735bb	-0.12070795
23	0x3da11520	0.078653574
24	0xbdb89b41	-0.09013987
25	0x3dfb5bc1	0.1227336
26	0x3dea5da8	0.11443645
27	0x3e42eafc	0.19034952
28	0x3e6d6bce	0.23185655
29	0xbd9a74e2	-0.07541825
30	0xbccbac68	-0.024862483
31	0x3d549cda	0.051907398
32	0xbd297f0f	-0.04138094
33	0x3d48a795	0.048987944
34	0xbdabe987	-0.08394151
35	0xba952f60	-0.0011381917
36	0xbdba002f	-0.09082066
37	0xbe07758e	-0.13228437
38	0xbe7d3c62	-0.24730065
39	0xbe9f12ec	-0.31069124
40	0xbe024f86	-0.12725648
41	0x3e3b2d92	0.18279102
42	0xbe402c51	-0.18766905
43	0x3dbc3419	0.09189624
44	0x3da6b569	0.0814007
45	0xbadd2e59	-0.0016874775
46	0xbaf3a416	-0.001858833
47	0xbe85ec5f	-0.261569
48	0xbe88755c	-0.26652038
49	0xbd6f2c91	-0.05839211
50	0x3cb1e962	0.02171773
51	0xbe2cd6f5	-0.16878875
52	0x3cecdc41	0.028913619
53	0xbca03ef5	-0.01956127
54	0x3e0887b4	0.13333017
55	0x3dd27341	0.10275889
56	0xbd6b742c	-0.057483837
57	0xbe4706cb	-0.19436185
58	0xbe7b519c	-0.2454285
59	0x3d879173	0.06619539
60	0x3dabca93	0.08388247
61	0xbd920269	-0.07129366
62	0xbe127a33	-0.14304428
63	0x3dffc68c	0.12489042
64	0x3df2c8f5	0.11854736
65	0x3e69210f	0.22766517
66	0x3dd10220	0.102054834
67	0xbe19a596	-0.15004572
68	0x3c93c8e6	0.018040132
69	0xbd83d0b1	-0.06436289
70	0x3ca66886	0.020313513
71	0xbd8ea5bf	-0.06965207
72	0x3d1362a1	0.03598273
73	0x3db29098	0.08718985
74	0x3dfd575b	0.12370177
75	0xbddca346	-0.107733294
76	0xbda24a72	-0.079243556
77	0x3d224254	0.039614037
78	0x3dcf02b3	0.10107937
79	0xbe62b841	-0.221406
80	0xbd150ea1	-0.036390904
81	0x3c946678	0.018115267
82	0x3d729c24	0.05923094
83	0xbe429259	-0.1900114
84	0xbe273ca9	-0.16331734
85	0xbd663707	-0.056204822
86	0x3e1711d1	0.1475289
87	0xbddacb76	-0.10683338
88	0xbe1c7ff2	-0.15283182
89	0x3ddcb855	0.10777346
90	0xbc51a0f2	-0.01279472
91	0x3e804605	0.2505342
92	0xbe2a694a	-0.16641727
93	0x3ccee170	0.025253981
94	0xbd4abe06	-0.049497627
95	0x3d846817	0.06465166
96	0x3dc7b779	0.097517915
97	0xbd97a450	-0.07404387
98	0xbca702a5	-0.020387003
99	0x3c21e310	0.009880796
100	0x3ddae01d	0.106872775
101	0xbe4286dc	-0.18996757
102	0xbbc6e09a	-0.006069255
103	0xbd4c5858	-0.04988894
104	0x3dc9e722	0.09858538
105	0x3dee0f2e	0.11623989
106	0xbe38ebb0	-0.18058658
107	0x3e206d20	0.15666628
108	0xbe0fd805	-0.14047249
109	0x3dd5ca72	0.10439004
110	0xbd1c7016	-0.03819283
111	0xbda18104	-0.07885936
112	0x3ce87e5e	0.02838057
113	0x3d7d0a09	0.06177715
114	0x3da96f27	0.08273154
115	0x3e21c19d	0.15796514
116	0x3d311f4c	0.043242738
117	0xbbf262eb	-0.007397046
118	0xbd96b155	-0.07358042
119	0xbc539598	-0.012914084
120	0x3db3ff3b	0.08788916
121	0xbe1a5ed8	-0.15075243
122	0xbe774f0d	-0.24151249
123	0xbe4ecc25	-0.20195062
124	0xbd43ae55	-0.047773678
125	0xbe3437c7	-0.17599402
126	0x3cfb1ece	0.030654337
127	0x3e43d3d0	0.19123769
128	0x3e175c31	0.14781262
129	0xbda58e45	-0.080837764
130	0xbdab92f2	-0.08377637
131	0x3e3fed54	0.18742877
132	0x3e33f091	0.17572238
133	0x3e19de5b	0.15026228
134	0xbd38f163	-0.04515208
135	0x3db62338	0.08893436
136	0x3e2341e0	0.15943098
137	0xbd81f041	-0.06344653
138	0xbe164f6a	-0.14678732
139	0x3e5119fe	0.20420071
140	0x3ce09630	0.027415365
141	0x3e4f5d2a	0.20250383
142	0x3e56a9a2	0.20963147
143	0xbe49e71f	-0.19717072
144	0xbd296ffb	-0.04136656
145	0x3d1e6104	0.03866674
146	0x3dac573d	0.08415077
147	0x3d2de8ce	0.042458348
148	0xbdfa03f5	-0.12207786
149	0xbd7624de	-0.060093753
150	0xbe13bd73	-0.14427738
151	0xbd8f13bf	-0.06986188
152	0x3dcc142b	0.09964784
153	0xbd4f44ff	-0.05060291
154	0xbe4225db	-0.18959753
155	0xbc1c9191	-0.00955619
156	0x3de30e8c	0.11086759
157	0xbdc66e7b	-0.09689041
158	0x3cddf884	0.02709604
159	0xbd8d6ed8	-0.069059074
160	0xbe0db598	-0.13838804
161	0x3de37c08	0.111076415
162	0x3d8b6bca	0.068076685
163	0xbe4d6775	-0.20058997
164	0xbc5ecee9	-0.013599136
165	0xbe43f906	-0.19137964
166	0xbe882e7d	-0.26597968
167	0x3e0cfb7d	0.1376781
168	0xbe64483a	-0.22293177
169	0xbdf9be5c	-0.12194511
170	0x3e258af2	0.16166285
171	0xbde44cdd	-0.11147473
172	0x3cb156ae	0.021647777
173	0x3dc6c69d	0.09705851
174	0xbba6f1fd	-0.005094765
175	0x3d9ea375	0.07746021
176	0xbd1236be	-0.035696737
177	0xbd935c76	-0.0719537
178	0x3ddd33ca	0.108008936
179	0xbe0ec324	-0.13941628
180	0x3cf90279	0.030396687
181	0x3e3adde3	0.18248706
182	0xbd9c63da	-0.07636233
183	0x3e4c1702	0.19930652
184	0x3e454954	0.19266254
185	0xbdd013e3	-0.10160043
186	0x3e9b0216	0.3027503
187	0x3c6d8041	0.01449591
188	0xbcada907	-0.021198763
189	0x3cefdbad	0.029279554
190	0xbe3c2379	-0.18372907
191	0x3ded2d53	0.115809105
192	0xbe49de76	-0.19713768
193	0xbdd3a4a6	-0.103341386
194	0xbdf3d3fd	-0.11905668
195	0x3decbeb5	0.11559812
196	0xbca46f1d	-0.020072514
197	0xbd626a5a	-0.055277206
198	0x3ca35c9f	0.019941626
199	0xbe421e34	-0.18956834
200	0x3e083428	0.13301146
201	0xbddf348f	-0.10898697
202	0x3e33fb12	0.17576244
203	0x3d806850	0.06269896
204	0x3d729a3d	0.059229124
205	0x3d4c0368	0.049807936
206	0x3bcf4d1c	0.006326331
207	0xbdca8589	-0.09888751
208	0xbe4a9a4b	-0.1978542
209	0x3e3da588	0.18520176
210	0xbe188fb8	-0.14898574
211	0x3e1363eb	0.14393584
212	0x3d82c6c5	0.063855685
213	0x3df359a7	0.11882334
214	0x3d1d27f3	0.038368177
215	0xbe1bc616	-0.15212283
216	0xbdfd2bf0	-0.12361896
217	0x3d8d01c5	0.06885103
218	0xbda78d1d	-0.08181212
219	0x3deeff2e	0.116697654
220	0xbdea9b96	-0.11455457
221	0x3ea695c5	0.3253614
222	0xbd248969	-0.040170107
223	0x3e4b12f0	0.19831443
224	0x3d8f79b6	0.070056364
225	0xbdb078d6	-0.086167976
226	0x3c199208	0.0093731955
227	0x3e096423	0.13417105
228	0x394b3a3c	0.00019381283
229	0xbd4c2f1e	-0.049849622
230	0x3cb788e8	0.02240415
231	0xbe619846	-0.22030744
232	0xbd322500	-0.043492317
233	0x3dc99389	0.09842593
234	0x3dedbb01	0.11607934
235	0x3b7ae6f6	0.0038284636
236	0x3e092608	0.13393414
237	0xbcc156f9	-0.023601042
238	0x3e60b08a	0.21942344
239	0xbe4db5dc	-0.20088905
240	0xbe163120	-0.14667177
241	0xbe1da709	-0.1539575
242	0xbd92ae0c	-0.07162103
243	0x3e25e1fe	0.1619949
244	0xbe01c418	-0.1267246
245	0x3da33377	0.079688005
246	0x3cd01501	0.02540064
247	0x3c9adf31	0.018905254
248	0x3dc310f2	0.095247164
249	0x3e35186e	0.176851
250	0xbdc295a7	-0.095012
251	0x3dc8d5e0	0.098064184
252	0xbe5894c9	-0.21150507
253	0xbdee8bc8	-0.11647755
254	0xbda6546a	-0.081215695
255	0x3d2414ec	0.040059015

conv_fre.bias f4 [32]
0	0xbcfc616d	-0.030808175
1	0xbcb7bdea	-0.022429425
2	0xbe1b1a6d	-0.151468
3	0xbd67df3d	-0.05660938
4	0x3e0609cc	0.13089675
5	0x3e3e53dd	0.18586679
6	0x3d039339	0.032122824
7	0xbd79290e	-0.06083017
8	0xbd5311a1	-0.051530484
9	0x3d7c9050	0.061661065
10	0x3d61cce9	0.05512706
11	0xbe01c7fb	-0.12673943
12	0x3d81e26c	0.06342015
13	0xbdef75f3	-0.11692419
14	0xbdbd874b	-0.09254321
15	0xbdc357e5	-0.09538249
16	0xbe377a35	-0.17917712
17	0xbcfb9fac	-0.030715786
18	0x3b77e5f7	0.0037826279
19	0xbcc0ca6f	-0.023534028
20	0xbd4187bf	-0.0472486
21	0xbdce2db7	-0.10067313
22	0xbdc5261d	-0.0962641
23	0x3dfacded	0.122463085
24	0x3d33f503	0.043934833
25	0x3dbba881	0.09162999
26	0x3de56d9d	0.11202548
27	0x3deaaa2f	0.11458241
28	0x3da5b418	0.08090991
29	0xbcbaf957	-0.022823973
30	0x3d542fda	0.051803447
31	0xbdf47d12	-0.11937918

BN.weight f4 [64]
0	0x3f44ca2f	0.7687101
1	0x3f0e6315	0.5561994
2	0x3f6c0390	0.92192936
3	0x3eeca611	0.4622045
4	0x3f2fc6a6	0.6866249
5	0x3f4c4469	0.79791886
6	0x3f373aa5	0.7157386
7	0x3f31f7d2	0.6951877
8	0x3f3526b9	0.7076221
9	0x3f3e0171	0.7422095
10	0x3f1a4fd2	0.60278046
11	0x3f00f0d0	0.5036745
12	0x3f274c26	0.6535057
13	0x3f7edf69	0.99559647
14	0x3f604376	0.8760294
15	0x3f6695a2	0.9007207
16	0x3f87a78c	1.0598006
17	0x3f630424	0.88678193
18	0x3f1fc851	0.62415034
19	0x3f229ff8	0.6352534
20	0x3f384f6b	0.7199618
21	0x3f45f31f	0.773241
22	0x3f4b201d	0.79345876
23	0x3ecac784	0.39605343
24	0x3eb84b4a	0.3599494
25	0x3f0a1824	0.53943086
26	0x3f4a0696	0.789163
27	0x3ebcbab6	0.368612
28	0x3ed6b28b	0.41933092
29	0x3ebc9726	0.36834067
30	0x3f15c0fe	0.5849761
31	0x3eda7fac	0.4267553
32	0x3f5f5a12	0.8724681
33	0x3f722ca5	0.9459937
34	0x3f89be89	1.0761272
35	0x3f8cfcfa	1.1014702
36	0x3fa0e033	1.256842
37	0x3fa2fc3a	1.2733223
38	0x3fa6d0e2	1.3032496
39	0x3f896dbb	1.0736612
40	0x3f9410c9	1.1567622
41	0x3fa42496	1.2823665
42	0x3f9749cb	1.1819395
43	0x3f8575e7	1.0426606
44	0x3f8fdd28	1.1239367
45	0x3f834368	1.0254946
46	0x3f974b5b	1.1819872
47	0x3faf3c18	1.3690214
48	0x3f802d01	1.0013734
49	0x3fa9fe86	1.3280799
50	0x3fa0a2a2	1.2549632
51	0x3f8f89a9	1.1213886
52	0x3f9575f1	1.1676618
53	0x3faef4c2	1.3668444
54	0x3f9ab9ba	1.2087929
55	0x3fbf1b5d	1.4930226
56	0x3f93e87c	1.1555324
57	0x3f97e1da	1.18658
58	0x3fb34690	1.4005909
59	0x3f85dd78	1.0458212
60	0x3f73a7df	0.95178026
61	0x3f8bd5e1	1.0924646
62	0x3fafea27	1.3743333
63	0x3fa5d249	1.2954799

BN.bias f4 [64]
0	0xbeb6b054	-0.35681403
1	0xbeba7b77	-0.3642232
2	0xbf070980	-0.5274887
3	0xbf069880	-0.52576447
4	0xbe12aa6c	-0.14322823
5	0xbe9655e9	-0.2936242
6	0xbebdf902	-0.3710404
7	0xbec1e4be	-0.3786983
8	0xbe7803e7	-0.24220239
9	0xbea2c0d4	-0.3178774
10	0xbec568fb	-0.38556656
11	0xbf1d6b42	-0.6149179
12	0xbecadf27	-0.39623377
13	0xbe3b1cc8	-0.18272698
14	0xbeea578b	-0.45769915
15	0x3d15c26a	0.03656236
16	0xbd22bf7e	-0.039733402
17	0x3d1650df	0.03669822
18	0xbeb4a0cd	-0.3527893
19	0xbeac248b	-0.3362163
20	0xbeb17874	-0.3466221
21	0xbea05e5a	-0.31321985
22	0xbeb1ad54	-0.3470255
23	0xbec7ccd9	-0.39023474
24	0xbeff64eb	-0.49881682
25	0xbeea231e	-0.45729917
26	0xbecea583	-0.4036065
27	0xbf1e7180	-0.6189194
28	0xbf10ba94	-0.56534696
29	0xbf03bd59	-0.51460797
30	0xbee511f6	-0.44740266
31	0xbef1b391	-0.4720731
32	0x3e096b2e	0.13419792
33	0x3ce41049	0.027839797
34	0x3da53ecb	0.080686174
35	0x3b6d7d8c	0.0036238162
36	0x3ebc0316	0.36721104
37	0xbe501e56	-0.20324072
38	0xbe0d1f3a	-0.13781443
39	0x3df6023e	0.120121464
40	0x3d61c35c	0.05511795
41	0x3ea826b3	0.32842025
42	0x3c4f1585	0.012639408
43	0x3dfb1ad0	0.122609735
44	0x3d082e4a	0.03324727
45	0xbc8bfa9e	-0.017087277
46	0x3d188e50	0.037245095
47	0xbe5efe31	-0.21776654
48	0xbdca58a1	-0.09880186
49	0x3e694889	0.22781576
50	0x3eabedbc	0.33579814
51	0x3ce12330	0.027482599
52	0xbddd2ec1	-0.10799933
53	0x3ea6c8ab	0.32574973
54	0x3e60df63	0.21960215
55	0xbd6550c4	-0.055985227
56	0x3caff83b	0.02148067
57	0x3e44e862	0.19229272
58	0xbe4e3dd6	-0.20140776
59	0x3ecf057e	0.40433878
60	0x3e0f7145	0.14008053
61	0x3e0c8fcb	0.13726728
62	0xbe5ff25a	-0.21869794
63	0x3e8acd67	0.27109835

BN.running_mean f4 [64]
0	0xbd83c13e	-0.064333424
1	0xbe0accb4	-0.1355465
2	0x3d3f55ca	0.046712674
3	0x3cf40c42	0.029791001
4	0x3e82a3d6	0.25515622
5	0xbe860565	-0.2617599
6	0x3c8ab45b	0.016931703
7	0xbef3de0d	-0.4763035
8	0xbe13bf47	-0.14428435
9	0xbe4f27ae	-0.2022998
10	0xbe2e7cc3	-0.1703978
11	0xbdd775b5	-0.10520498
12	0xbdaf042c	-0.085457176
13	0x3d31852e	0.0433399
14	0x3cc13b48	0.023587838
15	0x3cff964d	0.031199599
16	0xbd6d4e16	-0.057935797
17	0xbd09e796	-0.033668123
18	0xbe35c6dd	-0.17751642
19	0x3e555afe	0.20835492
20	0x3e60a315	0.21937211
21	0xbedc6091	-0.43042424
22	0x3cb57305	0.022149572
23	0x3dbac2bd	0.09119175
24	0x3e21b889	0.15793051
25	0xbe2e8c7a	-0.17045775
26	0x3d195058	0.037430137
27	0xbd2bea9d	-0.04197179
28	0xbe218fee	-0.15777561
29	0xbe1d8b42	-0.15385154
30	0x3d81ed6b	0.06344112
31	0x3e380979	0.17972364
32	0x3f4bcec3	0.7961237
33	0x407e1350	3.9699287
34	0x3de2f642	0.11082126
35	0x3ef815c0	0.48454094
36	0xbd5f8496	-0.054569803
37	0x3df22e20	0.11825204
38	0x3bd6f7a2	0.006560282
39	0x3f4e90e4	0.80689836
40	0xbf155bbc	-0.583431
41	0x3dd18c33	0.10231819
42	0x3f0acc04	0.54217553
43	0x3f863251	1.0484105
44	0xbf028278	-0.5098033
45	0xc0803f18	-4.007702
46	0xbead5efb	-0.33861527
47	0xbdca6e7e	-0.09884356
48	0xbeb9f1ac	-0.36317194
49	0xbd1946d4	-0.037421063
50	0x3e1921e9	0.14954342
51	0xbe9cbca4	-0.3061267
52	0x3de954b4	0.11393109
53	0xbf22cd3c	-0.6359441
54	0x3fed73c2	1.8550951
55	0x3b028b75	0.0019919549
56	0x3f7a6f36	0.97825944
57	0x3caa188c	0.020763658
58	0x3dd6ddd7	0.10491531
59	0x3efa9b76	0.48946732
60	0x3f39b70d	0.7254494
61	0xbe9d5f00	-0.30736542
62	0xbcae3a8a	-0.021268148
63	0xbf0d13ed	-0.5510853

BN.running_var f4 [64]
0	0x3d15a9f7	0.036539044
1	0x3eed9958	0.46406054
2	0x3ce790cf	0.028267292
3	0x3e865feb	0.26245055
4	0x3ea698c6	0.32538432
5	0x40c2b335	6.084376
6	0x405915a1	3.3919451
7	0x40a44da0	5.1344757
8	0x3dfe85ef	0.124278896
9	0x3e9964e0	0.29959774
10	0x3da3af9e	0.07992481
11	0x3ed38f8f	0.41320464
12	0x3db1b003	0.0867615
13	0x3daf6dc2	0.085658565
14	0x3d5b439b	0.05353127
15	0x3e9414f8	0.28922248
16	0x3ddf629f	0.10907482
17	0x3eea47ba	0.45757848
18	0x3df86bbf	0.12129926
19	0x407fa8e4	3.9946833
20	0x4086e442	4.2153635
21	0x40f08011	7.515633
22	0x3db8a6df	0.09016203
23	0x3ee96365	0.45583645
24	0x3e9682e6	0.29396743
25	0x3d95ebdc	0.07320377
26	0x3d6e3c55	0.058163006
27	0x3e9ca657	0.30595657
28	0x3efa8782	0.4893151
29	0x3f1e1f8d	0.6176689
30	0x40853a16	4.1633406
31	0x3dd693f4	0.104774386
32	0x3f70892a	0.93959296
33	0x3ffae28e	1.9600389
34	0x3f631e21	0.8871785
35	0x3f21d85d	0.6322077
36	0x3e8d4697	0.27592918
37	0x3db4e3de	0.08832525
38	0x3e01cd4f	0.12675975
39	0x3f44e0d8	0.76905584
40	0x3edd5325	0.43227497
41	0x3ef4ea12	0.4783483
42	0x3f8c26a2	1.094929
43	0x3f8bc7df	1.0920371
44	0x3e8a992c	0.27069986
45	0x3ff20867	1.8908814
46	0x3f7f02f7	0.996139
47	0x3d955d8f	0.072932355
48	0x3f170742	0.5899545
49	0x3eada0c6	0.33911723
50	0x3e46c6cf	0.19411777
51	0x3e49ccc5	0.1970702
52	0x3dcfc053	0.10144105
53	0x3e8f2c7d	0.2796363
54	0x3fb18d79	1.3871299
55	0x3d98b44f	0.07456266
56	0x3f447e0b	0.76754826
57	0x3e8b3ed5	0.27196375
58	0x3d969ff3	0.07354727
59	0x3f1921d3	0.59817237
60	0x3f152f8f	0.58275694
61	0x3f92e785	1.1476904
62	0x3db01312	0.085973874
63	0x3ea6f395	0.32607713

classifier.layer1.0.weight f4 [32, 64, 3, 3]
0	0x3da478b8	0.08030838
1	0x3daf9dce	0.08575021
2	0x3db53e45	0.088497676
3	0x3dbc30d6	0.09189002
4	0x3ca4f86f	0.020137994
5	0x3d840c83	0.06447699
6	0x3d85ae3e	0.06527375
7	0x3e00bc24	0.1257177
8	0x3d9818bc	0.07426593
9	0x3cd9c274	0.02658198
10	0x3d13da61	0.036096934
11	0xbc5f04e3	-0.013612005
12	0xbb82b267	-0.0039885524
13	0x3c5d2cc6	0.013499444
14	0x3d10a48b	0.03531317
15	0x3c21e0b0	0.00988023
16	0xbc6646e9	-0.014054992
17	0xbbf4608a	-0.0074577974
18	0xbbee4bc5	-0.007272216
19	0xbd8bc220	-0.06824136
20	0xbcdc1cc1	-0.02686918
21	0xbe4279cf	-0.18991779
22	0xbdc5608f	-0.09637558
23	0xbe0b781b	-0.13620035
24	0x3d540031	0.051757995
25	0xbc81bed3	-0.015838062
26	0x3c025277	0.007954231
27	0xbe4d19d1	-0.2002938
28	0xbe0e72b9	-0.1391095
29	0xbda19f5d	-0.07891724
30	0xbe196147	-0.14978515
31	0xbdfc7fb7	-0.12329047
32	0xbdab920c	-0.083774656
33	0xbcc0845d	-0.023500616
34	0xbcfadf3a	-0.03062402
35	0xbd481ebf	-0.048857447
36	0x3d93e30d	0.07221041
37	0x3d6fd131	0.05854911
38	0xbc697b9c	-0.014250662
39	0x3da29fa2	0.07940604
40	0x3d6b5c8e	0.057461314
41	0x3daaf617	0.08347719
42	0x3d324d7c	0.043530926
43	0x3db6ab95	0.089194454
44	0x3d8a04fb	0.06739231
45	0xbc64a7f2	-0.013956057
46	0x3cbd58ea	0.023113687
47	0x3cd598c5	0.026073823
48	0x3d9521cd	0.072818376
49	0xbc0c5c7a	-0.00856697
50	0xbccd98be	-0.025097247
51	0x3d7f7a3a	0.062372424
52	0x3cca8f5d	0.024726564
53	0x3d6693d5	0.056293327
54	0x3dc10222	0.09424235
55	0x3b564ae3	0.0032698445
56	0xbbaffdb0	-0.005370818
57	0x3da716f1	0.081586726
58	0x3c630872	0.013856994
59	0xbc8ebf74	-0.017425276
60	0x3abea5f0	0.0014545303
61	0xbc8a190f	-0.016857652
62	0x3b82876a	0.003983428
63	0x3d49be9d	0.04925405
64	0x3d1e7b5f	0.038691875
65	0xbcffd5d7	-0.031229896
66	0xbb1edb4f	-0.0024239605
67	0xbd032dd7	-0.03202614
68	0x3cb1a434	0.021684743
69	0x3d871104	0.06595042
70	0xbbacae0f	-0.005269773
71	0x3d09c335	0.03363343
72	0x3b8fc161	0.0043870662
73	0xbc3e3416	-0.011609098
74	0x3d09b014	0.033615187
75	0xbdb1cca3	-0.086816095
76	0xbd9b441a	-0.07581349
77	0x3cb34b84	0.021886595
78	0xbdb4bee7	-0.08825474
79	0xbdb9bf52	-0.090696946
80	0x3cd8d59d	0.026469046
81	0xbb24ce81	-0.00251475
82	0xbd38d3ec	-0.04512398
83	0xbda6c3c3	-0.08142807
84	0xbd28caae	-0.041208915
85	0xbdab133b	-0.08353277
86	0xbda7a486	-0.08185677
87	0x3c0c6d5a	0.008570993
88	0xbdb80001	-0.08984376
89	0xbe14d2f5	-0.14533599
90	0x3cdca07f	0.026932
91	0x3b2d9228	0.002648482
92	0x3d8c8919	0.06862087
93	0xbdbed6f6	-0.09318344
94	0xbd7f6fea	-0.06236259
95	0xbb8336af	-0.0040043215
96	0xbced0135	-0.02893124
97	0xbda4be42	-0.08044101
98	0xbcca3cdb	-0.024687221
99	0xbd9d1f00	-0.076719284
100	0xbd661c77	-0.05617949
101	0xbd3971ec	-0.04527466
102	0xbe19c3df	-0.15016125
103	0xbdc35fda	-0.095397666
104	0xbc248cc7	-0.01004333
105	0xbdc60917	-0.096697025
106	0xbe19af0b	-0.1500818
107	0xbd4cdfaa	-0.05001799
108	0xbe20ca5b	-0.15702192
109	0xbe013cfe	-0.12620923
110	0xbddcaf68	-0.107756436
111	0xbe079543	-0.13240533
112	0xbe10e446	-0.1414958
113	0xbd5f128a	-0.05446104
114	0x3d97dc9d	0.074151255
115	0x3d0d5afd	0.0345106
116	0x3d79249a	0.06082592
117	0x3bcf4bea	0.0063261883
118	0xbc5d6d4b	-0.013514827
119	0xbbe0481a	-0.0068445327
120	0xbd3198b4	-0.04335852
121	0xbc08203e	-0.008308468
122	0xbd99fd95	-0.0751907
123	0xbc2e097b	-0.0106223775
124	0xbd599c1f	-0.053127404
125	0x3b9403d9	0.0045170602
126	0xbdb7bd00	-0.08971596
127	0xbd5f044f	-0.05444747
128	0xbd1b270f	-0.037879046
129	0xbdf7f0cf	-0.121064775
130	0xbd3dad04	-0.04630758
131	0x3ccbf284	0.024895914
132	0xbdbbe6ff	-0.091749184
133	0xbd4543fe	-0.048160546
134	0xbb07ded2	-0.0020732176
135	0xbe10c162	-0.1413627
136	0xbe5bbdee	-0.21459171
137	0xbe4ce076	-0.200075
138	0xbdd17478	-0.10227293
139	0xbdfb25f8	-0.12263101
140	0xbe6b183f	-0.22958468
141	0xbe620282	-0.22071269
142	0xbe50a82f	-0.20376657
143	0xbe82fd7c	-0.25584018
144	0x3da1f9ed	0.07908998
145	0x3d9c5955	0.07634226
146	0xbcf21e7a	-0.029555548
147	0x3dc1f6a7	0.09470873
148	0xbbb79894	-0.0056029055
149	0x3c94d8c8	0.018169776
150	0x3d8efd6d	0.06981931
151	0x3b7823d2	0.0037863147
152	0xbc84b22d	-0.016198242
153	0xbe466ee1	-0.19378234
154	0xbe50e38c	-0.20399302
155	0xbe7067ad	-0.23477049
156	0xbe394b1d	-0.1809506
157	0xbe1a4748	-0.15066254
158	0xbe2bb40b	-0.167679
159	0xbe2621c2	-0.16223815
160	0xbe34695d	-0.17618318
161	0xbe676bda	-0.22599736
162	0x3d967fc8	0.07348591
163	0x3db55d81	0.08855725
164	0x3d3e57c9	0.046470437
165	0xbc96beb3	-0.01840148
166	0xbcb2861b	-0.021792462
167	0xbc2e44b5	-0.010636498
168	0x3d45532f	0.048175033
169	0xbcf1dc6f	-0.029524056
170	0xbc9c4c7c	-0.01907944
171	0x3ad28eef	0.0016064326
172	0xbd022005	-0.031768817
173	0xbd83c698	-0.06434363
174	0x3c774061	0.015091033
175	0x3c726dff	0.014796733
176	0xbd8ebbb6	-0.06969397
177	0xbd36e805	-0.044654865
178	0xbcca3086	-0.02468134
179	0xbd731a99	-0.059351537
180	0x3dbe6e99	0.092984386
181	0x3b495a7b	0.0030724097
182	0xbc633dc6	-0.013869708
183	0x3da96f07	0.0827313
184	0xbc3bd9ef	-0.011465534
185	0xbc2b405b	-0.010452355
186	0x3d8a0fce	0.06741296
187	0xbce33c63	-0.027738756
188	0xbd5deafc	-0.054179177
189	0x3d2becdf	0.041973945
190	0xbd1bbcd8	-0.038021892
191	0xbcfe2072	-0.03102133
192	0xba7775d0	-0.00094398577
193	0xbccbbe43	-0.024870997
194	0xbd4f528e	-0.05061584
195	0x3cddc755	0.027072588
196	0xbc7af781	-0.015317799
197	0x3b620c5d	0.0034492232
198	0x3d197d3b	0.037472945
199	0xbd2bf748	-0.041983873
200	0x3ca28784	0.01984001
201	0xbd00f9fc	-0.031488404
202	0xbb63233f	-0.003465846
203	0xbd14fc6c	-0.03637354
204	0x3dd086f4	0.1018199
205	0xbc5c4a6f	-0.013445481
206	0xb9f555bb	-0.00046793916
207	0xbdb569fa	-0.08858104
208	0xbd3d52aa	-0.046221413
209	0xbdc2a822	-0.09504725
210	0xbda9e0b3	-0.08294811
211	0xbd18b38c	-0.037280604
212	0xbcf980a6	-0.030456852
213	0xbc93c8f1	-0.018040152
214	0xbd263003	-0.04057313
215	0xbdb7eca0	-0.089806795
216	0xbe13abac	-0.14420956
217	0xbe160799	-0.14651336
218	0xbe53e5fb	-0.206932
219	0xbe0fcedd	-0.14043756
220	0xbd94cde3	-0.07265832
221	0xbe0a1beb	-0.13487212
222	0xbd89cdde	-0.06728719
223	0xbdd3cada	-0.10341425
224	0xbdc3eb02	-0.095663086
225	0x3d18647d	0.037205208
226	0x3dbe07a9	0.09278805
227	0x3da6bafb	0.081411324
228	0x3cae770d	0.021297002
229	0x3c957edb	0.018248966
230	0xbd47f7d1	-0.04882032
231	0x3b7065a6	0.003668168
232	0xbcf478ec	-0.029842816
233	0xbc71ae28	-0.014750995
234	0x3cf85d3b	0.030317893
235	0x3b08336e	0.0020782608
236	0x3ddb19a7	0.10698252
237	0xbd7e8165	-0.06213512
238	0x3dcad244	0.09903386
239	0xb858078a	-5.1505434e-05
240	0x3d0ae33f	0.033908125
241	0x3d24e45b	0.04025684
242	0x3d81d595	0.06339566
243	0x3d2b7ae4	0.041865245
244	0x3c9ac444	0.018892415
245	0x3c0b9d40	0.008521378
246	0xbda2d8a4	-0.07951477
247	0x3b8e07a9	0.0043344093
248	0xbc8c5769	-0.017131524
249	0xbd688114	-0.056763723
250	0xbd9b1a37	-0.075733595
251	0xbc63f3be	-0.013913093
252	0xbdf594ad	-0.11991248
253	0xbe0be90e	-0.13663122
254	0xbe5488eb	-0.20755355
255	0xbd66d6b3	-0.056357097

classifier.layer1.0.bias f4 [32]
0	0x3c150db5	0.009097506
1	0xbd2b0ce2	-0.041760333
2	0xbc8f93c7	-0.01752652
3	0x3d404608	0.046941787
4	0x3cde74dd	0.027155334
5	0xbbf5f2fc	-0.0075057726
6	0xbce0c4c8	-0.027437583
7	0xbd40d3a3	-0.047076833
8	0xbcfd0840	-0.030887723
9	0x3bfeadaa	0.007772167
10	0x3cf43e8e	0.029814985
11	0x3c1127a3	0.008859548
12	0xbaf987c1	-0.001903765
13	0x3c6d40e5	0.014480804
14	0xbc246c21	-0.010035546
15	0xbcc185f9	-0.023623453
16	0x3ca5569c	0.0201829
17	0xbc061dc0	-0.008185804
18	0x3baf0cbc	0.005342094
19	0xbcfc160e	-0.030772235
20	0x3d0b3f97	0.03399619
21	0x3d2a9ff8	0.041656464
22	0xbd26b803	-0.04070283
23	0xbc636ac5	-0.013880436
24	0x3c813c1c	0.015775733
25	0x3bfc7fba	0.007705656
26	0xbcacf0fe	-0.021111008
27	0x3d0e6949	0.034768376
28	0xbc9217bb	-0.017833581
29	0x3b419e61	0.0029543864
30	0xb9bfd525	-0.00036589164
31	0xbc54aaa7	-0.01298014

classifier.layer1.1.weight f4 [32]
0	0x3f62d960	0.8861294
1	0x3f8765cc	1.0577941
2	0x3f86825a	1.050853
3	0x3f5e7828	0.86902094
4	0x3f8e884e	1.1135347
5	0x3f71bdae	0.94430053
6	0x3f63df2b	0.890124
7	0x3f818eae	1.0121667
8	0x3f83a01d	1.0283238
9	0x3f806e42	1.0033648
10	0x3f564a12	0.8370677
11	0x3f84d030	1.0376034
12	0x3f7fab12	0.9987041
13	0x3f70aa53	0.94009894
14	0x3f775f58	0.9662986
15	0x3f8a41c0	1.0801315
16	0x3f7ea66e	0.994727
17	0x3f7a29ce	0.9772004
18	0x3f7a8cab	0.9787089
19	0x3f8ede2a	1.1161549
20	0x3f6a4278	0.91507673
21	0x3f7377b2	0.95104516
22	0x3f89ce86	1.0766151
23	0x3f83e9d3	1.0305732
24	0x3f751247	0.95731014
25	0x3f81122f	1.0083674
26	0x3f734582	0.95027936
27	0x3f7b345a	0.9812676
28	0x3f5d79fb	0.8651425
29	0x3f797292	0.97440445
30	0x3f800b81	1.0003511
31	0x3f6102f3	0.87895125

classifier.layer1.1.bias f4 [32]
0	0xbddd790a	-0.10814102
1	0xbe3f7f36	-0.18700871
2	0xbde6293e	-0.11238335
3	0xbe44ae90	-0.19207215
4	0xbc72b8f3	-0.014814603
5	0x3c99d8de	0.018780168
6	0xbe34ff48	-0.17675507
7	0xbe0644fa	-0.1311225
8	0x3d091426	0.03346648
9	0xbd403124	-0.046921864
10	0xbf0890cb	-0.53345937
11	0xbde8cb5a	-0.11366911
12	0xbe2b4c9a	-0.1672844
13	0xbdaf789b	-0.085679255
14	0xbe920a12	-0.28523308
15	0xbe1fce9a	-0.15606156
16	0xbde80086	-0.11328225
17	0xbe8bf1d9	-0.27332953
18	0xbe0c56de	-0.13705012
19	0xbe0457a0	-0.12924051
20	0xbe451728	-0.19247115
21	0xbe091237	-0.13385855
22	0xbe52859d	-0.20558782
23	0xbe1b1093	-0.15143041
24	0xbce7c58b	-0.028292438
25	0xbe08bba5	-0.1335283
26	0xbce93296	-0.028466504
27	0xbcdc6ab2	-0.026906345
28	0xbe03f941	-0.12888052
29	0xbe485664	-0.19564205
30	0xbe9ae58d	-0.30253258
31	0xbe6720d7	-0.22571121

classifier.layer1.1.running_mean f4 [32]
0	0xbf85f20c	-1.0464492
1	0xc04d70eb	-3.210017
2	0xc08ec72a	-4.461812
3	0xbf78fa93	-0.97257346
4	0xc02e92a2	-2.7276998
5	0xc0b773d8	-5.732891
6	0x3f0faca3	0.561228
7	0xc07bad77	-3.9324625
8	0xc0ad3af1	-5.413445
9	0x3d9847e8	0.0743559
10	0x3fbbcc39	1.4671699
11	0xbf4e565d	-0.8060053
12	0x3f8bc012	1.091799
13	0xc0994217	-4.7893176
14	0xc0f0a7f7	-7.5205035
15	0xbfde3f2a	-1.7363026
16	0x406830bc	3.6279745
17	0xc0aee45b	-5.4653754
18	0x3e2116a5	0.15731294
19	0xc09285ce	-4.5788336
20	0x40041738	2.0639172
21	0xbec3736d	-0.38174
22	0xc08ec1a5	-4.4611382
23	0xbede4bf4	-0.43417323
24	0xc044d5af	-3.0755422
25	0xbfc042df	-1.5020407
26	0xc0395ac8	-2.8961658
27	0xc04c5ae7	-3.1930482
28	0xc05ae214	-3.4200487
29	0xbfa2e7aa	-1.2726948
30	0xc0192d3f	-2.3933866
31	0xc00c9510	-2.196598

classifier.layer1.1.running_var f4 [32]
0	0x404f2da5	3.237161
1	0x40abc0bf	5.3672786
2	0x413f32ba	11.949884
3	0x40943fd8	4.6327934
4	0x4126da1b	10.428248
5	0x41778457	15.46981
6	0x410a5436	8.645559
7	0x40d77817	6.7334094
8	0x417eb617	15.919456
9	0x40ce994a	6.456212
10	0x3fc2685c	1.5188098
11	0x40a485d5	5.141337
12	0x409b7a08	4.8586464
13	0x41596a36	13.58843
14	0x41b5b8c2	22.715214
15	0x4031d9f0	2.7789268
16	0x40917236	4.545192
17	0x4180c493	16.095984
18	0x40b3c197	5.6173816
19	0x416549de	14.330534
20	0x40e78508	7.234989
21	0x40ef9889	7.48737
22	0x40e43856	7.131877
23	0x40566296	3.3497672
24	0x415feafe	13.994871
25	0x40d48104	6.640749
26	0x40d2a204	6.5822773
27	0x410c256f	8.759139
28	0x40f2e129	7.5899854
29	0x4115e394	9.368061
30	0x418112e2	16.13422
31	0x40cb071e	6.344619

classifier.layer2.0.weight f4 [32, 32, 3, 3]
0	0x3dc89dcc	0.09795722
1	0x3c49be66	0.012313461
2	0x3daf86a9	0.08570606
3	0x3d66ef92	0.056380816
4	0x3cac1c20	0.021009505
5	0x3d7e27e1	0.06204975
6	0x3d73237f	0.059360024
7	0x3dde6599	0.10859222
8	0x3d2c206f	0.04202312
9	0xbdc7fad3	-0.09764638
10	0xbdbfdf5a	-0.09368773
11	0xbdca6924	-0.09883335
12	0xbdcfd1ee	-0.10147463
13	0xbe1e478f	-0.15456985
14	0xbe21091a	-0.15726128
15	0xbe081012	-0.1328738
16	0xbe0a2f8f	-0.13494705
17	0xbe4d94bd	-0.2007627
18	0x3d1a0daf	0.037610706
19	0x3d53d27a	0.051714398
20	0x3c94f42e	0.01818284
21	0x3dacb709	0.08433349
22	0x3d02effa	0.03196714
23	0x3d447121	0.04795945
24	0x3dccbf93	0.099974774
25	0x3df72cb5	0.12069074
26	0x3d418a84	0.04725124
27	0x3db60e8c	0.08889493
28	0x3d69e7d7	0.057105865
29	0x3d65022f	0.055910286
30	0x3ddf5c70	0.10906303
31	0x3c924920	0.017857134
32	0x3d983edd	0.07433865
33	0x3d5d6ae3	0.054057013
34	0x3d5a9a3c	0.053369746
35	0x3d7e4361	0.062075976
36	0xbd66dc4c	-0.056362435
37	0xbdd39e58	-0.10332936
38	0xbd3691e0	-0.04457271
39	0xbd2bd684	-0.041952625
40	0xbe0932ba	-0.13398257
41	0xbcec26b8	-0.028827056
42	0xbe13f284	-0.14447981
43	0xbe265c58	-0.16246164
44	0xbd9d532d	-0.0768188
45	0xbd03ab66	-0.03214588
46	0x3b3fc995	0.002926444
47	0xbd41138d	-0.047137786
48	0x3d278c21	0.04090512
49	0x3d5af5c9	0.053457055
50	0xbda2fd31	-0.07958449
51	0xbd7170c5	-0.058945436
52	0xbc8ed3ad	-0.01743492
53	0xbd206b30	-0.039164722
54	0x3c012f44	0.007884804
55	0xbd148fdd	-0.03627001
56	0x3ca98d82	0.020697359
57	0xbcc92bab	-0.024556955
58	0xbd2a0e5c	-0.0415176
59	0xbd91caae	-0.07118736
60	0xbca74b5d	-0.020421678
61	0x3d10bfae	0.03533905
62	0xbdab5971	-0.08366669
63	0x3d91640e	0.07099162
64	0x3d1b0e96	0.037855707
65	0xbc9a8989	-0.01886441
66	0x3d5946de	0.0530461
67	0xbcbde5cf	-0.02318087
68	0x3d2c7fd9	0.042114113
69	0x3d1166b1	0.035498325
70	0xbd45afe2	-0.048263438
71	0xbbac6031	-0.0052604903
72	0xbd48ad03	-0.04899312
73	0x3d3a5324	0.045489445
74	0x3c872b5a	0.016500164
75	0xbd9dae52	-0.076992646
76	0xbb05cfda	-0.0020418079
77	0xbcf96c04	-0.030447014
78	0xbd7e6ab4	-0.06211348
79	0x3d2811b1	0.041032497
80	0xbd0f46cf	-0.034979638
81	0xbc01a00d	-0.007911694
82	0xbcd08029	-0.025451737
83	0xbd494b37	-0.049143996
84	0xbcb0ab4b	-0.021566054
85	0x3b046073	0.002019909
86	0x3cac625e	0.021042999
87	0xbdca5771	-0.098799594
88	0xbdff3ba6	-0.12462549
89	0x3ccb6807	0.024829878
90	0x3bcddb30	0.0062822327
91	0xbd51abc3	-0.051189195
92	0xbde0f228	-0.10983688
93	0xbdd3834f	-0.103277795
94	0xbe02f3f8	-0.12788379
95	0xbdaffa3d	-0.08592651
96	0xbd3511b8	-0.04420635
97	0xbd66797e	-0.056268208
98	0xbe06e3bf	-0.13172816
99	0x3d8be4eb	0.06830772
100	0x3d69eb12	0.057108946
101	0x3d8b7bba	0.06810708
102	0x3d5f5cca	0.05453185
103	0x3dc0c4ba	0.094125226
104	0x3d9b371a	0.07578869
105	0x3da03ed4	0.078244835
106	0x3d2d5ff2	0.04232783
107	0x3c903d86	0.017607462
108	0xbca3f4b3	-0.020014143
109	0xbd8e08f8	-0.069353044
110	0xbd7bfed5	-0.061522324
111	0xbbf74edd	-0.007547243
112	0xbe094583	-0.13405423
113	0xbc611ae4	-0.013739321
114	0xbd20dc21	-0.03927243
115	0xbe0f68e5	-0.14004858
116	0xbd223011	-0.03959662
117	0x3cd2a5ed	0.025713885
118	0x3d7370ea	0.059433855
119	0xbc9c6238	-0.019089803
120	0x3d160e4f	0.03663474
121	0x3dd83e5a	0.105587676
122	0xbce90be3	-0.02844805
123	0x3a825727	0.0009944186
124	0xbcc177c6	-0.023616683
125	0xbd8020d2	-0.0625626
126	0xbbc04efa	-0.0058687897
127	0xbd438e23	-0.047742974
128	0xbb6e3a28	-0.0036350582
129	0xbd7fa136	-0.062409602
130	0xbd876410	-0.06610882
131	0x3d6ffb4c	0.058589265
132	0xbdc40d56	-0.09572856
133	0xbd8cd49d	-0.0687649
134	0x3b84fe49	0.0040586335
135	0xbdcc424e	-0.09973584
136	0xbd8bb73b	-0.06822058
137	0xbe50a15d	-0.20374055
138	0xbe183eca	-0.14867702
139	0xbe30f6d9	-0.17281665
140	0xbe551699	-0.20809402
141	0xbdee1bed	-0.1162642
142	0xbe19564f	-0.1497433
143	0xbe21f5ba	-0.15816393
144	0xbc1fbd75	-0.00974976
145	0xbd3fd85c	-0.046837196
146	0xbd8331f3	-0.064060114
147	0x3ba3066d	0.0049751312
148	0xbdc4a9b3	-0.0960268
149	0xbd4b29eb	-0.049600523
150	0xbb6ea0fb	-0.003641187
151	0xbd1b8793	-0.03797109
152	0x3c687281	0.014187456
153	0xbd57e12d	-0.05270498
154	0xbd32922d	-0.043596435
155	0xbcc980ff	-0.024597643
156	0xbd44b71e	-0.048026197
157	0xbd14814b	-0.036256116
158	0x3c522a52	0.012827473
159	0xbda8b7d2	-0.08238186
160	0xbdd7938d	-0.1052619
161	0xbdab12f8	-0.083532274
162	0xbd705444	-0.058674112
163	0xbc9563fd	-0.018236155
164	0x3c834ce3	0.016027873
165	0xbd828bda	-0.06374331
166	0x3d4efaa5	0.050532002
167	0xbcb78064	-0.022400089
168	0xbd375adb	-0.04476438
169	0xbca725d2	-0.020403776
170	0xbd0ecbd7	-0.034862366
171	0xbd7586d6	-0.059943043
172	0x3ca1a0fb	0.019730082
173	0xbdf32da0	-0.11873937
174	0xbd5ab437	-0.053394523
175	0xbc31e227	-0.010857142
176	0xbdc059cd	-0.09392128
177	0xbbe7aaf4	-0.0070699397
178	0xbda9df5e	-0.08294557
179	0xbdf82a05	-0.121173896
180	0xbdb0f0b0	-0.086396575
181	0xbd041421	-0.03224576
182	0xbd89fea9	-0.06738026
183	0xbcb46cff	-0.02202463
184	0xbd547260	-0.05186689
185	0xbd332deb	-0.043744963
186	0xbb9e3c60	-0.0048289746
187	0x3d872260	0.065983534
188	0x3be412bb	0.0069602407
189	0xbda2762f	-0.07932698
190	0xbd6e74f7	-0.058217015
191	0xbdaf7ac8	-0.085683405
192	0xbcd3c001	-0.02584839
193	0xbd583e91	-0.052794043
194	0xbdcf320d	-0.10116968
195	0xbdf0ceee	-0.11758219
196	0xbe00afca	-0.12567058
197	0xbd6d8767	-0.057990458
198	0x3d2aded7	0.041716423
199	0x3d55b8fd	0.05217837
200	0x3dc536ce	0.09629594
201	0x3e03b071	0.12860276
202	0x3df73441	0.120705135
203	0x3d4820e1	0.04885948
204	0x3d83e37b	0.06439873
205	0x3da8a60d	0.08234797
206	0x3dd85546	0.105631396
207	0xbde5a94b	-0.11213931
208	0xbe47936d	-0.19489832
209	0xbe30810e	-0.1723673
210	0xbdfcf29e	-0.12350963
211	0xbdd4fda0	-0.10399938
212	0xbe35ef80	-0.17767143
213	0xbe03518a	-0.12824073
214	0xbe274b7f	-0.16337393
215	0xbe15e3c5	-0.14637668
216	0xbd0fee64	-0.035139456
217	0x3c974dd9	0.018469738
218	0xbb2c209c	-0.0026264554
219	0xbcddf296	-0.027093213
220	0x3c63dd7a	0.013907785
221	0xbd15807f	-0.036499497
222	0x3aec4fa7	0.0018029109
223	0xbce287fa	-0.02765273
224	0xbd4192f9	-0.047259305
225	0xbd5b0f6e	-0.05348151
226	0xbc392036	-0.011299184
227	0x3d0419e0	0.03225124
228	0xbd3dcbc2	-0.046336897
229	0xbddbfa2d	-0.107410766
230	0xbd94ed9b	-0.07271882
231	0xbcfa30e4	-0.030540891
232	0xbdb600ca	-0.08886869
233	0xbce8b957	-0.02840869
234	0xbddc67e9	-0.10762007
235	0x3be18ea4	0.006883459
236	0x3d2a3b63	0.04156054
237	0xbdb7c6e0	-0.08973479
238	0xbc6b2ee3	-0.01435444
239	0x3ccf0744	0.02527202
240	0xbde28bb8	-0.110618055
241	0xbdbd974e	-0.09257375
242	0xbd088278	-0.03332755
243	0xbe360c74	-0.17778188
244	0xbe23aec1	-0.15984632
245	0xbde7710c	-0.11300859
246	0xbdd37fe1	-0.10327125
247	0xbdb4e47a	-0.08832641
248	0xbe196925	-0.14981516
249	0xbe45eac2	-0.19327834
250	0xbe4420a7	-0.19153081
251	0xbd9afe63	-0.07568052
252	0xbc820a79	-0.015874134
253	0x3cb37afe	0.021909233
254	0x3db2ddf5	0.08733741
255	0x3c30430a	0.010758171

classifier.layer2.0.bias f4 [32]
0	0xbd231f16	-0.039824568
1	0xbca61cbd	-0.020277375
2	0xbd820e20	-0.063503504
3	0x3cda2e51	0.026633414
4	0xbd420860	-0.04737127
5	0xbd55930a	-0.05214218
6	0x3c0d127d	0.008610365
7	0xbc17f88e	-0.009275569
8	0x3ca0f867	0.019649697
9	0x3d17a68e	0.037024073
10	0xbd254206	-0.040346168
11	0x3d818815	0.06324784
12	0xbc069ea5	-0.008216535
13	0xbc233b64	-0.00996289
14	0x3c215eaf	0.0098492345
15	0xbcbdef75	-0.023185471
16	0xbc5793fd	-0.013157842
17	0x3d082610	0.033239424
18	0xbd34c1a7	-0.044129994
19	0x3d52f307	0.0515013
20	0xbc7b6db2	-0.015345978
21	0xbd1935ec	-0.03740494
22	0xbcfa573b	-0.030559173
23	0x3c3a068d	0.011354101
24	0xbd00a0fe	-0.031403534
25	0xbc8551f2	-0.016274426
26	0x3d0906ed	0.03345387
27	0xbc9694bb	-0.018381467
28	0xbd3a02e6	-0.04541292
29	0x3cf7b361	0.030236902
30	0xbb0dfb2f	-0.002166461
31	0xbc9dea55	-0.019276777

classifier.layer2.1.weight f4 [32]
0	0x3f8c4763	1.0959285
1	0x3f600f6c	0.8752353
2	0x3f8259bb	1.0183634
3	0x3f726ec2	0.94700253
4	0x3f78052e	0.96882904
5	0x3f74fa5b	0.9569451
6	0x3f868089	1.0507976
7	0x3f6cf8a8	0.9256692
8	0x3f805759	1.0026656
9	0x3f66bc02	0.9013063
10	0x3f6e61e3	0.93118113
11	0x3f6bba23	0.920809
12	0x3f78dd0f	0.9721231
13	0x3f677973	0.9041969
14	0x3f81fff9	1.0156242
15	0x3f8b681d	1.0891148
16	0x3f7ee12d	0.9956234
17	0x3f5727f4	0.8404534
18	0x3f77d3f8	0.96807814
19	0x3f7a2e95	0.9772733
20	0x3f74c5d7	0.9561438
21	0x3f70daa8	0.9408364
22	0x3f5f070d	0.87120134
23	0x3f7973f5	0.9744256
24	0x3f7b1d8f	0.9809198
25	0x3f7dbe00	0.9911804
26	0x3f8142a9	1.0098468
27	0x3f8230c3	1.0171131
28	0x3f863ea8	1.0487871
29	0x3f8df493	1.1090263
30	0x3f6b7713	0.9197857
31	0x3f795340	0.97392654

classifier.layer2.1.bias f4 [32]
0	0xbbd9d47e	-0.0066476455
1	0xbc758b43	-0.014986816
2	0xbdb9c7ad	-0.09071288
3	0xbd5d96a4	-0.05409874
4	0xbe2e9124	-0.17047554
5	0xbda0eb2e	-0.07857357
6	0xbe69c729	-0.2282988
7	0xbd9248fa	-0.071428254
8	0xbd73c567	-0.05951443
9	0xbe931dab	-0.28733572
10	0xbe476628	-0.19472563
11	0xbe984609	-0.29740933
12	0xbe17e869	-0.14834751
13	0xbcc48714	-0.023990192
14	0xbda209ac	-0.07912001
15	0xbda419b5	-0.08012716
16	0xbd4a0972	-0.049325414
17	0xbe2e13ab	-0.1699969
18	0xbdff7f6f	-0.12475478
19	0xbc8e3aca	-0.017362017
20	0xbebbca43	-0.3667775
21	0xbe288983	-0.16458707
22	0xbe6dd124	-0.23224312
23	0x3c140983	0.009035471
24	0x3db61fbf	0.08892774
25	0xbe16aa0a	-0.14713302
26	0xbd85e7e2	-0.06538369
27	0xbe33fb93	-0.17576437
28	0xbc60d7f5	-0.013723363
29	0x3b8f666d	0.004376224
30	0xbe70c1f8	-0.23511493
31	0xbe231d27	-0.1592909

classifier.layer2.1.running_mean f4 [32]
0	0xc022c966	-2.5435424
1	0xbe8fdaf3	-0.28096732
2	0xc013d4ca	-2.3098626
3	0xbfa23ceb	-1.2674841
4	0xbfaf1caf	-1.3680629
5	0xbec2148d	-0.37906304
6	0x3f20ecea	0.628615
7	0xbf83395f	-1.0251883
8	0xbe39f81e	-0.18161055
9	0x402e24c1	2.7209933
10	0xbf956214	-1.1670556
11	0xbfc46fb5	-1.534659
12	0xbfe183eb	-1.7618383
13	0xbf7843c8	-0.96978426
14	0xc02edac1	-2.7321017
15	0x3d82b8e5	0.06382922
16	0x3e95cf7a	0.29259855
17	0xbfda08cd	-1.7033936
18	0xbf1c869c	-0.611429
19	0x3f4d4347	0.8018078
20	0xbfbbe6b3	-1.4679779
21	0x3e848325	0.25881305
22	0x3eea6dc0	0.45786858
23	0xbeddcaaa	-0.43318683
24	0x3f6fcc24	0.9367087
25	0x40095263	2.1456535
26	0xbf5251d0	-0.82156086
27	0xbeacaf91	-0.33727697
28	0xbff13909	-1.8845531
29	0xbfdebf5b	-1.7402147
30	0xbebae77d	-0.36504737
31	0xbf089719	-0.53355557

classifier.layer2.1.running_var f4 [32]
0	0x4025437c	2.582244
1	0x3fff69f7	1.9954213
2	0x3fcc6a56	1.5969951
3	0x3fea2791	1.8293325
4	0x3fbd49d7	1.4788159
5	0x404322f1	3.0490077
6	0x3eff1bda	0.49825937
7	0x40090f6b	2.141566
8	0x3f5a7e20	0.853487
9	0x40021615	2.0325978
10	0x3fecb479	1.8492576
11	0x3f25fcb5	0.64838725
12	0x401ab77e	2.4174495
13	0x402aef08	2.6708393
14	0x4080b5ff	4.0222163
15	0x40823836	4.0693617
16	0x3fc7c68f	1.560747
17	0x3ff8e88f	1.9445971
18	0x400de0eb	2.216853
19	0x3fc80ded	1.562925
20	0x3f11bcb9	0.5692859
21	0x3fa9cfca	1.3266537
22	0x3f699458	0.9124198
23	0x4022de6a	2.544825
24	0x3ff1d1d7	1.8892163
25	0x404c1304	3.1886606
26	0x3f9caef2	1.2240889
27	0x403077c5	2.7573102
28	0x403ddbef	2.9665487
29	0x3ffe568c	1.9870162
30	0x3fd23fb2	1.6425688
31	0x3ff1ae65	1.8881346

classifier.layer3.0.weight f4 [32, 32, 3, 3]
0	0xbde92d9e	-0.11385654
1	0xbd435c34	-0.047695354
2	0xbdc6beb1	-0.0970434
3	0xbd8ac82b	-0.0677646
4	0xbad32a3a	-0.0016110607
5	0xbd22dfff	-0.0397644
6	0xbd9d0fbe	-0.07669018
7	0xbba9c44d	-0.0051808716
8	0xbe12e263	-0.14344172
9	0xbb261293	-0.002534066
10	0x3cbae1da	0.022812773
11	0xbd3525f5	-0.04422565
12	0x3cb6f286	0.022332441
13	0x3d42da4c	0.047571465
14	0x3d31a2a5	0.043368
15	0xbdf1a402	-0.1179886
16	0xbcd2b51c	-0.025721125
17	0xbdd452d3	-0.1036736
18	0x3d9f3bf0	0.07775104
19	0x3dc59e83	0.09649374
20	0x3d5dc33b	0.054141264
21	0x3d8f4742	0.06996013
22	0x3cede3d7	0.029039307
23	0xbcb6369c	-0.022242837
24	0x3d7bdb6e	0.06148856
25	0x3db2ef78	0.08737081
26	0xbcdc7c52	-0.02691475
27	0x3ce430d2	0.02785531
28	0x3c0a2f68	0.008434154
29	0xbc996942	-0.018726949
30	0x3d0e9d8f	0.03481823
31	0x3d348d9d	0.044080365
32	0xbce77a9f	-0.028256712
33	0xbc2e0c2d	-0.01062302
34	0xbcec177c	-0.028819792
35	0xbd61748d	-0.055042792
36	0x3d8f9863	0.07011487
37	0x3dc8ffe6	0.09814434
38	0x3da42415	0.080146946
39	0x3d2e9378	0.042621106
40	0x3e00f1ec	0.12592286
41	0x3daecfcd	0.085357286
42	0xbc9ea3b7	-0.019365175
43	0x3d3e4e91	0.046461646
44	0x3cfea206	0.031083118
45	0xbcfc6d91	-0.030813964
46	0xbdf022d2	-0.117253914
47	0xbdf3a15e	-0.11896013
48	0xbd3f188c	-0.04665427
49	0xbcd0d43f	-0.025491832
50	0xbd3eb10e	-0.04655557
51	0xbd443b3f	-0.047908064
52	0x3c5fb869	0.013654807
53	0x3cb03af7	0.021512492
54	0xbd54ae20	-0.05192387
55	0xbdf9443a	-0.12171216
56	0xbda54fc7	-0.08071857
57	0xbda9a14b	-0.08282717
58	0xbc07dc8c	-0.008292329
59	0xbda01901	-0.07817269
60	0xbdbfa248	-0.093571246
61	0xbdd6a3e8	-0.104804814
62	0xbda14def	-0.07876193
63	0xbcd4fe60	-0.026000202
64	0xbd840b4e	-0.06447469
65	0xbd16bcd3	-0.03680117
66	0xbcb4a7ec	-0.022052728
67	0xbd449350	-0.04799205
68	0xbd526c9f	-0.05137312
69	0xbd731bd0	-0.059352696
70	0xbdb59b78	-0.08867544
71	0x3bebaf06	0.0071924953
72	0xbd64df67	-0.055877116
73	0x3c5622ee	0.013069851
74	0xbcd0b33f	-0.025476096
75	0x3d14f657	0.03636774
76	0xbd2ef159	-0.042710636
77	0x3cf51daa	0.029921371
78	0xbd303ee5	-0.04302873
79	0x3d31ae98	0.043379396
80	0xbbdac77d	-0.006676613
81	0x3d7cd95e	0.061730735
82	0xb9c26b5f	-0.0003708256
83	0x3d37d089	0.04487661
84	0x3ca7f590	0.020502836
85	0x3c138465	0.009003733
86	0x3d659ab0	0.056055725
87	0x3cb718f2	0.022350762
88	0x3d89d27a	0.06729598
89	0x3d8296c2	0.06376411
90	0x3daf2e4f	0.085537545
91	0x3d77bea2	0.060484536
92	0xbd151f6e	-0.036406927
93	0x3c151402	0.0090990085
94	0xbc5903c3	-0.013245526
95	0xbcc51b3b	-0.024060836
96	0x3d71252b	0.058873337
97	0x3cc76253	0.024338877
98	0x3c3e9ca2	0.011634024
99	0x3db5851c	0.08863279
100	0x3dc300f6	0.09521668
101	0x3d5d4413	0.05402
102	0xba0b0b1c	-0.00053040846
103	0x3d5630c1	0.05229259
104	0x3d55cb51	0.05219585
105	0xbd556d4d	-0.05210619
106	0xbd050505	-0.03247549
107	0x3d4ec211	0.050478045
108	0xbd334794	-0.043769434
109	0xbbf2793e	-0.007399707
110	0xbd2af8b3	-0.041741084
111	0xbcb69b8d	-0.02229097
112	0x3cc91161	0.02454442
113	0x3cdeca24	0.027195998
114	0x3cfe8573	0.031069493
115	0x3d66010e	0.05615335
116	0x3cf8438e	0.03030565
117	0xbdb87e9f	-0.09008526
118	0xbd96ef19	-0.07369823
119	0x3a1b058f	0.0005913609
120	0xbdcdca5e	-0.10048364
121	0xbcdd6555	-0.027025858
122	0xbd7ece46	-0.062208436
123	0xbd302732	-0.04300613
124	0xbac55012	-0.001505377
125	0x3c3a0636	0.01135402
126	0xbd362d0f	-0.044476565
127	0xbdc31629	-0.09525711
128	0xbdffd28a	-0.12491329
129	0xbd5b65db	-0.053563934
130	0xbdbf106b	-0.09329303
131	0xba87f311	-0.0010372122
132	0xbdb3e894	-0.08784595
133	0xbd00226c	-0.031282827
134	0x3cb4d03f	0.022071956
135	0x3b51388d	0.0031924576
136	0x3c961042	0.0183183
137	0xbd2d9ac2	-0.042383917
138	0x3cfa202f	0.030532924
139	0x3d89d088	0.06729227
140	0xbb382d74	-0.0028103264
141	0xbd2c761d	-0.04210483
142	0xbcc2ed3a	-0.023794759
143	0xbd1f1707	-0.03884032
144	0xbd58b6e6	-0.0529088
145	0xbd9dbae1	-0.0770166
146	0x3cad9a98	0.02119188
147	0xbdc20b27	-0.094747834
148	0xbde92428	-0.113838494
149	0xbd100722	-0.035163052
150	0xbd0f50fd	-0.034989346
151	0xbd861fa8	-0.06549007
152	0xbd674182	-0.056458957
153	0x3c5dffac	0.013549726
154	0x3b967a8a	0.0045922445
155	0xbce4eef4	-0.027945973
156	0xbd7fb59e	-0.062429063
157	0x3c1f7fc4	0.009735052
158	0x3d56120b	0.0522633
159	0xbced8152	-0.028992329
160	0x3c8b1693	0.016978538
161	0x3d5f3d3f	0.05450177
162	0xbd90896f	-0.070574634
163	0xbbe74a6d	-0.007058433
164	0xbaca57af	-0.0015437509
165	0xbdb37ce2	-0.08764054
166	0xbb622281	-0.003450543
167	0xbd74fc4a	-0.059810914
168	0xbda2d318	-0.07950419
169	0xbd141f34	-0.03616257
170	0xbd26c753	-0.040717434
171	0x3d20289c	0.039101228
172	0x3ce91c52	0.028455887
173	0xbb148891	-0.0022664408
174	0x3d8541bb	0.06506678
175	0x3da0edf3	0.07857885
176	0x3d85e00c	0.06536874
177	0x3bf79da0	0.007556632
178	0x3d90b0bf	0.07064962
179	0x3da7e101	0.08197213
180	0x3e181ffc	0.14855951
181	0x3e19e643	0.15029244
182	0x3e367b5f	0.178205
183	0x3e371536	0.17879185
184	0x3df1dd04	0.118097335
185	0x3df07fb8	0.117431104
186	0x3e1e64ce	0.15468141
187	0x3e302401	0.17201234
188	0x3df9c966	0.12196617
189	0xbd0b240f	-0.033969935
190	0xbd6f1b50	-0.058375657
191	0x3c6c93f4	0.014439572
192	0x3b9c10b4	0.0047627334
193	0xbd72cf64	-0.059279814
194	0xbd809869	-0.0627907
195	0xbdbfecd0	-0.0937134
196	0xbccd9e9b	-0.025100043
197	0xbda64fe6	-0.08120708
198	0xbde2032d	-0.11035762
199	0xbe034587	-0.12819491
200	0xbd204c30	-0.039135158
201	0xbde4f9b6	-0.11180441
202	0xbdfe89c4	-0.124286205
203	0xbd23700b	-0.039901774
204	0xbcb63935	-0.022244075
205	0xbd428489	-0.047489677
206	0x3be21b5c	0.006900234
207	0xbda6d243	-0.08145573
208	0xbd12a428	-0.035801083
209	0xbda14d42	-0.07876064
210	0xbd27efc2	-0.041000135
211	0xbd86619e	-0.06561588
212	0xbd795627	-0.060873177
213	0xbd861dd0	-0.06548655
214	0xbd841b3c	-0.06450507
215	0x3b7eb466	0.003886485
216	0xbdb7c1cc	-0.08972511
217	0xbd19e28d	-0.03756957
218	0xbd8eae08	-0.069667876
219	0xbd4f7b66	-0.05065479
220	0xbd0b476d	-0.034003664
221	0xbce9fd53	-0.028563177
222	0xbd3acb01	-0.045603756
223	0xbd84bc8f	-0.06481277
224	0x3c91296d	0.017719949
225	0x3e1cbe59	0.15306987
226	0x3e26b5fd	0.1628036
227	0x3d21b24b	0.039476674
228	0x3d99ae1e	0.07503913
229	0x3e212734	0.15737611
230	0x3e0e2844	0.13882548
231	0x3d58e46c	0.052952215
232	0x3e06d2d2	0.13166359
233	0x3dc3bb8e	0.095572576
234	0x3ce7b369	0.028283792
235	0x3c53c26a	0.01292477
236	0xbda58e02	-0.080837265
237	0x3cf3efa6	0.02977736
238	0xbd524b21	-0.05134118
239	0xbdc9671c	-0.0983412
240	0xbcdcf83a	-0.026973832
241	0xbd899018	-0.06716937
242	0xbd073e58	-0.03301844
243	0xbc89c2c0	-0.016816497
244	0x3b757de1	0.0037459063
245	0xbdc91181	-0.09817792
246	0xbd448de4	-0.04798688
247	0xbd0b4304	-0.033999458
248	0xbd8ce184	-0.06878951
249	0xbd56a999	-0.052407835
250	0xbdea8504	-0.11451152
251	0xbdd40eb9	-0.103543706
252	0xbda5b78f	-0.08091652
253	0xbc04e266	-0.008110618
254	0xbd55e4f9	-0.05222032
255	0xbd2f63f8	-0.042819947
