model/Experiment/Frequency_50epoch.pt (torch, 448512 bytes, 68 tensors)

module.conv1.weight f4 [64, 3, 3, 3]
0.19536442 0.2088823 0.022564884 0.069987744 0.30436605 -0.033096604 0.02747461 0.36268857
0.27208862 -0.10288549 -0.11617176 -0.07319809 -0.12667915 -0.06295532 -0.03846782 -0.022400284
-0.0061361277 -0.18937196 -0.10590413 -0.080611214 0.0652059 0.03330418 -0.17095478 0.021453198
-0.033757027 -0.22439964 -0.14713168 0.08850436 -0.13261957 0.067077376 -0.022991735 0.29903072
-0.10489884 -0.222828 0.290478 -0.068739064 -0.24075697 -0.08353152 0.009892654 0.22662874
-0.18557455 -0.20859362 0.11270792 -0.20960541 -0.14493968 0.10082898 0.048725035 -0.10763962
-0.0068796775 -0.06830967 0.2852269 0.21582282 0.037694275 0.11563331 -0.1554316 0.0033721267
-0.11549928 -0.048048567 0.059868243 0.1289515 -0.22149658 0.12960646 -0.1606966 -0.113076724
0.009064435 0.22502463 0.018245338 -0.06580839 -0.043301348 0.48539492 0.074730314 0.14051133
0.3504 -0.08937055 -0.11795199 0.016907021 0.01524404 -0.09676103 -0.1479186 -0.2185325
-0.03443212 -0.087944105 -0.18024206 0.14275172 0.12884615 0.059982114 -0.07020872 -0.22999448
-0.038884185 -0.06760796 0.14079666 -0.1468689 0.16121818 0.13222402 -0.16107257 -0.021342007
-0.2609212 -0.04656882 0.05306326 0.24377485 -0.14201649 -0.117677644 -0.10984641 0.1009047
0.1718486 0.054919578 0.36667448 0.011569258 -0.0002405625 0.031212596 -0.10620806 0.20973594
0.08135617 -0.06354464 -0.0004954277 0.09775003 0.08174401 -0.21572253 -0.04852966 -0.15476027
-0.11384927 -0.044339962 -0.050441585 0.05754219 -0.13302381 -0.15323904 0.24048103 -0.16329558
0.45319077 0.00637264 -0.018808989 0.03955025 -0.09147214 0.19697621 -0.021085065 0.06560223
-0.036727954 0.05448104 0.109446295 -0.12552817 0.22326754 -0.0761013 -0.16374473 -0.1982229
-0.11537425 0.034647275 0.04011022 -0.056189496 -0.14960791 -0.16589902 -0.123558685 -0.018595926
-0.21458195 0.38748392 -0.09112961 -0.02214401 0.16612351 0.095529556 0.2704017 0.12964903
-0.011004028 -0.14065164 -0.044571 0.047669522 -0.06117079 0.10409161 0.28100654 0.040314604
-0.089020334 -0.18294697 -0.015944218 0.22900946 -0.0571673 0.15097784 -0.076305285 -0.25835684
-0.07198296 0.004222283 -0.109747544 0.39772153 -0.16052096 -0.098522715 0.15899308 -0.06976771
0.08896808 -0.085701756 -0.04957328 0.050951295 -0.043748006 0.12626147 -0.08787885 -0.16038716
0.032964747 0.2108841 0.19051784 0.08849542 -0.15283988 0.16437577 -0.13743898 -0.08990501
-0.1846639 -0.21193163 -0.21586753 -0.10663488 0.042831462 0.15266976 0.35290638 0.1129863
-0.12903774 -0.04837147 -0.20866555 0.0015776384 -0.13943495 0.13519253 -0.038505953 0.1848265
0.053139437 -0.14365552 0.17478351 -0.15780632 0.36221412 -0.16405466 0.30329916 0.011501332
0.020619735 0.082114846 0.021584725 0.054808635 0.06744022 -0.15890399 0.041497245 -0.24686463
-0.093517534 -0.11373564 0.3144628 -0.16799212 -0.14607099 0.016899511 -0.077889815 0.044036165
-0.064912304 -0.09866684 0.0907553 0.028805781 -0.18204606 0.07406389 -0.018980974 0.064176604
-0.11723018 0.08043461 0.38857388 0.14368598 0.1371215 0.07236784 -0.20574588 0.046477687
00000000: 9c0d 483e 3ee5 553e fed9 b83c bc55 8f3d
00000010: ded5 9b3e 4e90 07bd 6f12 e13c 51b2 b93e
00000020: 334f 8b3e a1b5 d2bd 76eb edbd e1e8 95bd
00000030: 2eb8 01be b8ee 80bd 6f90 1dbd cd80 b7bc
00000040: 9211 c9bb b9ea 41be 44e4 d8bd 7e17 a5bd
00000050: ac8a 853d f769 083d c50e 2fbe 9ebe af3c
00000060: cf44 0abd 05c9 65be b0a9 16be c641 b53d
00000070: 6dcd 07be dd5f 893d 2a59 bcbc 8e1a 993e
00000080: 34d5 d6bd 062d 64be 88b9 943e 11c7 8cbd
00000090: ff88 76be 9312 abbd cc14 223c 5d11 683e
000000a0: 4107 3ebe 9199 55be 69d3 e63d cda2 56be
000000b0: 116b 14be 6d7f ce3d e793 473d 2972 dcbd
000000c0: eb6e e1bb f1e5 8bbd 4309 923e a800 5d3e
000000d0: 5065 1a3d 28d1 ec3d 7629 1fbe e6fe 5c3b
000000e0: e38a ecbd 93ce 44bd 6738 753d dd0b 043e
000000f0: 00d0 62be 8eb7 043e a68d 24be c594 e7bd
00000100: ff82 143c db6c 663e 3f77 953c 8dc6 86bd
00000110: c15c 31bd af85 f83e 350c 993d 34e2 0f3e
00000120: a167 b33e e807 b7bd d090 f1bd 9880 8a3c
00000130: 23c2 793c a62a c6bd f977 17be fcc6 5fbe
00000140: b208 0dbd 0a1c b4bd 6091 38be 822d 123e
00000150: 3ff0 033e ceaf 753d 97c9 8fbd ac83 6bbe
00000160: 0645 1fbd 0b76 8abd 002d 103e cd64 16be
00000170: 6116 253e bc65 073e 35f0 24be 6fd5 aebc
00000180: 7797 85be f2be 3ebd dc58 593d 1da0 793e
00000190: c56c 11be fa00 f1bd 28f7 e0bd 20a7 ce3d
000001a0: 14f9 2f3e 5af3 603d c2bc bb3e fc8c 3d3c
000001b0: 813f 7cb9 8fb1 ff3c 9d83 d9bd 05c5 563e
000001c0: 109e a63d b123 82bd 97df 01ba 2b31 c83d
000001d0: 6769 a73d 5ee6 5cbe 09c7 46bd 7a79 1ebe
000001e0: ce29 e9bd d29d 35bd d69b 4ebd 5cb1 6b3d
000001f0: 6537 08be b2ea 1cbe a940 763e f536 27be
00000200: 9f08 e83e 94d1 d03b 4f15 9abc 71ff 213d
00000210: bf55 bbbd 22b4 493e 96ba acbc 765a 863d
00000220: 0d70 16bd 8327 5f3d 6125 e03d 758a 00be
00000230: 3fa0 643e 00db 9bbd b3ac 27be f2fa 4abe
00000240: 5649 ecbd 4dea 0d3d 9d4a 243d f526 66bd
00000250: d132 19be 6fe1 29be 560c fdbd 7c56 98bc
00000260: 5fbb 5bbe 4b64 c63e 29a2 babd 5b67 b5bc
00000270: 481c 2a3e 00a5 c33d 1772 8a3e b7c2 043e
00000280: 3d4a 34bc fc06 10be 1590 36bd 1e41 433d
00000290: 398e 7abd fb2d d53d 17e0 8f3e ed20 253d
000002a0: 4b50 b6bd 7356 3bbe 739d 82bc 7581 6a3e
000002b0: 4228 6abd ef99 1a3e f245 9cbd 5947 84be
000002c0: cd6b 93bd 145b 8a3b 52c3 e0bd 28a2 cb3e
000002d0: 9b5f 24be 47c6 c9bd 15cf 223e 60e2 8ebd
000002e0: e634 b63d 6784 afbd 5a0d 4bbd 4eb2 503d
000002f0: 1c31 33bd b04a 013e d4f9 b3bd 883c 24be
00000300: 0b06 073d 00f2 573e 1c17 433e 163d b53d
00000310: 0f82 1cbe 1f52 283e cebc 0cbe 1e20 b8bd
00000320: 8918 3dbe 9b04 59be 610c 5dbe 6363 dabd
00000330: 0b70 2f3d 7655 1c3e 25b0 b43e 5c65 e73d
00000340: 7822 04be 2a21 46bd 6cac 55be c3c8 ce3a
00000350: 09c8 0ebe e96f 0a3e 6bb8 1dbd 2843 3d3e
00000360: bda8 593d 6f1a 13be 73fa 323e fb97 21be
00000370: 2174 b93e f2fd 27be 074a 9b3e 1570 3c3c
00000380: b8ea a83c d42b a83d 73d2 b03c 057f 603d
00000390: 191e 8a3d bab7 22be 04f9 293d 15ca 7cbe
000003a0: 1f86 bfbd 3bee e8bd 4501 a13e 2006 2cbe
000003b0: a293 15be d870 8a3c b284 9fbd 445f 343d
000003c0: bef0 84bd d711 cabd eadd b93d 1afa eb3c
000003d0: 486a 3abe cfae 973d fd7d 9bbc 066f 833d
000003e0: 6016 f0bd e7ba a43d 28f3 c63e 6b22 133e
000003f0: 9469 0c3e 9735 943d 0caf 52be 635f 3e3d

module.conv1.bias f4 [64]
-0.0853874 0.0045682276 -0.068092495 -0.24046303 0.15098368 -0.0951192 -0.11878033 0.004847929
-0.043556284 -0.19559325 0.15397026 0.066435374 0.016715856 -0.059416924 0.05246955 -0.012199488
-0.14884003 -0.2079332 -0.08510151 0.0996811 0.15624733 0.25388315 0.022538442 0.005474512
-0.11414543 -0.04671474 0.029977595 0.061278284 0.041667193 0.16009894 0.032650903 0.2444898
-0.1405915 -0.09491133 0.10058759 -0.11848824 -0.07149852 -0.115595676 0.21417744 -0.023730712
0.10210321 -0.117399074 -0.04907392 0.114775896 -0.19845599 -0.040163018 0.17578018 0.16668418
-0.019718794 0.070904285 -0.08015345 0.083816774 -0.12929592 0.011058431 0.15432546 0.16403098
-0.07529709 -0.1562805 0.023851758 0.099200614 -0.19605388 -0.13654847 0.00091370265 -0.114086606
00000000: 97df aebd 12b1 953b 1474 8bbd f13b 76be
00000010: 779b 1a3e dbcd c2bd 1a43 f3bd 60db 9e3b
00000020: 1368 32bd 9949 48be 61aa 1d3e 450f 883d
00000030: b1ef 883c 295f 73bd 50ea 563d 5ce0 47bc
00000040: 8569 18be 71ec 54be b349 aebd 9b25 cc3d
00000050: 4dff 1f3e f9fc 813e 8aa2 b83c 8963 b33b
00000060: 14c5 e9bd f557 3fbd 9393 f53c f0fe 7a3d
00000070: 38ab 2a3d faf0 233e f4bc 053d 895b 7a3e
00000080: 38f7 0fbe df60 c2bd de00 ce3d f6a9 f2bd
00000090: d16d 92bd 6dbd ecbd 5551 5b3e e966 c2bc
000000a0: 7d1b d13d ed6e f0bd bc01 49bd a00f eb3d
000000b0: 0c38 4bbe fa81 24bd b8ff 333e 42af 2a3e
000000c0: 4f89 a1bc 4436 913d 7e27 a4bd 21a8 ab3d
000000d0: 2666 04be 6c2e 353c 7e07 1e3e bdf7 273e
000000e0: 5c35 9abd ff07 20be c364 c33c b129 cb3d
000000f0: 59c2 48be 5dd3 0bbe 8c85 6f3a 3da6 e9bd

module.BN.weight f4 [64]
0.91060454 0.770138 0.96300894 0.79433775 0.8267729 0.7757504 0.6926007 0.8336607
0.8599674 0.91430455 0.8209272 0.8604153 0.7950926 0.81544346 0.80846417 1.3604715
0.90565115 1.2857825 1.3244071 0.9331732 0.85501957 0.88461757 0.8778135 1.0189993
0.91423124 1.3175489 0.83155245 0.88265145 0.7475777 0.9092933 1.3688295 0.9765144
0.87373894 0.80220747 0.98999995 1.1120127 0.78121746 1.0098269 0.89714736 0.8278123
0.7327374 0.8825965 1.3447162 0.8957128 0.8893551 0.8617603 0.85374844 1.0664256
0.87900114 0.79312766 0.7349745 0.9135008 0.89224684 1.1999676 0.8060642 1.1063665
0.94291997 1.0035487 1.0977798 1.0410582 1.4061105 0.9362924 0.964321 0.7803156
00000000: 611d 693f c427 453f c187 763f b859 4b3f
00000010: 64a7 533f 9497 463f 484e 313f ca6a 553f
00000020: d326 5c3f dd0f 6a3f 4928 523f 2d44 5c3f
00000030: 308b 4b3f e7c0 503f 82f7 4e3f ee23 ae3f
00000040: c1d8 673f 8594 a43f 2c86 a93f 70e4 6e3f
00000050: 90e2 5a3f 4c76 623f 63b8 603f 926e 823f
00000060: 0f0b 6a3f 71a5 a83f 9fe0 543f 72f5 613f
00000070: 4161 3f3f 72c7 683f ce35 af3f d9fc 793f
00000080: 5bad 5f3f 785d 4d3f a370 7d3f 6f56 8e3f
00000090: defd 473f 0242 813f 73ab 653f 82eb 533f
000000a0: ae94 3b3f d8f1 613f a91f ac3f 6f4d 653f
000000b0: c7ac 633f 539c 5c3f 428f 5a3f a280 883f
000000c0: 3806 613f 6a0a 4b3f 4a27 3c3f 30db 693f
000000d0: 4a6a 643f 8a98 993f 395a 4e3f 6b9d 8d3f
000000e0: 3463 713f 4974 803f 0c84 8c3f 6541 853f
000000f0: 6efb b33f dcb0 6f3f bedd 763f c3c2 473f

module.BN.bias f4 [64]
0.2849937 0.222892 0.48123685 -0.03900931 0.30696014 0.0225599 -0.029054612 -0.13883187
-0.12606107 -0.066977955 -0.16572656 -0.13726205 0.09601812 -0.18296026 -0.055523504 0.7322557
0.11573984 0.70177084 0.75282055 0.18489188 0.1382524 0.31227985 0.45027858 0.55859673
0.42991826 0.5927057 0.022946782 -0.12884203 -0.018225307 0.2210678 0.6681358 0.19633824
0.11042131 0.12511076 0.51044333 0.752904 0.22990482 0.4613115 0.21882975 -0.012651809
0.12321517 0.11565032 0.7635277 0.06834528 -0.22477281 0.095863394 -0.15290228 0.37595317
0.41021678 -0.07433501 0.19340844 0.53302866 0.3498724 0.5874509 0.09567784 0.69016933
0.43828136 0.41733262 0.41688412 0.38561374 0.6118656 -0.0357433 0.48857638 -0.06918085
00000000: b2ea 913e cd3d 643e ad64 f63e 3ac8 1fbd
00000010: e129 9d3e 8acf b83c f003 eebc f129 0ebe
00000020: 2716 01be bd2b 89bd 39b4 29be 6c8e 0cbe
00000030: 26a5 c43d ef59 3bbe 9d6c 63bd 1c75 3b3f
00000040: 0209 ed3d 41a7 333f d9b8 403f 4c54 3d3e
00000050: 0a92 0d3e 25e3 9f3e ea8a e63e 3200 0f3f
00000060: 3f1e dc3e 90bb 173f e4fa bb3c 2aef 03be
00000070: 3d4d 95bc 995f 623e f30a 2b3f e40c 493e
00000080: 9124 e23d 091d 003e 6aac 023f 51be 403f
00000090: 2b6c 6b3e 0531 ec3e e814 603e 8849 4fbc
000000a0: 3c58 fc3d 13da ec3d 8d76 433f 9cf8 8b3d
000000b0: d82a 66be 0754 c43d 6a92 1cbe ef7c c03e
000000c0: ef07 d23e f43c 98bd dd0c 463e 9174 083f
000000d0: 7a22 b33e 2f63 163f bef2 c33d f0ae 303f
000000e0: 6a66 e03e 9fac d53e d671 d53e 2a6f c53e
000000f0: 39a3 1c3f 9167 12bd af26 fa3e b1ae 8dbd

module.BN.running_mean f4 [64]
-0.29106796 -0.27342045 -0.15229249 -0.5126891 -0.2383383 0.2875067 -0.37332317 0.4213568
-0.14936566 -5.097343 -0.32696655 0.38653907 -1.4716806 0.7619826 -0.49752915 -0.11270757
6.101654 -0.27363 -0.22523096 0.0704531 3.1029153 -0.2785619 -0.17193669 -0.07045528
-0.3003535 -0.20374939 0.20104344 1.4178636 0.06678269 -0.29383922 -0.059641518 -0.44050208
0.2533695 -0.27621803 -0.031969 -0.25882095 0.063687526 -0.34844002 -0.011778804 0.013135435
0.049511198 1.6824332 -0.16302243 -0.025956014 0.65416324 -0.14279172 -0.8572363 -0.041955058
-0.32797527 0.15594395 -0.3761165 0.072499566 -0.24445082 -0.19356722 0.15262204 0.124841236
-0.35582688 -0.26148263 -0.28799075 0.21041222 -0.3302425 0.6948918 -0.2576554 2.0449486
00000000: dc06 95be c4fd 8bbe 90f2 1bbe 983f 03bf
00000010: f50e 74be 1434 933e 3724 bfbe 14bc d73e
00000020: 50f3 18be 6f1d a3c0 2968 a7be 73e8 c53e
00000030: 0860 bcbf 4b11 433f 24bc febe 3ad3 e6bd
00000040: c040 c340 3b19 8cbe f2a2 66be b749 903d
00000050: 2a96 4640 aa9f 8ebe 2c10 30be dc4a 90bd
00000060: efc7 99be aea3 50be 55de 4d3e 8e7c b53f
00000070: 5dc5 883d 1872 96be aa4a 74bd 7d89 e1be
00000080: a6b9 813e 736c 8dbe edf1 02bd 2e84 84be
00000090: 9b6e 823d bb66 b2be e2fb 40bc 0236 573c
000000a0: 41cc 4a3d f959 d73f 5aef 26be b5a1 d4bc
000000b0: 3e77 273f fe37 12be d773 5bbf 11d9 2bbd
000000c0: 60ec a7be c5af 1f3e 5892 c0be a77a 943d
000000d0: 5151 7abe 7c36 46be f448 1c3e c3ac ff3d
000000e0: f12e b6be 0de1 85be 8673 93be 4d76 573e
000000f0: 8c15 a9be 6ee4 313f 69eb 83be 70e0 0240

module.BN.running_var f4 [64]
0.17378812 0.23022285 0.16642444 0.52180076 0.19281659 0.56540006 0.303198 0.77249414
0.3572382 1.9156004 0.7262513 0.6372264 0.579823 0.48655915 0.67489177 0.15234093
3.0236874 0.15135749 0.13941212 0.22737084 1.2286981 0.24689658 0.2043007 0.15057829
0.16617414 0.122241795 0.54088336 0.7926878 0.56655735 0.22777978 0.1314035 0.15181173
0.8192649 0.29875845 0.12967514 0.14916076 0.19424959 0.115523085 0.1552695 0.36150855
0.26565996 1.0032151 0.11963964 0.52290076 0.8541096 0.43989015 0.62908876 0.16400902
0.20137033 0.30602807 0.40168625 0.14987655 0.14973696 0.15172611 0.39653274 0.15173678
0.17878096 0.12948266 0.16851458 0.18888824 0.14016618 0.8119341 0.137622 0.95648426
00000000: 83f5 313e 8abf 6b3e 2b6b 2a3e bc94 053f
00000010: b671 453e 0fbe 103f c53c 9b3e 2dc2 453f
00000020: ede7 b63e 6532 f53f 9beb 393f 4521 233f
00000030: 486f 143f 481e f93e b5c5 2c3f 43ff 1b3e
00000040: 1884 4140 75fd 1a3e 0dc2 0e3e e7d3 683e
00000050: fb45 9d3f 75d2 7c3e 3434 513e 3231 1a3e
00000060: 8e29 2a3e e859 fa3d 5577 0a3f 96ed 4a3f
00000070: e709 113f 1a3f 693e a48e 063e 8974 1b3e
00000080: 58bb 513f def6 983e 8fc9 043e 99bd 183e
00000090: 5de9 463e 5e97 ec3d f8fe 1e3e a617 b93e
000000a0: 9504 883e 5a69 803f a105 f53d d3dc 053f
000000b0: eda6 5a3f 4839 e13e f60b 213f fbf1 273e
000000c0: 0634 4e3e b6af 9c3e d2a9 cd3e 3d79 193e
000000d0: a554 193e 175e 1b3e 5706 cb3e e360 1b3e
000000e0: 5b12 373e 1a97 043e 168f 2c3e eb6b 413e
000000f0: b987 0f3e eada 4f3f c8ec 0c3e 27dc 743f

module.Classifier.layer1.0.weight f4 [32, 64, 3, 3]
-0.0009538649 0.06252411 -0.043202996 -0.1983092 -0.0046514263 -0.042244628 -0.034764778 -0.063588805
-0.0617142 -0.11301083 0.14049947 -0.007732627 -0.14241895 -0.067174494 0.053924855 -0.05845548
-0.11127275 -0.041352663 -0.033686295 0.010633253 0.03684726 0.029683303 0.119814105 0.06661614
0.0063290372 -0.040520508 -0.14762531 0.046121594 0.0101267 -0.051135805 0.10506248 0.03298358
-0.064079344 0.14692698 0.04576719 -0.14467505 0.026107538 0.050480172 0.06432897 -0.06263283
0.04319478 0.08077137 -0.014411251 0.029440721 -0.14595571 -0.17341869 0.05326522 0.047344107
-0.05184991 -0.066039234 0.020352723 -0.054251116 0.05816403 -0.06946958 0.04155052 0.022791889
-0.21451822 0.053523608 -0.07745785 -0.09970975 0.06693161 0.0100197345 -0.0394206 -0.004547053
0.00031142661 0.041068133 -0.01595188 0.06416169 -0.01972158 -0.11993483 -0.07535835 0.0077681304
0.014431104 0.13594557 0.13997887 -0.0934067 0.13579844 -0.14628752 0.10984804 -0.16941467
0.103087954 0.08895859 0.058406197 -0.097590044 0.032081377 0.040790036 -0.03524527 0.030407114
-0.03912595 -0.050489306 0.035555527 0.1374883 0.020378955 0.034399457 0.027191406 0.08675589
0.14116511 0.13905121 0.08487312 -0.032817557 0.047630098 0.14250061 -0.13291971 -0.2623177
0.15564996 -0.024631882 0.019341704 -0.0034224968 0.19765617 0.19918531 0.10234485 0.06426048
0.0054549393 -0.065807186 0.1672313 0.017096696 0.05540326 0.02594602 0.09344632 -0.07900342
-0.28552687 0.033352207 0.13975292 -0.0073081604 0.02441931 0.020450875 -0.07913964 -0.10673365
-0.029252917 -0.17744198 -0.1314569 -0.159656 -0.09048567 0.011412663 -0.2805574 0.122121856
0.12824339 0.087021865 -0.08778151 0.03384599 -0.1052924 -0.028638659 -0.009597697 -0.12861249
-0.17186172 -0.11879484 0.005801624 -0.021957217 0.036201134 0.019769283 -0.053836938 -0.06660557
0.07406872 -0.14654006 0.0820429 -0.041584473 -0.038915552 0.18481962 -0.013597391 0.13257332
-0.20811118 -0.03319231 0.0995862 -0.010996521 -0.04354868 0.03213509 -0.08921885 -0.042268906
0.11372506 -0.027620293 -0.051980384 0.004084439 -0.015693033 0.09597618 -0.11632053 0.20816411
-0.13511835 0.025428606 -0.12876526 0.007758794 -0.13572761 -0.022923205 0.076423556 -0.18520185
0.0056718 -0.061533317 0.06693978 0.05037062 0.14743218 -0.092493795 -0.08176924 -0.11362655
-0.06196968 -0.06998674 -0.20583376 0.15655196 -0.0028327745 -0.13733698 -0.05452246 0.022629002
0.08577152 -0.033637684 -0.13655278 -0.14891513 -0.00080340315 0.1643448 -0.047495063 -0.041891817
0.019624565 0.007589174 -0.14006288 -0.06640174 0.13700368 -0.021962905 -0.09341833 -0.29384324
-0.085727304 0.049946714 0.027689021 0.08718316 -0.023740465 0.13222586 0.09596723 -0.059864987
-0.13309522 0.10158345 -0.0032725886 0.031595923 -0.056413516 0.0142728165 -0.11592665 -0.18102571
0.14490005 -0.024076948 -0.0499379 0.01478292 -0.034175448 0.008598888 -0.11294901 -0.03262856
0.023538131 -0.10007792 0.09960474 0.034310713 0.070179924 0.11626888 -0.041087106 -0.11078499
0.04479353 0.03239461 -0.18610926 0.057987414 -0.04194947 -0.04610304 0.11659995 0.009032144
00000000: ca0c 7aba a40c 803d a0f5 30bd 9111 4bbe
00000010: fe6a 98bb b408 2dbd 8365 0ebd d93a 82bd
00000020: 07c8 7cbd 3972 e7bd 18df 0f3e fa61 fdbb
00000030: 46d6 11be c892 89bd 4fe0 5c3d 036f 6fbd
00000040: f8e2 e3bd 6961 29bd a4fa 09bd 1837 2e3c
00000050: 27ed 163d 662a f33c 1961 f53d 0b6e 883d
00000060: d063 cf3b d5f8 25bd 172b 17be ffe9 3c3d
00000070: 75ea 253c c773 51bd ff2a d73d ca19 073d
00000080: 083c 83bd 0774 163e 6176 3b3d b225 14be
00000090: 7adf d53c 4cc4 4e3d e8be 833d a445 80bd
000000a0: 02ed 303d 766b a53d 2b1d 6cbc ab2d f13c
000000b0: 6a75 15be ab94 31be a22c 5a3d e5eb 413d
000000c0: 9260 54bd 943f 87bd c1ba a63c 6b36 5ebd
000000d0: 683d 6e3d 1146 8ebd e130 2a3d 0eb6 ba3c
000000e0: aaaa 5bbe 923b 5b3d 39a2 9ebd a034 ccbd
000000f0: 7113 893d d029 243c 7f77 21bd 72ff 94bb
00000100: f946 a339 0f37 283d 84ad 82bc 3467 833d
00000110: 278f a1bc 64a0 f5bd 7b55 9abd cd8b fe3b
00000120: 7070 6c3c 5135 0b3e 9f56 0f3e 034c bfbd
00000130: bf0e 0b3e 65cc 15be 02f8 e03d 0a7b 2dbe
00000140: c71f d33d ec2f b63d 563b 6f3d 4add c7bd
00000150: c367 033d 7413 273d 585d 10bd 5718 f93c
00000160: 8842 20bd e0cd 4ebd aca2 113d bcc9 0c3e
00000170: c4f1 a63c 72e6 0c3d 83c0 de3c 12ad b13d
00000180: 968d 103e 7163 0e3e f5d1 ad3d b46b 06bd
00000190: c717 433d aeeb 113e 1b1c 08be 814e 86be
000001a0: b462 1f3e cdc8 c9bc 7e72 9e3c f84b 60bb
000001b0: 6166 4a3e 3cf7 4b3e 2d9a d13d 009b 833d
000001c0: 59bf b23b ebc5 86bd af3e 2b3e 5f0e 8c3c
000001d0: 87ee 623d bf8c d43c c960 bf3d 8ccc a1bd
000001e0: 9430 92be 539c 083d 641b 0f3e 4b79 efbb
000001f0: 010b c83c 9888 a73c f713 a2bd 2c97 dabd
00000200: d0a3 efbc 5ab3 35be a39c 06be dd7c 23be
00000210: 8d50 b9bd 2efc 3a3c 38a5 8fbe 061b fa3d
00000220: 3c52 033e 8538 b23d cbc6 b3bd 18a2 0a3d
00000230: 8ba3 d7bd 9f9b eabc a93f 1dbc feb2 03be
00000240: 85fc 2fbe b64a f3bd 8d1b be3b 9fdf b3bc
00000250: a447 143d 31f3 a13c 1f84 5cbd 8068 88bd
00000260: 57b1 973d 990e 16be 1c06 a83d 7b54 2abd
00000270: ea65 1fbd 5b41 3d3e 97c7 5ebc 4dc1 073e
00000280: 191b 55be a9f4 07bd daf3 cb3d c12a 34bc
00000290: 1a60 32bd 16a0 033d 5fb8 b6bd 2922 2dbd
000002a0: afe8 e83d f443 e2bc 62e9 54bd c2d6 853b
000002b0: ad8e 80bc 298f c43d 7539 eebd f928 553e
000002c0: 775c 0abe a74f d03c 0adb 03be 7b3d fe3b
000002d0: 2efc 0abe 72c9 bbbc f483 9c3d 8ea5 3dbe
000002e0: 82da b93b 5c0a 7cbd b917 893d 6c51 4e3d
000002f0: 76f8 163e 636d bdbd a276 a7bd 09b5 e8bd
00000300: ebd3 7dbd 3555 8fbd 16c6 52be 284f 203e
00000310: 12a6 39bb 11a2 0cbe f152 5fbd 7560 b93c
00000320: fba8 af3d abc7 09bd 7ed4 0bbe 357d 18be
00000330: 799b 52ba 014a 283e 2f8a 42bd c196 2bbd
00000340: b2c3 a03c 9bae f83b a56c 0fbe a3fd 87bd
00000350: b14a 0c3e 8deb b3bc 1c52 bfbd 9f72 96be
00000360: cc91 afbd ed94 4c3d 16d4 e23c 168d b23d
00000370: 5d7b c2bc 3766 073e 788a c43d fd34 75bd
00000380: 1d4a 08be fc0a d03d ed78 56bb ba6a 013d
00000390: dc11 67bd 88d8 693c f46a edbd ce5e 39be
000003a0: ae60 143e 053d c5bc af8b 4cbd 0f34 723c
000003b0: 8efb 0bbd 5ae2 0c3c d051 e7bd 86a5 05bd
000003c0: 0ad3 c03c a7f5 ccbd 92fd cb3d 6489 0c3d
000003d0: 7eba 8f3d 611e ee3d f44a 28bd 3ee3 e2bd
000003e0: 6c79 373d 36b0 043d 6d93 3ebe 3684 6d3d
000003f0: 35d3 2bbd 8bd6 3cbd f4cb ee3d 8ffb 133c

module.Classifier.layer1.0.bias f4 [32]
-0.021837628 0.0013783325 -0.012482887 0.0041516637 0.013104045 0.0012058304 -0.08084665 0.018088613
0.022098782 -0.023633193 -0.07153411 0.017138835 -0.0057567703 0.011510702 0.0076044984 0.04073582
-0.034520112 0.027839685 -0.023269352 -0.033152424 0.017206933 0.057304125 0.03658494 -0.07361509
0.02986339 -0.00942645 -0.024525234 0.0012087717 0.0066272584 -0.023000473 0.024759246 -0.025288165
00000000: d3e4 b2bc 2aa9 b43a 0685 4cbc ae0a 883b
00000010: 59b2 563c f40c 9e3a ee92 a5bd 922e 943c
00000020: 8108 b53c 669a c1bc 7a80 92bd be66 8c3c
00000030: 4aa3 bcbb 6297 3c3c 282f f93b 9ada 263d
00000040: f664 0dbd 0d10 e43c 5e9f bebc d6ca 07bd
00000050: 8ef5 8c3c bbb7 6a3d 17da 153d 82c3 96bd
00000060: 11a4 f43c 6671 1abc 25e9 c8bc a66f 9e3a
00000070: 7929 d93b 7d6b bcbc e7d3 ca3c 2029 cfbc

module.Classifier.layer1.1.weight f4 [32]
0.76172155 0.8545214 0.6718787 1.0552845 0.58073264 1.2262933 1.1550688 0.74113464
0.8908551 1.0176271 1.2723657 1.2175347 1.0504372 0.8843261 0.7543649 1.3405212
0.8164286 0.6671934 0.6702043 0.7113529 0.82758254 0.80321157 0.7776309 1.3302164
0.7224736 1.0736985 0.8795084 0.988354 0.65464455 1.0097423 0.7032027 1.2203197
00000000: 2f00 433f eac1 5a3f 3e00 2c3f 9013 873f
00000010: e5aa 143f 2ef7 9c3f 4bd9 933f 00bb 3d3f
00000020: 140f 643f 9b41 823f e1dc a23f 2dd8 9b3f
00000030: ba74 863f 3263 623f 0f1e 413f 3396 ab3f
00000040: 7701 513f 30cd 2a3f 8292 2b3f 391b 363f
00000050: 73dc 533f 469f 4d3f d212 473f 8844 aa3f
00000060: 08f4 383f f46e 893f 7627 613f c504 7d3f
00000070: c996 273f 3c3f 813f 1805 343f 7033 9c3f

module.Classifier.layer1.1.bias f4 [32]
-0.06261038 -0.18195038 -0.1436669 -0.092972755 -0.35978648 -0.1403027 -0.08919787 -0.2562701
0.22845022 -0.18795781 -0.25617447 0.0067133107 0.14880489 -0.25151122 -0.14060165 -0.15276192
-0.22816986 -0.28420085 -0.15280446 -0.42346668 -0.07289911 0.036060426 0.0038318245 0.22494344
-0.10778484 -0.13099933 -0.10049861 0.04215541 -0.09528493 0.14011224 -0.041791365 0.22964464
00000000: df39 80bd 3351 3abe 6a1d 13be 8068 bebd
00000010: ef35 b8be 83ab 0fbe 5fad b6bd d635 83be
00000020: dbee 693e 0378 40be 4d29 83be 55fb db3b
00000030: 4f60 183e 14c6 80be e1f9 0fbe 9f6d 1cbe
00000040: 5ca5 69be c682 91be c678 1cbe a0d0 d8be
00000050: 214c 95bd 19b4 133d 591f 7b3b 9357 663e
00000060: 4cbe dcbd b024 06be 37d2 cdbd 27ab 2c3d
00000070: bf24 c3bd 9579 0f3e 6c2d 2bbd f727 6b3e

module.Classifier.layer1.1.running_mean f4 [32]
-3.6165411 -4.6394835 -1.340748 -3.5999813 -4.529325 -1.385538 -0.9190571 -2.6565237
-5.3825808 -2.9018943 -2.6577997 -5.0553455 -4.461726 3.5548275 2.324776 -0.4895943
-6.9051557 2.690508 -5.185619 -4.703313 -1.39807 -4.384332 -1.0020243 -5.0642314
2.382242 -5.28317 -4.5732026 -5.5422716 -2.8867054 -4.459849 -6.448494 -4.738567
00000000: 6975 67c0 a676 94c0 a19d abbf 1866 66c0
00000010: 3bf0 90c0 4f59 b1bf 5347 6bbf 7c04 2ac0
00000020: 1a3e acc0 a3b8 39c0 6419 2ac0 64c5 a1c0
00000030: 76c6 8ec0 4b82 6340 21c9 1440 1bac fabe
00000040: 09f7 dcc0 4831 2c40 97f0 a5c0 8a81 96c0
00000050: f5f3 b2bf 734c 8cc0 5542 80bf 2f0e a2c0
00000060: a776 1840 bb0f a9c0 ad57 92c0 4a5a b1c0
00000070: c8bf 38c0 15b7 8ec0 105a cec0 57a2 97c0

module.Classifier.layer1.1.running_var f4 [32]
16.549345 16.112251 9.474797 17.55797 14.348875 29.896074 32.0773 7.110587
19.184395 24.695438 23.120052 27.285503 21.518154 15.806174 16.974718 25.548803
11.377691 12.858762 13.859146 13.225093 11.351931 18.208118 16.28592 23.82834
18.21058 25.67632 20.52407 15.768337 13.640018 16.290636 18.972582 17.365599
00000000: 0f65 8441 e4e5 8041 c598 1741 b976 8c41
00000010: fe94 6541 292b ef41 284f 0042 ee89 e340
00000020: a479 9941 4290 c541 def5 b841 b648 da41
00000030: 2e25 ac41 17e6 7c41 39cc 8741 f363 cc41
00000040: 060b 3641 7dbd 4d41 10bf 5d41 fb99 5341
00000050: 82a1 3541 3aaa 9141 9049 8241 71a0 be41
00000060: 45af 9141 1a69 cd41 4c31 a441 1c4b 7c41
00000070: 843d 5a41 3953 8241 d9c7 9741 bfec 8a41

module.Classifier.layer2.0.weight f4 [32, 32, 3, 3]
-0.15492061 0.05582839 -0.030925514 -0.1590378 -0.30313268 -0.040766045 0.19900662 0.024317514
0.10951104 0.081163324 -0.016801547 0.031560324 -0.15882912 0.30116808 -0.00062066055 -0.1108249
0.27340615 0.054708302 -0.046432994 0.061996985 0.06656391 -0.058057804 0.023493377 0.08654927
-0.041091394 -0.11053644 0.10064501 0.03903276 0.10138059 0.12346511 -0.083020985 0.12549363
0.06494301 -0.11260947 0.041364934 -0.078223445 0.11903082 0.26251397 -0.11582277 -0.020926205
-0.22731182 -0.010181085 -0.059501756 0.08481559 -0.032134447 0.06433019 0.028866256 -0.07419132
0.057364598 -0.11491261 -0.05907009 -0.0011224713 0.31270972 -0.0069791623 0.014454175 0.03597378
-0.095931545 -0.023862045 0.010611755 -0.19162948 0.010075381 -0.17179479 -0.10823844 0.09770469
-0.067837775 0.059325844 -0.051643252 -0.030857451 -0.04790356 -0.056509353 -0.11987194 -0.035066802
-0.052851155 0.013592006 0.011637539 -0.039566085 -0.17075899 0.053793125 -0.029947588 -0.067190364
0.032350533 -0.07170045 -0.016004333 -0.11328164 0.0456193 -0.00624348 -0.19113898 -0.10850535
-0.10878245 -0.043868024 0.10301214 0.084900364 0.076952085 0.054063305 0.18798077 -0.004807272
0.15451232 -0.33732942 0.035090912 -0.012495644 0.07610018 0.17309988 -0.029884677 0.05270798
-0.095981605 0.01657434 -0.42516705 -0.06433156 -0.10384221 0.0027270992 -0.0137596885 -0.03193472
-0.022629676 -0.0015539095 -0.036096543 -0.085823 -0.096634515 -0.09911231 -0.019618373 -0.004010691
-0.022144835 -0.058973305 0.044743672 -0.09974489 -0.19420922 -0.050924424 -0.13972147 -0.09978151
-0.10293626 -0.10579203 -0.09203704 -0.091380894 -0.07797669 -0.15946202 -0.053006686 0.08609283
0.06810557 -0.022246469 0.015817149 -0.018968355 0.008831927 0.06583804 0.1989202 -0.009576901
-0.123922765 0.071234524 0.01301276 -0.021995079 -0.100021005 0.013374128 -0.09871342 -0.14453734
0.33472604 -0.11076849 0.018420344 0.07679649 -0.19806772 0.038531043 0.008209532 -0.17798132
-0.16211759 0.0045826673 -0.005267274 0.0024962658 -0.050371666 0.086356804 -0.06985947 0.026994882
-0.06494128 0.15381356 0.077955626 -0.029858852 0.05889954 0.028075844 0.04772098 -0.0047736135
-0.06616368 0.09694001 -0.22577806 0.105517596 0.09857699 0.09126786 0.005370785 0.098917104
0.020007601 0.11153897 0.02775861 -0.26074368 -0.042509656 0.039180752 0.022586254 -0.13491938
0.060126953 -0.06653347 0.18320735 -0.11558024 0.25137824 0.022488754 -0.11650771 -0.030229472
0.018480271 -0.11241444 -0.044801928 -0.009839041 -0.05295293 -0.15236999 0.012643261 -0.08911469
-0.118378215 -0.087982215 -0.03573244 -0.054168068 -0.032790605 -0.016474249 -0.014646886 -0.056756888
0.06428633 0.0366199 0.024476308 0.03492893 0.053998075 0.03566202 -0.0049562436 -0.040321246
-0.046690263 0.04345294 -0.010429189 -0.13522893 0.08245608 -0.10255175 0.0792123 -0.072270095
0.32792714 0.06120502 -0.037847742 -0.0051484373 -0.06895953 -0.16330281 -0.025774032 -0.15072873
-0.07847115 -0.4101851 -0.17160997 0.06509833 -0.015972655 0.09797283 -0.052407667 0.21554577
0.04762948 -0.07376148 0.07263621 0.055042982 -0.08444228 -0.10033409 0.043351788 -0.060031656
00000000: 82a3 1ebe 4fac 643d 8157 fdbc ceda 22be
00000010: 3534 9bbe 4cfa 26bd 64c8 4b3e 8635 c73c
00000020: 5347 e03d f538 a63d 66a3 89bc 6645 013d
00000030: 1aa4 22be b432 9a3e d3b3 22ba 2af8 e2bd
00000040: e4fb 8b3e d015 603d 8630 3ebd 8df0 7d3d
00000050: a952 883d 05ce 6dbd 2f75 c03c be40 b13d
00000060: 734f 28bd ee60 e2bd f91e ce3d d1e0 1f3d
00000070: a0a0 cf3d 47db fc3d e806 aabd 6781 003e
00000080: d700 853d cb9f e6bd 476e 293d 9d33 a0bd
00000090: 6ec6 f33d 3b68 863e 7d34 edbd 6f6d abbc
000000a0: 6ec4 68be 91ce 26bc 1db8 73bd ccb3 ad3d
000000b0: 699f 03bd 8cbf 833d ed78 ec3c 9ef1 97bd
000000c0: 24f7 6a3d 4d57 ebbd 7bf3 71bd e31f 93ba
000000d0: 7d1b a03e 75b1 e4bb 34d1 6c3c 3e59 133d
000000e0: c277 c4bd 567a c3bc eddc 2d3c 853a 44be
000000f0: 3613 253c f9ea 2fbe 1dac ddbd 6619 c83d
00000100: 88ee 8abd a8ff 723d e087 53bd c4c8 fcbc
00000110: 8636 44bd 5a76 67bd 6b7f f5bd 35a2 0fbd
00000120: 747a 58bd 01b1 5e3c 60ab 3e3c 0c10 22bd
00000130: 72db 2ebe 2e56 5c3d a554 f5bc 1a9b 89bd
00000140: fe81 043d afd7 92bd 851b 83bc 3400 e8bd
00000150: 4edb 3a3d 1b96 ccbb f0b9 43be 0e38 debd
00000160: 55c9 debd f5ae 33bd 07f8 d23d 3ee0 ad3d
00000170: 0e99 9d3d 7c71 5d3d 087e 403e 5286 9dbb
00000180: 7a38 1e3e 71b6 acbe 7dbb 0f3d 88ba 4cbc
00000190: 69da 9b3d 1841 313e b6d0 f4bc 53e4 573d
000001a0: 0192 c4bd e9c6 873c 7faf d9be 44c0 83bd
000001b0: 39ab d4bd 22b9 323b 5170 61bc fbcd 02bd
000001c0: df61 b9bc 8dac cbba f8d9 13bd f8c3 afbd
000001d0: 51e8 c5bd 65fb cabd b6b6 a0bc 1d6c 83bb
000001e0: 1669 b5bc fe8d 71bd 2445 373d 0d47 ccbd
000001f0: c8de 46be 2196 50bd 2513 0fbe 405a ccbd
00000200: 3fd0 d2bd 7ea9 d8bd ea7d bcbd e825 bbbd
00000210: 3eb2 9fbd 034a 23be 8a1d 59bd 7051 b03d
00000220: ef7a 8b3d 3a3e b6bc f792 813c 8663 9bbc
00000230: c9b3 103c 18d6 863d bdb1 4b3e 6fe8 1cbc
00000240: 38cb fdbd 68e3 913d 7933 553c 062f b4bc
00000250: d0d7 ccbd 291f 5b3c 432a cabd 9901 14be
00000260: 3661 ab3e 97da e2bd 43e6 963c 7a47 9d3d
00000270: 44d2 4abe bad2 1d3d 4681 063c bc40 36be
00000280: 2702 26be 332a 963b 1999 acbb 6498 233b
00000290: 8552 4ebd d6db b03d 7b12 8fbd 5f24 dd3c
000002a0: efff 84bd 4d81 1d3e 33a7 9f3d 8d9a f4bc
000002b0: a540 713d 50ff e53c 1377 433d f96b 9cbb
000002c0: d380 87bd 7c88 c63d 5d32 67be 9c19 d83d
000002d0: bce2 c93d a5ea ba3d 69fd af3b 0d95 ca3d
000002e0: fbe6 a33c 8b6e e43d 0666 e33c 3280 85be
000002f0: 9b1e 2ebd ff7b 203d cf06 b93c 4e28 0abe
00000300: ae47 763d b342 88bd b59a 3b3e 55b5 ecbd
00000310: a6b4 803e 563a b83c 989b eebd cca3 f7bc
00000320: f063 973c 8b39 e6bd 3a82 37bd ee33 21bc
00000330: 2ce5 58bd e106 1cbe ae25 4f3c c381 b6bd
00000340: 4770 f2bd 0530 b4bd 2e5c 12bd 56df 5dbd
00000350: 714f 06bd 01f5 86bc 7ef9 6fbc e979 68bd
00000360: 8da8 833d c0fe 153d 8a82 c83c a311 0f3d
00000370: 162d 5d3d 5712 123d fc67 a2bb e427 25bd
00000380: 4a3e 3fbd b6fb 313d 30df 2abc 7479 0abe
00000390: bcde a83d a706 d2bd 0f3a a23d 5802 94bd
000003a0: 11e6 a73e 1db2 7a3d 3c06 1bbd 39b4 a8bb
000003b0: a73a 8dbd da38 27be 1024 d3bc a258 1abe
000003c0: 7bb5 a0bd c803 d2be 86ba 2fbe 4652 853d
000003d0: 16d9 82bc fba5 c83d 6ca9 56bd 08b8 5c3e
000003e0: 2117 433d 4210 97bd 4bc2 943d c074 613d
000003f0: 13f0 acbd f67b cdbd a591 313d c1e3 75bd

module.Classifier.layer2.0.bias f4 [32]
0.018814832 -0.02210322 -0.03736571 -0.028941667 0.01757144 -0.04738076 -0.024659105 0.06755039
-0.09794513 -0.028458647 -0.022662917 -0.115419246 0.097724535 -0.005118701 -0.14941053 -0.060670983
-0.08563185 -0.00394041 -0.015672624 -0.090876915 0.055475116 0.089478835 0.029050346 -0.008048851
0.14555632 -0.029893829 -0.00018435263 0.0071488842 0.016518971 -0.028538587 -0.015883476 0.004322183
00000000: 9021 9a3c d011 b5bc c90c 19bd 1317 edbc
00000010: fbf1 8f3c 5412 42bd e401 cabc dc57 8a3d
00000020: 7597 c8bd 1c22 e9bc 95a7 b9bc ed60 ecbd
00000030: cd23 c83d c7ba a7bb 13ff 18be 2382 78bd
00000040: c05f afbd 8e1e 81bb e063 80bc ad1d babd
00000050: e039 633d ae40 b73d fefa ed3c 54df 03bc
00000060: b70c 153e e7e3 f4bc c84e 41b9 3041 ea3b
00000070: cb52 873c c1c9 e9bc 101e 82bc 19a1 8d3b

module.Classifier.layer2.1.weight f4 [32]
0.9088395 0.8412287 1.1738151 0.8110278 1.0075269 1.2123116 0.88480794 0.85092604
0.8358862 0.85313827 0.9197057 1.0646476 0.87712616 1.2000213 1.1496216 0.7231007
0.8241157 0.83051103 0.98647106 1.0656861 0.91600525 0.8178998 1.0530864 0.7717005
1.3294291 0.92609555 1.206275 0.91505 1.0568991 0.85684264 0.9924148 0.70949155
00000000: b5a9 683f c45a 573f 933f 963f 859f 4f3f
00000010: a4f6 803f 072d 9b3f c682 623f 4ad6 593f
00000020: a3fc 553f 4567 5a3f d571 6b3f 5f46 883f
00000030: 578b 603f 4c9a 993f cd26 933f 211d 393f
00000040: 3ff9 523f 5f9c 543f 5e89 7c3f 6768 883f
00000050: 527f 6a3f e261 513f 89cb 863f 2a8e 453f
00000060: bc2a aa3f 9914 6d3f 3867 9a3f b840 6a3f
00000070: 7848 873f 0a5a 5b3f e50e 7e3f 3da1 353f

module.Classifier.layer2.1.bias f4 [32]
-0.13847929 -0.27441528 -0.33851606 -0.28341207 -0.1159037 -0.30380473 -0.18959396 -0.15143128
-0.25551543 -0.2513571 -0.29382807 -0.287388 -0.3425312 -0.18722326 -0.2508217 -0.14859316
-0.017026803 -0.17287023 -0.29809043 -0.55040526 -0.14894761 -0.050776828 -0.17812477 -0.30869097
-0.09986853 -0.08715111 -0.26421925 -0.052826557 -0.1985912 -0.033801053 -0.12956518 -0.200755
00000000: 84cd 0dbe 2980 8cbe fa51 adbe 631b 91be
00000010: eb5e edbd 4b8c 9bbe eb24 42be cd10 1bbe
00000020: ebd2 82be e1b1 80be a270 96be 8524 93be
00000030: 4060 afbe 74b7 3fbe b46b 80be ce28 18be
00000040: cb7b 8bbc e504 31be 4f9f 98be 5ce7 0cbf
00000050: b985 18be 5dfb 4fbd 5766 36be be0c 9ebe
00000060: df87 ccbd 487c b2bd bf47 87be a960 58bd
00000070: 7e5b 4bbe f972 0abd bcac 04be b892 4dbe

module.Classifier.layer2.1.running_mean f4 [32]
-1.4709882 -0.91314596 -0.8390639 -1.1385571 -0.69702744 -1.3453629 -1.3084244 0.36675826
-2.1802561 -0.97824305 -0.78036773 -1.7694166 -0.4415749 -0.7914854 -1.6671858 -0.69660026
-0.58413744 -0.688828 -1.2223892 -2.0300648 -1.8984264 -0.7996901 -1.0036993 0.62713605
-0.23062386 -2.2019026 -0.48857668 -1.2949328 -1.3184584 -0.71586305 -0.06531487 -1.2491713
00000000: 5749 bcbf efc3 69bf e4cc 56bf 3dbc 91bf
00000010: 6470 32bf da34 acbf 737a a7bf bdc7 bb3e
00000020: 5189 0bc0 236e 7abf 2ec6 47bf 3e7c e2bf
00000030: 1b16 e2be ca9e 4abf 5866 d5bf 6554 32bf
00000040: 088a 15bf 0857 30bf 4077 9cbf 95ec 01c0
00000050: a3ff f2bf 7eb8 4cbf 3879 80bf fd8b 203f
00000060: a928 6cbe f9eb 0cc0 b926 fabe 5cc0 a5bf
00000070: 3fc3 a8bf cd42 37bf cdc3 85bd d8e4 9fbf

module.Classifier.layer2.1.running_var f4 [32]
1.8830816 1.2481326 2.4473069 1.553688 1.3862706 2.2831552 1.6897353 1.3499439
2.0228906 1.3046721 2.5417745 2.6275187 1.0480675 1.7325848 1.7546021 1.4171294
1.6595297 1.6622816 2.266247 3.5460596 1.4527338 1.2647518 2.174996 1.532984
3.720912 2.4245987 3.8143258 1.079077 3.7929852 1.1470109 2.341934 2.9299743
00000000: d108 f13f cfc2 9f3f ada0 1c40 40df c63f
00000010: 5171 b13f 371f 1240 3f49 d83f f6ca ac3f
00000020: 0a77 0140 7fff a63f 6fac 2240 4429 2840
00000030: 1327 863f 57c5 dd3f cd96 e03f 7f64 b53f
00000040: 786b d43f a5c5 d43f 310a 1140 a4f2 6240
00000050: 2ef3 b93f 63e3 a13f 2233 0b40 d238 c43f
00000060: 6c23 6e40 a02c 1b40 ea1d 7440 321f 8a3f
00000070: 45c0 7240 41d1 923f 3fe2 1540 b384 3b40

module.Classifier.layer3.0.weight f4 [32, 32, 3, 3]
-0.016629973 -0.08560597 0.0052192397 0.09619547 -0.07615508 -0.025022361 0.104142755 -0.075442076
0.0031907775 -0.055658385 -0.040280152 0.10477822 0.01077134 0.17408165 0.17048578 0.050357565
0.08069993 0.10322629 0.10606299 0.1681285 0.16436708 0.2432752 0.12664804 0.113728665
0.065365985 -0.022882199 0.010162353 0.032146774 -0.086788334 0.062217645 0.022193307 0.046462987
0.16321632 0.019901259 -0.019715136 0.13053775 -0.02009309 0.21140595 0.24229996 -0.015615273
0.016437437 -0.016396739 -0.02920018 -0.15428606 0.010740497 -0.08864379 0.030041484 0.019794473
-0.009023297 -0.086557955 0.073726974 0.09302664 -0.06793102 0.10239507 -0.01350862 0.024716407
-0.061863005 -0.23193598 -0.17026092 -0.093206674 -0.16674529 0.04466279 -0.07817023 0.026671687
0.08673478 0.094762325 -0.06272111 -0.0762718 -0.02640075 -0.031565566 -0.10028472 -0.05587234
-0.060599998 -0.011815369 -0.022555247 0.11734933 0.08880812 -0.023410792 0.110455 0.0558399
0.014908563 0.152267 0.18611245 0.08814146 0.051969655 -0.007500777 0.13435021 -0.00045670557
0.012324429 0.108421154 -0.05645468 -0.10002471 0.085564725 -0.16879737 0.08649128 0.10318264
-0.026954316 -0.079420745 -0.0075986544 -0.048442546 -0.07997751 -0.10923786 0.19918676 0.20496552
0.20971337 0.06255097 0.046903525 -0.06493052 -0.034758225 -0.04442995 -0.03562796 -0.062019162
-0.06496247 0.11239717 -0.030356167 0.08379186 0.0965744 -0.2560068 -0.3899446 -0.3612734
-0.010674874 -0.15673389 0.04149231 -0.09809693 -0.2705418 -0.1658874 -0.24017397 -0.17093323
-0.13795273 -0.10429169 -0.18841137 0.022279475 -0.12935777 -0.16315883 -0.06181704 -0.08913664
-0.16491173 -0.14433683 -0.13420306 -0.16673964 -0.15532732 0.033241194 -0.07637439 -0.0097260885
-0.05629234 -0.1784812 -0.10549147 -0.12452741 -0.100078136 -0.236144 -0.2388177 -0.24662955
-0.28088567 0.092084445 0.11476632 0.051571283 0.13914807 0.11413944 0.14514545 0.087340206
0.13445346 0.13670594 0.08338053 0.036669523 0.161556 -0.057496447 -0.098550126 0.0057722074
0.037109893 0.12581658 0.03405435 -0.1165988 -0.13120387 -0.09420397 -0.088393435 -0.0057525686
-0.071535066 -0.13206084 -0.10778941 -0.060331155 0.09511755 0.030253323 0.106487855 0.12326176
0.11760564 0.22549835 0.088504426 0.12023379 0.16517593 0.059582785 0.047222044 -0.0053681224
-0.04043213 -0.070547864 0.02827129 -0.08101556 -0.025755925 -0.09025717 0.034054738 0.071694344
0.15814106 0.11324487 -0.017067889 -0.050119046 0.040499162 0.05647875 0.08874697 0.044293083
0.06891251 0.0804994 0.077472664 0.02328192 0.17442018 -0.11063508 -0.0044911983 -0.00027365948
0.096665524 -0.013199604 0.040538326 -0.0011501 -0.025794629 0.12585987 0.11356591 0.13925499
0.092256755 0.044595487 0.076434486 0.024274109 0.081214085 0.064534634 -0.031096712 0.08380356
0.039482664 0.012924369 -0.082602724 -0.010648783 -0.06839992 -0.087088384 -0.04990676 -0.010342893
0.066092804 -0.02884474 0.03419856 0.027331043 -0.01142713 -0.13563654 0.060632363 -0.023070645
-0.00037906997 0.037100744 -0.08986798 0.025193758 -0.10252277 0.01075377 0.07472135 0.002389503
00000000: 953b 88bc 2f52 afbd 2806 ab3b 2102 c53d
00000010: 32f7 9bbd b2fb ccbc cc48 d53d 6081 9abd
00000020: 5d1c 513b 0cfa 63bd cdfc 24bd f795 d63d
00000030: 467a 303c 7642 323e d393 2e3e bc43 4e3d
00000040: 0146 a53d 4e68 d33d 8e37 d93d e129 2c3e
00000050: d84f 283e 221d 793e 06b0 013e 93ea e83d
00000060: 9ade 853d 7373 bbbc ff7f 263c 56ac 033d
00000070: 15be b1bd eed7 7e3d bdce b53c f94f 3e3d
00000080: 2e22 273e f707 a33c a381 a1bc b0ab 053e
00000090: 449a a4bc cd7a 583e 7b1d 783e 34d7 7fbc
000000a0: cea7 863c 7452 86bc 3735 efbc 2afd 1dbe
000000b0: e9f8 2f3c e08a b5bd 8f19 f63c 0528 a23c
000000c0: 73d6 13bc 4c45 b1bd 2bfe 963d c084 be3d
000000d0: 6b1f 8bbd 82b4 d13d 4253 5dbc 107a ca3c
000000e0: 1064 7dbd a080 6dbe e158 2ebe 24e3 bebd
000000f0: 47bf 2abe 54f0 363d b717 a0bd 957e da3c
00000100: 01a2 b13d c012 c23d ed73 80bd 6434 9cbd
00000110: 6346 d8bc e54a 01bd 1362 cdbd 65da 64bd
00000120: b437 78bd 4095 41bc c8c5 b8bc d854 f03d
00000130: 08e1 b53d fdc7 bfbc 3b36 e23d 61b8 643d
00000140: 0c43 743c e1eb 1b3e 4394 3e3e 8383 b43d
00000150: 22de 543d 14c9 f5bb 1a93 093e fc71 efb9
00000160: 67ec 493c e90b de3d 063d 67bd c1d9 ccbd
00000170: 8f3c af3d 38d9 2cbe 5722 b13d 6c51 d33d
00000180: 4ccf dcbc 58a7 a2bd 22fe f8bb b16b 46bd
00000190: 40cb a3bd 19b8 dfbd 9df7 4b3e 7be2 513e
000001a0: 1abf 563e b91a 803d e91d 403d 4bfa 84bd
000001b0: a45e 0ebd 2efc 35bd a0ee 11bd ce07 7ebd
000001c0: 0b0b 85bd 7d30 e63d 7fad f8bc 119b ab3d
000001d0: cdc8 c53d 5313 83be d2a6 c7be d4f8 b8be
000001e0: abe5 2ebc d97e 20be d7f3 293d 0be7 c8bd
000001f0: 7484 8abe 63de 29be 2af0 75be 1f09 2fbe
00000200: 7b43 0dbe e296 d5bd e9ee 40be 7283 b63c
00000210: 5d76 04be 1c13 27be dd33 7dbd 458d b6bd
00000220: 9fde 28be 09cd 13be 876c 09be ccbd 2abe
00000230: 200e 1fbe eb27 083d 2d6a 9cbd 2c5a 1fbc
00000240: cc92 66bd c7c3 36be e90b d8bd 3a08 ffbd
00000250: c4f5 ccbd bccf 71be a18c 74be 758c 7cbe
00000260: 3fd0 8fbe c596 bc3d 9b0a eb3d 693c 533d
00000270: d57c 0e3e f0c1 e93d 02a1 143e 6cdf b23d
00000280: 2bae 093e a4fc 0b3e 69c3 aa3d c832 163d
00000290: f06e 253e 6581 6bbd a6d4 c9bd c924 bd3b
000002a0: 8b00 183d 10d6 003e 937c 0b3d 5acb eebd
000002b0: 4f5a 06be 03ee c0bd 9e07 b5bd 0b80 bcbb
000002c0: fa80 92bd f53a 07be b2c0 dcbd cd1d 77bd
000002d0: fdcc c23d d1d5 f73c 4e16 da3d a970 fc3d
000002e0: 3adb f03d 0ae9 663e cf41 b53d 223d f63d
000002f0: e123 293e 140d 743d e76b 413d 13e7 afbb
00000300: 299c 25bd 667b 90bd 3199 e73c 7ceb a5bd
00000310: 17fe d2bc c0d8 b8bd fb7c 0b3d 7cd4 923d
00000320: bbef 213e edec e73d f5d1 8bbc a149 4dbd
00000330: 73e2 253d 4356 673d f9c0 b53d aa6c 353d
00000340: 0122 8d3d dfdc a43d fda9 9e3d bab9 be3c
00000350: 349b 323e a594 e2bd e72a 93bb f479 8fb9
00000360: 93f8 c53d 2743 58bc 840b 263d f4be 96ba
00000370: 424f d3bc 69e1 003e 3e95 e83d dc98 0e3e
00000380: 1cf1 bc3d c2a9 363d af89 9c3d 7fda c63c
00000390: 9253 a63d bc2a 843d 88be febc 33a1 ab3d
000003a0: 93b8 213d bcc0 533c 9e2b a9bd 3c78 2ebc
000003b0: 4215 8cbd 655b b2bd 086b 4cbd 3d75 29bc
000003c0: aa5b 873d ce4b ecbc ca13 0c3d 5ae5 df3c
000003d0: db38 3bbc 4ee4 0abe a459 783d a6fe bcbc
000003e0: e9bd c6b9 f3f6 173d b40c b8bd 2463 ce3c
000003f0: 75f7 d1bd 9530 303c 8207 993d 3599 1c3b

module.Classifier.layer3.0.bias f4 [32]
-0.019499883 -0.03459797 0.014180685 -0.049862854 -0.011417962 -0.026327446 -0.08450467 0.011107494
0.04189885 -0.029023057 0.051532675 0.049237087 0.036770415 0.027722498 -0.047640275 0.035789482
-0.094178565 -0.029750926 -0.03600814 0.04641124 -0.048977636 -0.0067775585 0.024477405 0.05832333
0.031748887 0.029747654 -0.0092375735 0.04341316 0.044261463 0.02694427 -0.059534725 -0.029396227
00000000: 38be 9fbc 9ab6 0dbd 1b56 683c fe3c 4cbd
00000010: 6712 3bbc a8ac d7bc c910 adbd 35fc 353c
00000020: 219e 2b3d c3c1 edbc ed13 533d d4ac 493d
00000030: 939c 163d 4b1a e33c 7322 43bd fe97 123d
00000040: b1e0 c0bd 37b8 f3bc 457d 13bd b619 3e3d
00000050: c69c 48bd 4816 debb d784 c83c 72e4 6e3d
00000060: 1f0b 023d 5ab1 f33c 3159 17bc ffd1 313d
00000070: 824b 353d 3bba dc3c afda 73bd 5bd0 f0bc

module.Classifier.layer3.1.weight f4 [32]
0.938643 1.0416393 0.89064026 0.8950558 0.89115524 0.9889023 0.9020235 0.9362748
0.99133676 0.9988029 0.96086645 1.1330256 1.149052 1.2170513 0.9133527 0.99192816
1.1331433 1.0082536 0.7817291 1.0166712 1.1116316 1.0707389 0.86982834 0.9413956
1.1473933 0.93668574 1.1408142 1.1535811 0.7978698 0.99146336 1.239464 0.9446603
00000000: e84a 703f 7054 853f 0001 643f 6022 653f
00000010: c022 643f b328 7d3f 03eb 663f b5af 6f3f
00000020: 3fc8 7d3f 8cb1 7f3f 58fb 753f fc06 913f
00000030: 2314 933f 56c8 9b3f 7cd1 693f 01ef 7d3f
00000040: d70a 913f 740e 813f 661f 483f 4822 823f
00000050: f249 8e3f f90d 893f 12ad 5e3f 4dff 703f
00000060: c9dd 923f a3ca 6f3f 3306 923f 8ca8 933f
00000070: 3241 4c3f 8bd0 7d3f c2a6 9e3f 42d5 713f

module.Classifier.layer3.1.bias f4 [32]
-0.07667523 0.017514005 -0.2067948 -0.16820683 -0.006966802 -0.10049444 -0.17465971 0.01874271
-0.12442819 -0.21046887 -0.09983532 -0.46316436 -0.07046207 -0.052544795 0.01666796 -0.29793614
0.053752493 0.017777713 -0.070804685 -0.17127074 -0.4146204 -0.18389276 0.010287945 -0.12361665
0.030705148 -0.13930161 -0.12227211 -0.28022817 -0.2973473 -0.36849618 -0.17871231 -0.1181281
00000000: e707 9dbd 8879 8f3c 04c2 53be 693e 2cbe
00000010: c549 e4bb 07d0 cdbd ffd9 32be 508a 993c
00000020: 35d4 febd 2785 57be 7676 ccbd e123 edbe
00000030: 6b4e 90bd 3639 57bd 3f8b 883c 168b 98be
00000040: 932b 5c3d 91a2 913c 0c02 91bd 9961 2fbe
00000050: 2049 d4be 624e 3cbe c58e 283c ba2a fdbd
00000060: 5d89 fb3c 15a5 0ebe cd69 fabd 117a 8fbe
00000070: e83d 98be 88ab bcbe 5c00 37be 25ed f1bd

module.Classifier.layer3.1.running_mean f4 [32]
0.4180873 -0.69841516 -2.5884275 -1.929717 -1.3666152 0.17120187 0.30655983 -0.46591514
0.6868016 -0.19492486 -1.5718753 -1.6123395 -3.134072 -1.4968183 0.84661365 -0.039217014
-1.1134224 -0.34630656 0.0690063 -2.9207356 0.6597681 -0.55230266 -0.9291564 1.2672518
-0.3838074 -1.4206845 -0.36243773 -2.3444781 -2.1874983 0.49037603 -1.0300626 -1.1833007
00000000: 8a0f d63e 56cb 32bf cca8 25c0 f700 f7bf
00000010: 3fed aebf 8b4f 2f3e 69f5 9c3e 6e8c eebe
00000020: 3bd2 2f3f 629a 47be 3633 c9bf 2461 cebf
00000030: a394 48c0 be97 bfbf acbb 583f 05a2 20bd
00000040: a084 8ebf 184f b1be 2d53 8d3d 55ed 3ac0
00000050: 90e6 283f b563 0dbf 32dd 6dbf 4f35 a23f
00000060: 6782 c4be fdd8 b5bf 7091 b9be ee0b 16c0
00000070: f9ff 0bc0 9112 fb3e 17d9 83bf 6676 97bf

module.Classifier.layer3.1.running_var f4 [32]
1.8637731 1.2403909 1.1410902 1.1864533 2.87459 1.9387827 1.9072933 1.6075581
0.9707427 1.1242647 1.7464236 2.3654776 2.5880601 1.2708324 2.838982 1.816795
1.0502516 2.5235698 2.0747046 2.2333925 2.317255 1.1602108 1.4552845 2.2150922
1.084165 2.2128937 0.9335704 1.8210083 2.0508595 1.2927623 1.5749475 1.7518606
00000000: 1e90 ee3f 21c5 9e3f 3e0f 923f b4dd 973f
00000010: 48f9 3740 082a f83f 3022 f43f 77c4 cd3f
00000020: 9882 783f e8e7 8f3f cf8a df3f fc63 1740
00000030: c7a2 2540 a3aa a23f e2b1 3540 bd8c e83f
00000040: a56e 863f 2b82 2140 f6c7 0440 e7ef 0e40
00000050: e84d 1440 ca81 943f c346 ba3f 12c4 0d40
00000060: ebc5 8a3f 0da0 0d40 78fe 6e3f cd16 e93f
00000070: 4841 0340 3c79 a53f e197 c93f f83c e03f
