model/Experiment/Spatial_50epoch.pt (torch, 445304 bytes, 68 tensors)

conv1.weight f4 [64, 3, 3, 3]
000000 bc 62 81 bd 3c fb aa bc 52 2e c0 bd db d3 2f 3e
       -0.0631766 -0.020871751 -0.09383835 0.1717066
000010 99 a2 44 3e 6f c7 ec bd 0e d3 1d bb b5 98 37 3e
       0.19202651 -0.115614764 -0.0024082097 0.17929347
000020 a4 48 6f be 84 0a bb bd 1a b7 9f bd 49 aa 4d 3e
       -0.23367554 -0.09132865 -0.07798596 0.2008449
000030 24 c9 c5 3d 51 c5 bf 3d ff 6f 4c 3e 32 b9 0d 3e
       0.09657505 0.09363807 0.19964598 0.13840178
000040 2f be 47 be b5 56 6d be 5c 07 fe bd 67 ec 0f 3e
       -0.19506143 -0.23177607 -0.124037474 0.14055024
000050 90 1a 29 be 36 62 2c be ce 6f f6 bd c8 32 39 3e
       -0.16514039 -0.1683434 -0.12033044 0.18085778
000060 10 49 e8 bd 67 4f 63 3e 7d 6f dc 3d 7a 11 d7 bc
       -0.113420606 0.22198258 0.10763452 -0.02625345
000070 04 68 01 be 0b 4f 61 3e 48 56 69 3c 91 df 02 be
       -0.12637335 0.22002809 0.014241762 -0.12780596
000080 ba 38 de bd 17 91 4f 3e cf 66 0c 3e 5e 9e 53 3e
       -0.108506635 0.20270191 0.13711093 0.20665881
000090 3d d6 fe bd fd d6 9b 3d 49 3e 29 3e 79 c5 bb 3c
       -0.124432065 0.07609365 0.16527666 0.02292131
0000a0 c5 c0 31 be b8 0d 6e be fd f2 d8 3b 2f 21 10 be
       -0.17358692 -0.23247421 0.0066207633 -0.14075159
0000b0 fe 5f 09 be ff 14 8d bd ab b7 c5 3d c5 4e 2e 3e
       -0.13415524 -0.0688877 0.096541725 0.17022236
0000c0 6c 0d 52 3c 24 56 1b be 7c ed 06 3e 92 95 0f 3e
       0.012820583 -0.15169579 0.1317653 0.140219
0000d0 82 d6 f4 bd d0 c5 f8 bc 24 43 ca 3c 2b 6e 59 3d
       -0.119549766 -0.030367762 0.024690218 0.05308358
0000e0 b7 c4 8e 3d ea 07 61 3d 6f c9 e2 bd 5b 59 98 bd
       0.06971114 0.054939188 -0.11073577 -0.07438918
0000f0 9e ba d5 bc e4 ab 20 be c3 c1 2e be 24 aa c4 bd
       -0.026089963 -0.15690571 -0.17066102 -0.09602764
000100 88 91 80 be 49 03 a7 bb c9 24 4a bd a9 51 c6 bd
       -0.25111032 -0.005096827 -0.049351487 -0.09683544
000110 0b 4e bf bb 4b eb a1 bd 43 51 ac 3c 12 2f 4d 3e
       -0.005838161 -0.07906207 0.021034842 0.20037487
000120 44 93 2e bd 6c f4 b3 bd 24 cd 9b 3d 2d 7b 47 3d
       -0.042620912 -0.08786854 0.07607487 0.048701454
000130 25 ed e0 bd 5f 66 3c 3e 1f 3d 8a 3d ec eb 8a 3c
       -0.10982732 0.18398426 0.06749939 0.0169582
000140 ae 51 01 bd 9b 21 53 3e 4a f4 b3 3d c2 a1 1a be
       -0.031572036 0.20618288 0.08786829 -0.15100768
000150 a1 18 48 3e ea d8 9d bd ce 53 f0 bd 22 f4 0a 3d
       0.19540645 -0.07707389 -0.117347345 0.03392423
000160 9a 79 11 bd e5 a9 0e be 7f 41 50 3e 0a 6a 35 3e
       -0.03551636 -0.13931997 0.20337485 0.17716232
000170 fa 1e b5 bd 40 a7 01 bd 1e 84 e4 bd 98 d2 b7 3d
       -0.08843799 -0.031653643 -0.11158012 0.089757144
000180 03 4d 2d 3d 73 c8 0d be 58 7f 2c be 36 3c af bd
       0.042309772 -0.13845997 -0.16845453 -0.08556406
000190 29 fb 59 3e 2a ef 8c 3d fd 82 41 3c 29 d2 57 3c
       0.21287216 0.068815544 0.011811015 0.013172665
0001a0 c0 5a 4e bd 88 d0 52 bd e1 f1 1e be 67 7d 4f 3d
       -0.050379515 -0.051468402 -0.15521957 0.050656702
0001b0 64 40 f8 3d 0e ff 77 be 47 bb e5 bd 4f 68 97 bd
       0.121216565 -0.2421839 -0.11217361 -0.07392942
0001c0 de 62 2d bb 91 aa 54 bd 01 47 eb bd ac fb dd 3d
       -0.0026456635 -0.051920477 -0.11488152 0.10839018
0001d0 72 5f 75 be 06 63 f1 3c c7 dd 2b 3e 8d 84 48 3e
       -0.23962191 0.029466163 0.1678382 0.19581814
0001e0 20 99 08 3d 31 de 04 3e 18 bc 43 3e 6b cb 05 3e
       0.033349156 0.12975384 0.19114721 0.13065879
0001f0 83 32 b4 3d e7 3c c7 3d 61 ee 8c bd b4 6b 0b 3e
       0.08798697 0.09728413 -0.06881405 0.13615304
000200 19 d3 2b be 37 67 04 be d7 9a 28 be 61 d0 9e bd
       -0.16779746 -0.12929998 -0.16465317 -0.07754589
000210 6b 57 23 bd 39 20 0e bd 57 a0 de 3c 2d 65 ba 3d
       -0.03987829 -0.0346987 0.027176065 0.09101329
000220 79 63 8f bd 4d db 63 3e 6d 18 4f 3d bc 52 05 3e
       -0.07001395 0.22251625 0.050560404 0.13019842
000230 bb 6a 27 3e 47 8f 06 bd d7 20 8f 3c 78 02 28 bd
       0.16349308 -0.032851484 0.017471714 -0.04101798
000240 24 fa f5 bd 8f da 27 bb a1 ef a1 bb 03 2a 34 be
       -0.12010601 -0.0025612449 -0.004941896 -0.17594151
000250 18 f3 53 bd 01 f7 51 be 17 b5 58 be f9 89 4f be
       -0.051745504 -0.20504381 -0.2116283 -0.20267476
000260 81 df 0a be f1 a6 c1 3d 14 12 66 bd ce 8a 9d 3d
       -0.13561822 0.0945567 -0.056169584 0.076924905
000270 6d f4 b8 3d eb fb 93 bd d8 80 9a 3d 5b 10 1b 3e
       0.090309955 -0.07225784 0.07544106 0.15142958
000280 18 7e 2e 3c 5e b0 0a 3e 2c 58 80 3e 39 d9 69 3e
       0.01065018 0.13543841 0.2506727 0.2283677
000290 2b a0 39 3e 52 b3 ed bd 03 9a 2f 3e 37 8c 11 be
       0.18127505 -0.11606468 0.17148595 -0.14213644
0002a0 2c 9e 2b be 1b a6 96 3b 61 e8 3d be aa 8f 24 be
       -0.16759557 0.004597438 -0.18545677 -0.16070428
0002b0 8b d8 12 3e ef 5c 3a 3e d6 b9 de bd 67 02 05 be
       0.14340417 0.18199514 -0.10875289 -0.12989198
0002c0 72 e9 03 be 87 3e 5f 3d bc 66 de 3c b5 6f 48 3c
       -0.12882021 0.05450299 0.027148597 0.012233664
0002d0 b3 af 5e 3e 56 8a cb 3d 1a c9 00 be 74 02 0a 3e
       0.21746711 0.09938495 -0.12576714 0.13477498
0002e0 4b 27 0a 3e 84 bb 73 be 28 6d e4 bd 07 00 e4 3c
       0.13491552 -0.23802 -0.111536324 0.027832044
0002f0 df 67 43 3d db 34 be 3d ef 22 25 3d 95 c2 1b 3e
       0.04770648 0.09287425 0.04031652 0.15210946
000300 4d a2 12 3a f0 4f 6a bd cd 0e d9 3c 87 d6 66 3e
       0.00055936427 -0.05720514 0.026496315 0.22542773
000310 c4 bb 0d 3e e6 b6 8c 3d 56 d2 37 bd a4 4a 0e be
       0.13841158 0.068708226 -0.044878326 -0.1389566
000320 9e 5b f4 bd 9c d4 50 be 50 1d 2d be da e1 15 be
       -0.11931537 -0.20393604 -0.16905713 -0.14636937
000330 f9 a7 84 be 0c 7b ab 3c 0f e1 69 be c9 f1 f6 bd
       -0.25909403 0.020932697 -0.2283976 -0.120578356
000340 4a 5a 05 3e 13 83 80 3d 09 c4 6f 3e 55 22 dd 3d
       0.13022724 0.062750004 0.23414625 0.10797564
000350 d5 68 a8 3d 97 34 91 bd 2a d3 37 3e d5 e2 88 bc
       0.0822312 -0.07090109 0.17951646 -0.016709724
000360 b8 17 2d 3e 01 31 08 be 16 13 2a be 0e ed a5 bb
       0.16903579 -0.13299944 -0.16608843 -0.0050636595
000370 3f 1e 40 3e 6b 7f 4d 3d 4f bd 14 ba 6d bf a6 bd
       0.18761538 0.050170343 -0.0005673961 -0.0814198
000380 10 f2 23 3e 44 15 c2 3d c4 0b 5e 3d 2d e1 61 bb
       0.16010308 0.09476712 0.05421044 -0.003446649
000390 a3 72 10 3e be f2 26 3e c3 e9 28 be c3 03 be 3c
       0.1410623 0.16303536 -0.16495423 0.023195153
0003a0 b5 e4 34 bd f4 b7 0e bd 23 2b 63 be 73 fa 0a 3e
       -0.044163425 -0.0348434 -0.22184424 0.13572101
0003b0 e9 7f 45 3e f1 34 1d be 37 2a ee bd 90 f1 3c be
       0.19287075 -0.15352227 -0.116291456 -0.18451524
0003c0 8a 64 5d be ef b1 a1 3b e3 f6 e4 3d 40 b2 0d be
       -0.21620384 0.0049345414 0.111799024 -0.13837528
0003d0 67 f5 e9 bd f1 c2 7c 3d 57 24 ff bc 53 66 87 bd
       -0.1142376 0.061709348 -0.031145258 -0.06611314
0003e0 8e 07 01 3e f1 27 3b be 2e c0 c7 bd 1e f8 94 bd
       0.12600538 -0.18276955 -0.09753452 -0.07273887
0003f0 e5 4c 47 3e 83 c2 69 3e 4f d1 4b 3d d0 b8 85 3e
       0.19462927 0.22828107 0.04976016 0.26117563

conv1.bias f4 [64]
000000 87 5b 07 3e fa 57 55 be ef 4a 4f 3e 1a 74 2e 3e
       0.13218509 -0.20834342 0.20243429 0.17036477
000010 73 d0 b5 bd 55 9d af 3d 83 82 29 3e 87 cb 65 bd
       -0.08877649 0.085749306 0.16553693 -0.056102302
000020 23 13 2e 3e b9 67 ca bd 5b 9e 5a be c9 3e 36 3c
       0.16999488 -0.09883065 -0.2134947 0.011123368
000030 d7 dc 5e 3d 90 f1 53 3e 77 55 aa bd 39 9a 8f 3d
       0.054409828 0.20697618 -0.083170824 0.070118375
000040 e5 fe 98 bc 26 0b 36 be 7a 96 a1 bd 73 31 66 bd
       -0.01867623 -0.1777769 -0.07890029 -0.056199502
000050 eb 2e 00 be 11 db e7 3d 5a 7d 1f be b1 be cf bd
       -0.12517898 0.113210805 -0.15575162 -0.101437934
000060 50 de 45 be 7c 9d 6f bd e0 9f 8d 3d 6b c3 45 3d
       -0.19323087 -0.0584998 0.06915259 0.04828207
000070 f7 26 32 be c1 48 1d be 4f 9d 6d bc d3 8a 3a be
       -0.17397676 -0.15359785 -0.014502837 -0.1821702
000080 5c 86 20 3d ea de 9b 3d 88 3a 7c 3d 82 7e b1 3d
       0.039190635 0.07610877 0.061579257 0.086667076
000090 57 29 ce bc c9 da f6 bd 87 55 0c 3e 5f 7c 6e bd
       -0.025166197 -0.12053449 0.13704501 -0.05822408
0000a0 06 be 93 bd 4d f9 d5 bd a8 c6 90 bd f3 c0 80 3d
       -0.072139785 -0.10447941 -0.07069141 0.06286802
0000b0 32 a7 35 3d 3e a2 74 bd dc 85 69 be 11 ab 3f bc
       0.044348903 -0.05972504 -0.2280497 -0.0116985
0000c0 50 f1 d4 3a b5 37 96 bd 97 15 9a 3d 8f b0 4a 3e
       0.0016246233 -0.07334844 0.07523649 0.19793914
0000d0 9b 4e 0e be 36 c5 29 3e 23 1e 13 bd 83 3e 0a be
       -0.13897173 0.16579136 -0.035917412 -0.13500409
0000e0 ee 05 21 3e 2d d6 1a be 99 b0 12 bd f2 81 9c 3c
       0.15724918 -0.15120764 -0.035812948 0.019104932
0000f0 df b1 2c 3e 76 3e 1b be ca 99 f5 bd 2c dd bc 3d
       0.16864727 -0.15160546 -0.119922236 0.09221873

BN.weight f4 [64]
000000 3c 07 5e 3f 69 f7 38 3f c3 63 36 3f 5a c8 84 3f
       0.8672979 0.7225252 0.71245974 1.0373642
000010 bd f0 75 3f 65 9e 44 3f dd ba 59 3f c8 94 98 3f
       0.9607046 0.7680419 0.85050756 1.1920404
000020 42 9d 1b 3f 04 6a 4f 3f dd df 47 3f 25 26 48 3f
       0.6078683 0.8102114 0.78075963 0.78183204
000030 ad 32 36 3f 27 55 2f 3f 1e 99 4f 3f 39 97 65 3f
       0.71171075 0.6848931 0.81093013 0.8968387
000040 97 2a 74 3f 47 9a 9c 3f d3 5e 8f 3f ae 4e 47 3f
       0.95377487 1.2234582 1.1200813 0.7785443
000050 17 de 5f 3f 28 90 5b 3f c6 50 28 3f 1a 30 2c 3f
       0.8744826 0.8576684 0.6574825 0.672609
000060 43 ed 42 3f d2 73 3a 3f 25 d8 4f 3f 28 3f 3f 3f
       0.7614328 0.7283298 0.81189185 0.74705744
000070 5a 1c 64 3f 55 8c 34 3f bf e4 2e 3f 9c a5 4f 3f
       0.8910576 0.7052663 0.6831779 0.81112075
000080 1f 0b 56 3f 19 53 6f 3f ac fb 1e 3f d5 15 21 3f
       0.8361072 0.9348617 0.6210277 0.6292394
000090 5b 93 1e 3f ca d1 0e 3f ee 3e ac 3f 37 9a 80 3f
       0.61943597 0.5578886 1.3456705 1.0047063
0000a0 8b a3 19 3f 97 3e 29 3f 8a 31 54 3f f3 7e 8b 3f
       0.6001517 0.6611113 0.8288809 1.0898117
0000b0 ce 79 2a 3f 06 02 62 3f 00 9e 89 3f 2f 10 36 3f
       0.6659211 0.8828434 1.0751343 0.71118444
0000c0 13 35 3d 3f d0 95 51 3f 3e 96 88 3f 2a 2a 31 3f
       0.7390911 0.8186922 1.067085 0.6920496
0000d0 9b 00 10 3f b7 4b 53 3f fa be 96 3f 0b bd 47 3f
       0.56250924 0.82537407 1.1777031 0.7802283
0000e0 71 d6 5a 3f 18 ca 3f 3f 99 89 1e 3f 41 7d 46 3f
       0.8548346 0.74917746 0.6192871 0.7753487
0000f0 29 6b 41 3f 93 ed 39 3f e1 19 47 3f 5c 88 1e 3f
       0.7555414 0.72628134 0.77773863 0.6192682

BN.bias f4 [64]
000000 ed 6b 81 3d ab d2 b3 3b b3 b7 87 be a0 25 78 bd
       0.06319413 0.00548776 -0.2650734 -0.060582757
000010 dd ac 2b 3f ce 94 8c 3d bd a7 70 be 5a 9a d0 3e
       0.67060643 0.0686432 -0.23501487 0.4074276
000020 c7 19 26 bc 4c c7 e6 be 4e 0a 14 bf a3 21 82 be
       -0.010137982 -0.45073926 -0.57828224 -0.25416288
000030 44 aa b5 3d 89 dc ab be 84 55 57 be ae 9e dd bc
       0.08870366 -0.33566692 -0.21028715 -0.027053203
000040 8c 16 99 3e 00 a3 76 3f 4c b9 73 bd 91 72 39 bf
       0.29900014 0.9634247 -0.059502885 -0.7244044
000050 9b e1 ec bd 16 32 61 3e 39 f6 55 be f1 34 a0 be
       -0.11566468 0.21991763 -0.20894708 -0.3129039
000060 76 a0 8b bd cf 17 21 bc 3e 5b 0f bc fe 3c 08 bf
       -0.06817715 -0.009832337 -0.008749781 -0.53218067
000070 73 c6 c6 3e be b8 59 bf 15 ac 2b be da a1 07 bd
       0.3882328 -0.8504752 -0.16764863 -0.033113338
000080 bc ed 09 3f 8e 7c 1c 3d bb 53 b9 be 97 5e f0 be
       0.5387838 0.038204722 -0.36196694 -0.46947166
000090 e4 92 c2 be 19 2d 81 be df 3e cd 3e 4b 87 8e 3e
       -0.38002694 -0.2522972 0.4008703 0.27837595
0000a0 ff 15 4d be 9b 9e 7c be 56 97 63 3e a3 e3 92 bd
       -0.20027922 -0.24669878 0.22225699 -0.071723245
0000b0 e9 92 a9 be 5e 32 b0 3d 5c f7 3d 3f 59 d5 87 be
       -0.33119896 0.08603357 0.74205565 -0.2652996
0000c0 35 15 19 be 05 ca b9 bd 66 c9 e1 3e 7b b3 86 bd
       -0.14949496 -0.09071735 0.44098967 -0.06577202
0000d0 c8 99 92 be f7 cb a2 be bf 5e 42 3f 9f 38 96 3e
       -0.2863295 -0.31796238 0.7592582 0.29340073
0000e0 84 6e 9a be 16 69 9d be 81 b8 9d be d5 b8 0c 3f
       -0.30162442 -0.30744237 -0.30804828 0.5496953
0000f0 35 c3 89 be fd 0d c4 be a5 b9 2b be 60 92 a7 be
       -0.26906744 -0.38291922 -0.16770037 -0.32728863

BN.running_mean f4 [64]
000000 14 bb 14 3e 5f eb 55 be c3 d3 12 3e e5 ea 30 3e
       0.1452449 -0.20890568 0.14338593 0.17277105
000010 d1 2a ce bd 50 0d 9e 3d 6f 4e 58 3e ae 20 64 bd
       -0.1006676 0.07717383 0.2112367 -0.05569523
000020 d3 cd 07 3e c1 11 e1 bc 3e 2f 11 be 5a 6f 07 3d
       0.1326211 -0.027474286 -0.14178178 0.033065178
000030 e6 33 a7 3d c2 28 ab 3e 58 15 3d be 8f f8 ed 3d
       0.08164196 0.33429533 -0.18465173 0.116196744
000040 9d ac 58 bd 69 b8 39 be df b5 85 bd f1 e0 7b bc
       -0.05289899 -0.18136753 -0.0652883 -0.015373454
000050 9a d6 47 bd 32 b8 05 3e c2 f3 87 bd 12 87 36 be
       -0.048788644 0.13058546 -0.0663829 -0.17824963
000060 e2 ca 41 be d6 8b d0 bd ec 1a 69 3d 9d 06 de 3d
       -0.1892505 -0.101829216 0.05691044 0.10841105
000070 d0 73 33 be c7 d0 00 bc ae 55 93 bc 3a e7 40 be
       -0.17524648 -0.007862276 -0.017985191 -0.18838206
000080 f1 4b 5a 3d 81 c5 9f 3d 15 94 93 bb d5 4a b1 bb
       0.05329508 0.07801343 -0.0045037367 -0.005410532
000090 33 db 41 bd bd b4 d1 bd 38 b2 11 3e c5 85 17 be
       -0.047328185 -0.10239551 0.14228141 -0.14797123
0000a0 a1 f1 ae bd 6b 6a bc bd 7e 6a 32 be 59 22 84 3d
       -0.08542181 -0.09199985 -0.17423436 0.06451864
0000b0 00 bb 87 be 0c b3 81 bd 84 70 6b be 94 39 5e bd
       -0.26509857 -0.063329786 -0.2299214 -0.05425413
0000c0 39 67 9b bc 26 12 9d bd 39 d5 ba 3d a1 ff 3f 3e
       -0.018970119 -0.07669477 0.091227 0.18749858
0000d0 fa 9d 28 be a2 22 45 3e 92 50 08 bd de 3e 0b be
       -0.16466513 0.19251493 -0.033279963 -0.135982
0000e0 0a 6b 61 3e e3 6e a3 bd d9 5d 4b 3c 59 a3 a2 3c
       0.22013488 -0.07980134 0.012412512 0.01985328
0000f0 fc 6f 52 3e f1 d1 2d be 26 27 9f be e6 5a 7c 3d
       0.20550531 -0.16974618 -0.31084555 0.061610125

BN.running_var f4 [64]
000000 8e 25 79 3d 88 d2 cf 3d f1 bd 00 3f f1 ae 3e 3e
       0.06082683 0.101475775 0.5028983 0.18621422
000010 77 12 eb 3d 51 e0 20 3e 44 96 9f 3e 2b 78 21 3e
       0.11478131 0.1571057 0.3116933 0.15768497
000020 c3 7e 9b 3d d9 a9 04 3f fa ae 65 3f 62 cf 37 3e
       0.07592537 0.51821667 0.8972012 0.17950204
000030 c1 08 13 3e da 5f 05 3f 78 fb ac 3e 0b 7e fd 3d
       0.14358808 0.5209938 0.33785605 0.123775564
000040 68 1e e7 3d bd 6c 33 3c 9f 56 9c 3e e5 24 8e 3f
       0.112850964 0.010951218 0.30534837 1.1105009
000050 fd ad ba 3e df c0 f2 3d c9 02 c2 3e 40 45 e7 3e
       0.36460868 0.118531935 0.3789275 0.4517002
000060 e1 58 4b 3e a1 cb 85 3e 71 e8 67 3d 6a 5d 97 3e
       0.19858123 0.2613192 0.056618158 0.29563457
000070 b1 57 97 3c 94 b1 31 40 16 c6 06 3e 4d 41 ee 3d
       0.018474432 2.7764635 0.13161501 0.11633549
000080 ff a2 66 3d 1e 36 40 3e ac 7d ab 3e a8 f0 9c 3e
       0.05630779 0.18770644 0.33494318 0.30652356
000090 b4 41 14 3e d0 1b a7 3d ea 09 1c 3e 06 5a fd 3e
       0.14478189 0.08159602 0.15238157 0.49482745
0000a0 9b a6 15 3e 76 09 10 3e e4 54 e0 3e da cc e8 3d
       0.14614336 0.14066109 0.43814766 0.11367197
0000b0 66 fe 8d 40 90 1b 9f 3c 5d 48 54 3c 6e 38 51 3e
       4.4373045 0.019422323 0.012956706 0.20431682
0000c0 53 d5 3e 3e a8 9c dd 3d de 72 cb 3d af 50 af 3d
       0.18636064 0.108208954 0.099340186 0.08560311
0000d0 dd 65 e7 3d 07 2a 5e 3e 3e 65 1e 3c 37 49 ca 3d
       0.11298726 0.2169572 0.009667693 0.09877246
0000e0 dd a9 1d 3f c8 f1 b2 3e 72 3a 7c 3e e8 70 d8 3c
       0.61587316 0.3495009 0.2463167 0.026421025
0000f0 2c d4 2c 3e 42 d5 e0 3e fb 08 f1 3f 30 da ef 3e
       0.16877812 0.43912703 1.8830866 0.4684615

Classifier.layer1.0.weight f4 [32, 64, 3, 3]
000000 55 cb f6 3d 43 b5 e8 3d 9b 4a 45 3d 8f 73 01 3c
       0.12050501 0.11362698 0.048166852 0.0079010865
000010 bb 7e 2a bc 19 46 9d bd aa a5 6f 3d aa 40 f1 3c
       -0.010406191 -0.07679386 0.0585076 0.02944978
000020 1d 56 79 bd a6 5d aa bd 73 a0 a7 bd 37 62 a6 bc
       -0.06087314 -0.08318643 -0.081849 -0.020310504
000030 78 5d 33 3c f2 1a f7 3c 1f 22 1d 3d f6 c3 e9 3c
       0.010947578 0.030164216 0.03836262 0.028535824
000040 be e1 9e 3b 3f 3e 3e 3d 7f a5 b5 3d 2b d3 c9 3d
       0.004848688 0.04644608 0.088694565 0.0985473
000050 99 5b 9d 3d fa e4 e0 bb 51 d0 f9 3c 2e 2b 16 3d
       0.076834865 -0.0068632336 0.03049484 0.036662273
000060 1f 1d 7b 3d 86 e7 03 3d 52 ed 15 3d a5 ad 87 3d
       0.06130707 0.03220322 0.03660328 0.06624917
000070 95 f0 02 3d 8e d5 90 3c 55 7f b1 3d e0 82 d4 3d
       0.03196772 0.017679956 0.08666865 0.10376525
000080 7d ae 52 3d f7 3a a0 3c d6 cf f8 bc 3b 6f 53 bd
       0.051435936 0.019559367 -0.030372541 -0.05161975
000090 b9 66 21 3e 8c 15 ab 3d 8f cb 42 bb f5 bc f3 3c
       0.15761842 0.08353719 -0.002972338 0.029753188
0000a0 e5 29 ff ba 92 28 02 3c ef 34 8a bd c0 2b b6 bd
       -0.0019467442 0.007944243 -0.067483775 -0.088950634
0000b0 b0 6c a8 bd 5c 51 44 ba e0 8f 08 3c 27 f3 8e 3d
       -0.082238555 -0.000748893 0.008335084 0.069799714
0000c0 54 c5 42 3c 7c 44 c5 3b 55 02 1d 3d 56 b4 17 bd
       0.011887867 0.006020127 0.038332302 -0.037037216
0000d0 08 33 9c bd 5e b0 c6 bc ae 72 f1 3c c9 e8 4f 3c
       -0.07626921 -0.02425402 0.029473629 0.012689778
0000e0 99 84 28 3d 0b 25 8b 3d f4 f6 f4 3d 56 28 15 3e
       0.04114208 0.06794175 0.11961165 0.14566168
0000f0 8b f6 6c 3b 50 ca 93 bc fc 13 56 bc 16 0c 0a bd
       0.0036157693 -0.018040806 -0.013066288 -0.033702932
000100 88 57 0e bd 69 ea bd bd b2 a4 38 3d 57 f1 07 3d
       -0.034751445 -0.09273226 0.04507894 0.033189144
000110 1a 36 08 3d 49 9e 4d 3d 11 ce 1e 3d c2 c1 39 3c
       0.03325472 0.05019978 0.03877074 0.011337699
000120 4a a4 9b 3c 4c 54 82 bc 3b 6f e9 3a 50 46 96 bb
       0.018999238 -0.015909337 0.0017809639 -0.0045860186
000130 e7 42 29 bd b4 00 dd bd c0 d8 8a 3d a9 f0 a7 bb
       -0.04132357 -0.1079115 0.06779623 -0.0051251245
000140 63 9c 9a bd 9e 35 aa 3d 9c a7 46 3d 3a 0e 7f 3c
       -0.0754936 0.08311008 0.04849969 0.015567357
000150 cb 35 3a 3d d7 45 86 3c f5 14 0d bd c8 0f 9c bc
       0.045461457 0.016390724 -0.034443814 -0.019050494
000160 2e 24 93 bd 6d 19 52 bd 37 4b 82 3d 22 35 6a 3d
       -0.07184635 -0.05129378 0.06362002 0.057179578
000170 55 e5 79 3d 8e 60 a2 3c f5 b3 de bc a9 8b f7 bc
       0.061009724 0.019821431 -0.02718542 -0.030217962
000180 8d 34 dc bc 83 e6 a6 bc ef 2e 0c bd b2 ad 0b 3c
       -0.026880527 -0.020373588 -0.034224447 0.008525299
000190 58 ed 5f 3d 15 dc 06 3d e2 f2 0d be ef 89 cf bd
       0.054669708 0.03292473 -0.13862184 -0.101337306
0001a0 4d d9 28 bd 75 d9 b5 bc a7 23 19 bd 19 74 8b bd
       -0.04122286 -0.022198418 -0.037387516 -0.06809253
0001b0 ff 98 bf 3d 1f e5 90 3d 84 04 82 3d 71 71 89 bc
       0.093553536 0.070749514 0.063485175 -0.016777726
0001c0 ff 7f 8c bd 80 9d 87 bd ea 9e b2 bd 9b 05 f9 bd
       -0.06860351 -0.066218376 -0.08721717 -0.12159272
0001d0 26 c4 c8 bd 70 44 c7 3b 30 e4 40 3c 00 92 f8 3b
       -0.09803037 0.0060811564 0.011773154 0.007585764
0001e0 08 68 d3 3c 69 1e 49 3d 23 68 51 3b a6 4b 27 bd
       0.025806442 0.049101267 0.003195294 -0.04084363
0001f0 b2 a4 94 3c 0e 87 4f 3d 99 c7 b2 3c 41 e7 04 bd
       0.01814494 0.050665908 0.021823691 -0.032447103
000200 39 7d 4e bc 6b 1c 5a bc fe 24 7d bd 12 9d 85 bd
       -0.012603098 -0.013312439 -0.061802857 -0.065240994
000210 72 e9 8c bd 13 6d d7 bd f7 17 3f bd 6b f8 63 bc
       -0.06880464 -0.10518851 -0.046653714 -0.013914208
000220 0d 67 aa bb b8 68 77 3b 88 93 af bb f1 61 02 3d
       -0.005200273 0.0037751626 -0.0053581633 0.031831685
000230 c1 cd c2 3a 55 7a 8c 3c d2 c4 fb 3c e8 6f a8 bb
       0.0014862345 0.017148176 0.0307335 -0.0051402934
000240 0a af 31 bd 83 2e d3 bd c4 3d 5b bd 83 be 3a bc
       -0.04337982 -0.10311606 -0.0535257 -0.011397961
000250 bc 1a 3c bd 56 a8 ba bd eb 6d 8c 3c 28 a8 c1 3c
       -0.045923933 -0.09114139 0.017142257 0.023639753
000260 55 5e 25 bc 4c 6f 7d bd 51 70 11 3d 2a bd 4a 3e
       -0.010093291 -0.06187372 0.035507504 0.19798723
000270 b3 de 1e be a8 cc e2 bd 6b 71 aa 3d 2b 2d f4 bd
       -0.1551464 -0.11074191 0.08322414 -0.119226776
000280 56 67 0c be f1 5d 90 bd 1e 8c 50 bd 2d 79 0d be
       -0.13711295 -0.07049168 -0.050914876 -0.13815756
000290 56 2f 2c be 3c 96 54 3a f5 d2 1d be dc 88 34 be
       -0.16814932 0.0008109545 -0.15412505 -0.17630333
0002a0 bd e5 a0 bd 75 ea 39 be 7b d6 df bd f7 c5 d4 bb
       -0.07856319 -0.18155845 -0.10929581 -0.006493326
0002b0 ae b4 61 3c 76 d0 2e 3b c2 c3 b0 bd e1 96 0c bd
       0.013775988 0.0026674545 -0.08631088 -0.034323577
0002c0 0c 84 0b bd de 7b 98 bd ce 12 b2 bd ec 7b cf bd
       -0.034061477 -0.07445501 -0.08694993 -0.10131058
0002d0 0d 81 b4 bd 20 7e 79 bd 70 b5 50 3c 0d 3c fb 3a
       -0.08813677 -0.060911298 0.012738571 0.0019167677
0002e0 cf 43 42 3d 4e 9b 2a 3d 53 12 2a bd 69 3d e5 3c
       0.04742795 0.041652016 -0.04152138 0.027983384
0002f0 cb 54 a2 3d 8f d7 a6 bb 73 95 2c bd 57 5d 95 bc
       0.07926329 -0.0050916146 -0.042134713 -0.018232984
000300 a4 ec 99 3d aa aa 6f 3d c4 dc 1e bd 60 36 c0 3d
       0.07515839 0.058512367 -0.038784757 0.09385371
000310 07 c4 b0 3c 68 46 74 bb 73 f5 66 bd 3e 78 4f bd
       0.021577848 -0.003727341 -0.056386422 -0.05065178
000320 9f 1e e6 3c bb 65 68 bc 01 36 d5 bc 3e 88 13 3d
       0.028090773 -0.014184411 -0.026026728 0.036018603
000330 b6 6c 67 3c dc 86 52 3d 16 9a 4b 3d e7 5f 1c 3c
       0.01412504 0.051398143 0.049707495 0.009544349
000340 e7 6b 62 bc c9 23 4d 3d 20 f5 03 bd c3 e2 41 3b
       -0.013819671 0.050082956 -0.03221619 0.0029584623
000350 e8 43 77 bc f3 db 87 bd aa 68 db bc 46 a1 39 bc
       -0.015091874 -0.06633749 -0.026783306 -0.0113299545
000360 e0 88 08 be 8d f9 eb bd 73 24 88 bd 0e 10 af bd
       -0.13333464 -0.115222074 -0.06647577 -0.08547984
000370 2f 75 00 be 6f 82 46 be db 43 2c be 17 18 03 be
       -0.12544702 -0.19385694 -0.1682276 -0.12802158
000380 58 c7 0a be 42 4c 1b bd 02 24 60 bd 16 ee 14 3d
       -0.13552606 -0.037914522 -0.05472184 0.03635987
000390 9d c3 75 bd 1f 74 4b bd 7e 06 3e 3d 0f 42 42 bd
       -0.060001004 -0.04967129 0.04639291 -0.04742628
0003a0 da f0 d7 bd 72 ff 22 bd 41 d2 30 3c 4d 57 1c bc
       -0.10543986 -0.039794393 0.010792316 -0.0095422985
0003b0 4c 70 c0 3c 04 c1 aa bd 2c 43 6a bd 3d 30 67 bc
       0.023491047 -0.08337596 -0.057192966 -0.014110622
0003c0 a4 e9 64 bd b5 59 9a bd 0d 77 b5 bd 11 50 8c 3d
       -0.05588688 -0.075366415 -0.08860598 0.06851209
0003d0 b3 9e 53 3c 70 51 43 3d 41 d0 7c bc 70 a7 94 bc
       0.012916255 0.047685087 -0.015430511 -0.018146247
0003e0 bf 92 55 bc 24 47 80 bc e1 8c e7 3c e2 fb 91 bc
       -0.013035475 -0.015658922 0.028265418 -0.017820302
0003f0 33 24 90 bd 36 78 08 be 65 ac 09 be 76 11 a2 bd
       -0.070381545 -0.13327107 -0.1344467 -0.07913487

Classifier.layer1.0.bias f4 [32]
000000 2a c8 e6 3b 83 93 85 bc 8e 00 58 3d 97 04 00 bb
       0.0070429044 -0.01630569 0.052734904 -0.0019533986
000010 80 c6 fe bc eb 6d 07 3c d3 b6 4e bc 91 3d 00 3c
       -0.031100512 0.008265953 -0.012616831 0.007827179
000020 60 fb fc 3b ec 8a 80 3c ea 31 07 bb 6e f2 4e 3c
       0.007720396 0.015691243 -0.0020629116 0.012631042
000030 ba c4 1d 3d 36 ea 34 3d 9b cf 8e bc b7 e1 1a 3d
       0.03851769 0.044168673 -0.017432978 0.037812915
000040 0b c5 75 3c ba 28 ba 3c cf b2 8e 3c 92 88 c2 3c
       0.015000592 0.022724498 0.017419247 0.023746762
000050 3d 72 e8 bc f0 fc c1 3c 05 96 61 bb 53 34 25 3c
       -0.028374786 0.02368018 -0.0034421694 0.010083276
000060 8e c4 17 bc 52 31 79 bb 36 e4 6f bc 99 04 17 3d
       -0.009263171 -0.0038023782 -0.014641812 0.03686962
000070 56 59 0c 3c 0d b6 2d b9 53 4b 16 bd 3a 73 84 ba
       0.008566221 -0.00016566385 -0.03669293 -0.0010105141

Classifier.layer1.1.weight f4 [32]
000000 42 02 52 3f 1a 89 82 3f 44 83 5b 3f 4e b2 4c 3f
       0.82034695 1.019809 0.8574717 0.7995957
000010 a8 8f 8f 3f be 40 6d 3f 82 85 70 3f 90 58 5d 3f
       1.1215715 0.92676914 0.93953717 0.8646326
000020 f2 85 6c 3f d7 34 7c 3f 80 4f 64 3f b0 cc 49 3f
       0.92391884 0.9851813 0.8918381 0.78827953
000030 3b b8 40 3f 97 fc 42 3f 19 a7 5b 3f 2c 43 81 3f
       0.75281113 0.7616667 0.85801846 1.0098624
000040 32 2d 7d 3f 1d 01 49 3f 32 ab 86 3f 8a 0b 51 3f
       0.9889709 0.78517324 1.0520995 0.8165823
000050 ae 94 87 3f 75 d6 8d 3f 0e 93 aa 3f d4 65 66 3f
       1.0592248 1.1081072 1.3326128 0.8999913
000060 8b 71 5b 3f 6d 2d 6f 3f 5b de 7a 3f ef 71 5e 3f
       0.8572013 0.9342869 0.9799554 0.868926
000070 65 b8 92 3f 65 f8 69 3f 2d b5 66 3f f4 2f 77 3f
       1.1462523 0.91394645 0.901202 0.96557546

Classifier.layer1.1.bias f4 [32]
000000 1f d9 2d be 5b 77 80 bd 5c f7 a8 be 20 56 38 bf
       -0.16977356 -0.06272765 -0.3300122 -0.72006416
000010 00 49 84 3e e6 26 ca 3d 00 83 92 bd 80 92 e7 be
       0.25836945 0.098707005 -0.071538925 -0.45228958
000020 6d 92 5e 3c 0a ac cf bd 33 d6 9f be 0e c2 8b be
       0.013584715 -0.10140236 -0.3121811 -0.2729649
000030 74 3b 99 bd 59 e6 9e be b3 c9 44 be 65 28 c2 3d
       -0.07482043 -0.31035116 -0.19217567 0.09480361
000040 1c f1 c0 bd 92 65 ab be e7 e0 c8 bd ad e1 a0 bd
       -0.09420988 -0.3347593 -0.09808522 -0.07855544
000050 e4 4d e6 3e 47 9f 3b 3e d5 b9 a5 3e b8 41 0a 3e
       0.449813 0.18322478 0.3236834 0.13501632
000060 9f f5 5e be 9b 5d ec bd 58 b1 ed 3d e6 9d 17 be
       -0.21773385 -0.11541291 0.11606091 -0.14806327
000070 01 ae 4f 3d 39 cd e9 bd 7f 26 99 3e 27 1d 95 bd
       0.050703052 -0.11416096 0.29912183 -0.07280951

Classifier.layer1.1.running_mean f4 [32]
000000 b9 18 8c c0 90 a2 89 c0 ce 5d 45 bf 7b bc db 3e
       -4.378018 -4.301094 -0.7709626 0.42917237
000010 b9 f2 06 c0 37 60 72 c0 ba 8d 41 3f 63 ac 76 40
       -2.1085646 -3.7871225 0.7560688 3.8542717
000020 3e 92 bc bf 85 2f 5d bd 2c 7c 96 c0 0b 66 b2 3f
       -1.473213 -0.054000396 -4.7026577 1.3937391
000030 95 52 26 c0 4f 27 7e c0 a3 fd 21 bf ed 77 c9 bf
       -2.5987904 -3.9711492 -0.63277644 -1.5739723
000040 73 86 82 c0 04 88 02 bf d8 db 9a c0 f5 b3 f3 bf
       -4.0789123 -0.50988793 -4.8393364 -1.9039294
000050 31 53 05 bf 54 5a d1 c0 eb f9 71 be 2a cc 22 c0
       -0.52080065 -6.5422764 -0.23630492 -2.5437112
000060 96 69 8e 40 db 11 6d c0 b8 37 95 c0 03 3b cc bf
       4.450389 -3.7042148 -4.6630516 -1.5955509
000070 45 73 cc be eb 03 52 c0 a8 74 a3 c0 bb ad 62 c0
       -0.39931694 -3.2814891 -5.1079903 -3.5418537

Classifier.layer1.1.running_var f4 [32]
000000 35 a2 0b 41 2e 83 5c 41 d0 0b a9 40 1c 6d 54 40
       8.727101 13.782026 5.282692 3.3191595
000010 e2 8e ca 40 77 ff 7a 41 23 66 0c 41 16 66 93 40
       6.3299417 15.687369 8.774936 4.6062117
000020 c0 7f a2 40 1e ea 8a 40 62 3c 33 41 94 6a 94 40
       5.0780945 4.3410788 11.202242 4.63801
000030 60 1b 3c 41 7a 50 2c 41 61 8f 1e 41 26 d8 4f 40
       11.756683 10.769648 9.910005 3.2475677
000040 33 e2 22 42 0a 0b f3 40 70 f4 cb 41 89 f3 9a 40
       40.720898 7.5950975 25.494354 4.8422284
000050 4e 83 bc 3f 33 d6 0b 42 ae d1 2e 40 5f 95 b7 40
       1.4727571 34.95918 2.7315478 5.736984
000060 c1 80 bd 40 cb a7 cc 41 4f 12 83 41 e3 0c 06 41
       5.921967 25.58193 16.38394 8.378146
000070 6e 61 fa 41 de 19 9f 40 19 5c 25 41 cd 56 5e 41
       31.297573 4.9719076 10.334985 13.896192

Classifier.layer2.0.weight f4 [32, 32, 3, 3]
000000 ba 56 05 3d 8c 30 b3 3d 37 78 bb 3c 29 22 9c 3d
       0.032553412 0.08749494 0.022884471 0.07623703
000010 51 1d f3 3d bc 31 df 3c f6 c8 c7 bc 63 d3 94 3c
       0.11870826 0.027245395 -0.024387818 0.018167203
000020 75 3d c7 3a d7 ae bb bd 56 8b 62 bd 89 f3 76 bd
       0.0015200811 -0.091642074 -0.055308662 -0.060290847
000030 5a 4b 1d be 2f 72 39 be 00 e4 43 bd 0e 75 0b be
       -0.15360776 -0.18109964 -0.04782486 -0.13618872
000040 5d 7e 10 be 7c 58 e9 bd f8 d8 d9 bd 45 59 d8 bd
       -0.14110704 -0.1139383 -0.10637087 -0.10563902
000050 0e 3b a1 bd d2 08 e4 bd e1 db e2 bd da 50 75 bd
       -0.07872592 -0.11134495 -0.11077095 -0.05989156
000060 87 09 10 be ea 06 84 bd 2d 72 c3 bb f4 ca 1f be
       -0.14066134 -0.06446631 -0.0059645385 -0.15604764
000070 cf 92 4c be 6b fb d0 bd e8 99 01 be 5d 30 d7 bd
       -0.19977878 -0.10204204 -0.12656367 -0.105072714
000080 74 58 3f be e7 37 29 be 5c 5c 57 be 5c 19 21 be
       -0.18686086 -0.16525231 -0.21031326 -0.1573233
000090 ce e0 82 3c 9a 6d 34 bc 16 36 cf 3c c8 00 d1 3c
       0.015976336 -0.011012459 0.025294345 0.025513068
0000a0 0e a5 68 bc ce e1 45 bd 97 bd 94 bd 88 02 a2 3c
       -0.014199508 -0.048311047 -0.07262724 0.019776598
0000b0 82 21 47 bd 17 dd 8c be 51 df 16 be 4e 49 b1 bd
       -0.04861594 -0.27512428 -0.14733626 -0.0865656
0000c0 f8 06 cf bc a6 ac 43 3d b8 d9 ff 3b 34 05 77 3d
       -0.025271878 0.047772072 0.0078079365 0.060307696
0000d0 94 34 b0 3d 33 ee 91 3d d2 95 e4 ba 07 77 2f 3d
       0.086037785 0.07125511 -0.001743967 0.042838123
0000e0 49 3c f2 bc a1 19 cf 3d 99 e5 37 3d 2f 91 b7 3b
       -0.029569762 0.1011231 0.044896696 0.005602024
0000f0 44 9d 6b 3c bf 04 57 3d 88 db c6 3b 2a a7 12 be
       0.014380757 0.05249476 0.0060686506 -0.1432158
000100 1c 54 c8 bd 80 b0 23 bd 3f aa 0a be 47 a1 10 be
       -0.097816676 -0.039963245 -0.13541506 -0.14124022
000110 b7 dc 07 be 92 4a 08 be dc 97 0d be ed 58 bc bd
       -0.1326779 -0.13309696 -0.13827461 -0.09196649
000120 70 67 1a be 8a 38 96 bd 2a 6f 7f bc 37 75 a0 bc
       -0.15078521 -0.07335003 -0.015590468 -0.019587142
000130 58 31 87 bd ef f2 9c bd ea ec 4c bd 65 c3 8d 3b
       -0.066012084 -0.076635234 -0.050030626 0.0043262714
000140 e0 ce f1 bc a7 b2 11 bc b6 ca 00 bc 32 f3 0b 3e
       -0.029517591 -0.008892692 -0.00786083 0.1366699
000150 18 06 8d bd bb b3 7b bd 12 e3 a2 bc 8c 89 35 bd
       -0.06885928 -0.0614507 -0.019883666 -0.044320628
000160 a3 ac be bd 17 36 b4 bc 8e bd fa bd f1 9a 4a bc
       -0.093102716 -0.021998448 -0.12243186 -0.0123660425
000170 a8 9e 91 bd 56 df bb bc 43 ed 20 3d b5 bd 46 bd
       -0.071103394 -0.022933643 0.03928877 -0.048520762
000180 91 3b 8e bd 81 d1 4d 3c 9b 5d 08 3b 89 7e 4f bc
       -0.06944955 0.012562157 0.0020807746 -0.012664446
000190 23 c8 02 3d 39 74 c9 3d 43 2a 8f bd b4 d4 b5 bd
       0.031929146 0.09836621 -0.06990483 -0.088784605
0001a0 fe fe a2 bd a0 b2 ae bd 87 99 4a be 5f ee 65 bd
       -0.07958792 -0.08530164 -0.19785129 -0.05613553
0001b0 98 0c c5 bd 7f 96 d8 bd 55 49 0c bd bc fc 8d bd
       -0.09621543 -0.1057558 -0.034249622 -0.06932971
0001c0 06 6f 74 bd be 34 05 bd 4c c1 24 bc c6 4f d0 3c
       -0.059676193 -0.032521002 -0.010055851 0.025428664
0001d0 19 6e 3a 3b 1c 29 b1 bd 1b ad 78 bd b4 18 11 3d
       0.002844697 -0.08650419 -0.06071196 0.03542395
0001e0 66 f1 da bd a2 02 6d bc 35 01 9b bc 9c e8 15 3d
       -0.10690574 -0.01446596 -0.018921474 0.036598787
0001f0 c9 d6 82 3c 7b eb b9 3d 78 bc 35 ba 2a 78 48 bd
       0.015971558 0.090781175 -0.0006932686 -0.048942722
000200 a6 b6 c6 3c 26 6f a9 bd ba 10 62 bd b7 e7 39 3d
       0.024257015 -0.08273153 -0.055191733 0.045386996
000210 3c ce de bc 34 7e dc bd 7f 86 1b bd 2f 91 20 3e
       -0.02719795 -0.10766259 -0.037970062 0.15680383
000220 37 73 94 3d c0 bb 35 3d 94 56 5b bd 41 9a 0b be
       0.07248538 0.044368505 -0.053549364 -0.13633062
000230 95 2c 29 be cb 59 c2 bb 74 22 fa bd 9b a3 14 be
       -0.16520913 -0.0059311143 -0.12213603 -0.14515536
000240 15 1c c8 3c 09 5d 33 3d e7 a0 09 3d ab 48 de bc
       0.024427453 0.043789897 0.033600714 -0.02713426
000250 d4 41 71 3d 1e ce 02 bd 0d 40 b1 3d 7c 23 85 3d
       0.05890067 -0.03193485 0.08654795 0.06500909
000260 34 64 61 3c 38 de 91 bb 2a 24 68 3d be 22 09 bc
       0.0137568 -0.0044515394 0.056675114 -0.0083701
000270 3a 71 af bc 3c 8b 75 bc 5d db 25 bc 02 5a 67 bd
       -0.021416295 -0.014986809 -0.010123101 -0.056482323
000280 90 1e 26 bd 4a 12 b9 bd d3 af a9 3d 60 24 9f bc
       -0.04055649 -0.090366915 0.08285489 -0.019426525
000290 03 46 61 3d c5 29 4a 3d a9 fe 1f 3c 3f 63 c5 bc
       0.05499841 0.04935624 0.009765306 -0.024095176
0002a0 e0 4a 77 bd 2c 6e 2c bc b8 6b d3 bc 58 62 c2 bc
       -0.06037414 -0.010524314 -0.0258082 -0.023728535
0002b0 6c 59 ae bd b9 db 6d bd 1e 3b 58 bd 0d 52 28 be
       -0.085131496 -0.058070872 -0.052790754 -0.1643755
0002c0 4e b6 0f be 0f e6 6c 3c ac ba 5a bd 72 62 10 be
       -0.14034387 0.014459147 -0.05340068 -0.14100054
0002d0 95 45 81 bc f7 0c b7 bd 59 d1 c6 bd 6e 70 67 3d
       -0.01578025 -0.0893802 -0.09707899 0.056503706
0002e0 8e 63 97 bd 0a bc 13 bd ab 99 80 3d 36 67 92 3d
       -0.073920354 -0.036068 0.0627931 0.07148592
0002f0 c6 9b 4c 3d cd be a0 bc b0 36 0a bb 17 76 61 bc
       0.049953245 -0.01962223 -0.0021089725 -0.013761065
000300 35 06 c6 3c 00 36 01 3b b4 3c 44 bc ce d2 ca 3d
       0.024172882 0.0019716024 -0.011977363 0.09903489
000310 f9 06 11 3d 6e 7f 5b 3d bd c2 e5 bc 11 47 0b bd
       0.03540704 0.053588323 -0.02804696 -0.03400332
000320 47 28 05 3d 14 14 0e bd c5 42 89 bd 0b 73 3d 3d
       0.032509115 -0.034687117 -0.067021884 0.04625229
000330 5d 2c bc bc a9 8d c8 bd 10 51 52 bb c6 30 5b be
       -0.022970373 -0.097926445 -0.0032091774 -0.21405324
000340 4e ad d5 bd 1a e6 df bd be c5 13 3d af c8 ca 3d
       -0.10433446 -0.1093256 0.036077254 0.099015586
000350 24 16 01 3e 7f 61 c7 3d 47 2d 18 3e f1 3d 2a 3e
       0.12606102 0.09735393 0.14861022 0.16625191
000360 5d 23 8d 3d 5a 5a 9c bc d1 30 61 bd e0 17 00 bd
       0.06891511 -0.019086052 -0.054978196 -0.03127277
000370 07 c3 20 bd 9d a8 98 bd af e0 f6 bd cc 3e e7 bd
       -0.039248493 -0.074540354 -0.12054574 -0.112912744
000380 95 56 fe bd 50 90 ef bd 1f f8 b7 bd 84 50 a0 bc
       -0.12418858 -0.11697447 -0.08982872 -0.019569643
000390 18 9c 6b bc 50 ee 91 3d 72 e3 8f 3d 44 5c f1 3d
       -0.014380477 0.071255326 0.070258036 0.117851764
0003a0 d8 96 49 3e 66 d5 ee 3d fa 34 8a bd e7 2a 87 bd
       0.19686449 0.11661796 -0.06748386 -0.0659998
0003b0 3a 69 b6 bd 3d 60 c6 bd 15 65 02 be bd 4b 66 bd
       -0.08906789 -0.09686325 -0.12733872 -0.056224573
0003c0 6b f7 14 3d d1 19 75 bd 81 01 27 bd 31 5e 1d 3d
       0.03636877 -0.059839074 -0.04077292 0.038419906
0003d0 58 b7 44 3d 70 60 d5 3d aa 46 31 3d 99 7c 77 bc
       0.048026413 0.104187846 0.04328028 -0.01510539
0003e0 77 c4 89 3d 6e 9f d5 3d a7 20 96 3d e4 19 d7 3b
       0.06726926 0.104307994 0.07330447 0.0065643657
0003f0 72 2f ec 3c 3c af ba 3c c9 36 bf 3b 93 0b 99 3d
       0.028831217 0.022788636 0.0058353883 0.07472911

Classifier.layer2.0.bias f4 [32]
000000 ca f3 25 bd 63 4f cd bb 6a ab 62 bd 2d 80 31 bd
       -0.0405157 -0.006265567 -0.055339254 -0.04333513
000010 29 c3 d9 bc 8b b3 a6 3c 66 e3 7b bd a7 78 3b 3d
       -0.026582317 0.020349285 -0.06149616 0.04576936
000020 54 df 1b bc 6f bf f7 3c d8 0c 8e 3c 51 19 ca bb
       -0.009513695 0.03024265 0.017340109 -0.0061675687
000030 c4 a0 87 3c 25 ca 8e 3c cb f5 ed 3c 83 4b 1e 3b
       0.016556151 0.017430374 0.029047867 0.0024153895
000040 1a cc 9a 3b 5b c5 22 bd c9 16 5f 3d 54 a8 e7 3c
       0.004724038 -0.039738994 0.05446509 0.028278507
000050 ce 74 28 3d ad 9a d5 3c a1 fd 1e 3c 9a 95 ae 3c
       0.04112702 0.026074732 0.0097040245 0.02131157
000060 46 a9 64 bc 77 85 95 3c 10 b6 e5 bb fe ea 17 3b
       -0.013956374 0.018252118 -0.007010229 0.0023180838
000070 65 c7 0e 3c 9a 39 68 bb 58 b4 b5 bb 40 ea 13 3d
       0.008714532 -0.0035434724 -0.0055451803 0.03611207

Classifier.layer2.1.weight f4 [32]
000000 5a 36 6a 3f f7 26 a5 3f c9 4f 66 3f 46 8a 82 3f
       0.91489184 1.2902516 0.8996549 1.0198448
000010 8e d2 74 3f f4 95 7d 3f 42 1e 78 3f e5 4f 89 3f
       0.9563378 0.99056935 0.9692117 1.0727507
000020 18 72 8a 3f ce b9 55 3f 5a 3f 6c 3f c2 c7 82 3f
       1.0816069 0.8348664 0.92284167 1.0217211
000030 78 b6 7e 3f 82 da 5c 3f 13 4b 58 3f 91 45 84 3f
       0.99497175 0.86270916 0.84489554 1.033373
000040 4f c2 51 3f 98 93 23 3f 9f c8 53 3f a4 3b 81 3f
       0.81937116 0.63897085 0.82728 1.0096326
000050 1a b6 6e 3f 46 cb 7c 3f d7 ac 58 3f 7d 0c 7e 3f
       0.93246615 0.9874767 0.8463873 0.99237806
000060 38 82 73 3f f4 9b 78 3f 12 14 71 3f f4 0c 68 3f
       0.95120573 0.97112966 0.9417125 0.90644765
000070 6b 4b 9a 3f 31 5c 87 3f 15 4f 70 3f 53 b0 84 3f
       1.2054266 1.057501 0.9387067 1.036631

Classifier.layer2.1.bias f4 [32]
000000 8b 03 84 3d e1 1a 8f 3e 5f 9e 69 be 6d 78 06 3d
       0.06445988 0.27950194 -0.2281432 0.03282969
000010 eb f4 41 bf 38 20 9c bd e9 8f b6 bd 27 50 d2 3c
       -0.7576434 -0.07623333 -0.089141674 0.025672985
000020 64 98 60 be ec 91 86 be 79 22 8c be 05 fa d5 bd
       -0.21933132 -0.26283205 -0.2737005 -0.10448078
000030 27 f0 3a be c8 3c c8 bd b5 80 63 be 37 39 bf 3d
       -0.18255673 -0.09777218 -0.22217067 0.09337085
000040 7e 1b 56 be 31 8d 96 be a2 7d 30 be be 41 90 bd
       -0.20908925 -0.29404595 -0.17235425 -0.07043789
000050 74 0c 07 be a7 ef aa bd ee 93 05 be 51 9d a4 bc
       -0.13188344 -0.08346491 -0.13044712 -0.020094546
000060 c4 3c 40 be e7 23 49 bd 35 d8 04 bd 7e 85 2c bd
       -0.1877318 -0.049106505 -0.032432754 -0.042119496
000070 05 b6 50 bd e6 5d c6 bd d5 b0 a5 be c4 55 28 3d
       -0.050954837 -0.096858785 -0.32361475 0.041097417

Classifier.layer2.1.running_mean f4 [32]
000000 31 18 c7 bf 26 c1 e5 be d6 a8 0c 40 72 17 10 c0
       -1.5554258 -0.44873923 2.197805 -2.251431
000010 59 2e bb 3e a2 4c b2 be 9d 62 9a bf ad 16 a1 bf
       0.36558798 -0.3482409 -1.2061344 -1.2585045
000020 17 30 f3 bf da 4a 26 3e d3 45 b1 3d 65 80 0b bf
       -1.8999051 0.16239491 0.08655896 -0.5449279
000030 04 6d b2 bf 39 0e f7 bd 0a e4 b5 be 98 f8 dc bf
       -1.3939519 -0.1206326 -0.35525542 -1.7263365
000040 a6 56 cc 3c 01 8b 73 3f 8e ac a0 3e 43 31 cb bf
       0.024943661 0.9513398 0.3138165 -1.5874408
000050 e2 d7 5f bf 15 93 01 bf bd 68 92 bf e6 c8 0c bf
       -0.87438786 -0.50615054 -1.1438214 -0.54994047
000060 13 89 a3 be a3 e3 b9 3e 66 6a e7 3e ae 79 e9 bf
       -0.31940517 0.36306486 0.45198363 -1.8240259
000070 ce 23 12 3f 8d 4f 02 3f 13 f7 ca bf 72 93 e5 bc
       0.57085884 0.50902635 -1.5856651 -0.028024409

Classifier.layer2.1.running_var f4 [32]
000000 51 9c 15 40 20 a5 45 3f b5 b5 1e 40 03 2e 4e 40
       2.3376658 0.77205086 2.4798405 3.2215583
000010 92 f1 65 3f 37 81 a1 3f 77 bb 0c 40 c7 5b 26 40
       0.8982173 1.2617558 2.198942 2.5993516
000020 bc 69 ca 40 6d db dd 3f f9 0f cb 3f a7 09 7c 3f
       6.325407 1.7332588 1.586425 0.9845223
000030 b6 f2 47 40 75 45 22 40 df fc b1 3f 5c 9b e1 3f
       3.124189 2.5354893 1.3905295 1.7625537
000040 40 52 26 40 df d6 0f 40 fc 80 df 3f b8 e6 77 40
       2.5987701 2.2474897 1.7461238 3.873457
000050 f9 5e ac 3f 3a 6b 85 3f 2d c9 0e 40 40 4e bd 3f
       1.3466483 1.0423348 2.2310288 1.4789505
000060 65 cf 47 40 ee 89 6d 40 4a a4 a2 40 7d cd 8d 40
       3.1220334 3.7115436 5.082555 4.431334
000070 27 a4 16 40 61 3d 3e 40 0b e3 15 40 69 3f 02 3f
       2.353769 2.9724963 2.3419826 0.50878006

Classifier.layer3.0.weight f4 [32, 32, 3, 3]
000000 25 dd 03 be 8a 80 e6 bd 17 bf a5 bd 9e 4c 41 bd
       -0.12877329 -0.11254986 -0.08093088 -0.04719221
000010 ab 8a 17 bb 58 06 58 3d a1 2b ad 3d 77 9a ea 3d
       -0.0023123424 0.052740425 0.08455587 0.11455243
000020 65 7f 0f 3e c2 9e e3 bd 7e 5e ff bd aa e2 bb bd
       0.14013441 -0.11114265 -0.12469195 -0.09174092
000030 a4 aa fc 3d 7a 26 98 bc d3 52 b9 bd 89 1b 0b 3e
       0.123372346 -0.018573035 -0.090490006 0.13584723
000040 b5 f7 e8 ba 3a bf 0a be 6d c3 77 3c 4b 2e 14 3c
       -0.0017774018 -0.1354951 0.015122277 0.00904424
000050 cf 5c 02 be 25 c1 67 3d c3 59 c8 bc 98 86 eb bd
       -0.12730716 0.05658068 -0.024456864 -0.11500281
000060 13 37 a0 3c 87 c8 21 bd f6 87 b6 bd 8f f5 b3 38
       0.019557511 -0.03949788 -0.08912651 8.581124e-05
000070 6b 9a 55 3d b8 bd 12 3d dd 4e 44 3c 74 3e c6 bd
       0.052149218 0.03582546 0.011981693 -0.09679881
000080 ca 48 1d be be 5c 33 3e 58 9a 14 bd e3 59 c1 bd
       -0.15359798 0.17515847 -0.036280006 -0.09440973
000090 b5 f1 8e bc 30 13 4d bc 26 b4 2e 3d b0 f0 8d bd
       -0.01744924 -0.012516782 0.04265227 -0.06930673
0000a0 d3 b4 4f bd fc d5 6d 3d 81 23 72 bb 31 26 84 bd
       -0.050709557 0.0580654 -0.0036947432 -0.06452597
0000b0 de e6 6f 3d 02 8f 75 3d 87 5a 23 bd a2 a6 18 bd
       0.05856978 0.059950836 -0.039881255 -0.03726829
0000c0 61 68 b1 bb 89 08 db 3a 3a 1a ee bd d4 d1 b7 3c
       -0.0054140543 0.0016710918 -0.11626096 0.022438921
0000d0 33 13 b1 bd f2 f7 c8 bd b9 c4 2e 3d 58 c8 84 3c
       -0.0864624 -0.09812917 0.042668078 0.016208813
0000e0 b9 c8 bf bd bc ca 0e bd 34 11 92 bd 47 bb 2f be
       -0.09364457 -0.03486131 -0.071321875 -0.17161284
0000f0 86 e5 8c bc fb f0 17 be e1 b3 54 be 5f d5 ae 3d
       -0.017199289 -0.1483802 -0.20771743 0.08536791
000100 c4 9c 50 3d f4 96 20 3e de 36 02 bd 7f f7 9a bd
       0.050930753 0.15682584 -0.031790607 -0.075667374
000110 1a 9d 98 3d d8 a7 7b 3c d7 dc 4d bd 86 b8 2a 3c
       0.0745184 0.015359841 -0.050259437 0.01041997
000120 d0 aa a4 3d f4 91 73 3d 58 dc 7b 3c 6d d0 13 3d
       0.080403924 0.059465364 0.015372358 0.036087442
000130 d9 70 a4 3d 60 56 39 bc 4a 06 cb 3d d1 49 be 3d
       0.080293365 -0.011312097 0.09913309 0.09291423
000140 65 ba 69 3d c9 2a cb 3c 41 0e a6 3d 07 1a bd bc
       0.057062525 0.024800675 0.081081875 -0.0230837
000150 3a 5b f8 bb 58 9e 07 3d 8c 83 aa 3d 45 a4 f3 3c
       -0.0075792344 0.033109993 0.08325872 0.029741416
000160 de 47 a3 3d 82 1c 1e 3e e7 89 c5 3d f0 6e 51 3e
       0.07972692 0.15440562 0.096454434 0.20452476
000170 f8 e1 b1 3d c2 67 e7 3d 8e d0 0f 3e ae 9f 21 3d
       0.08685678 0.11299087 0.14044401 0.039458923
000180 61 18 aa bc 74 35 3e 3d 6b 9d 8d 3d a1 07 d8 bd
       -0.020763578 0.046437696 0.06914791 -0.1054833
000190 a4 fd 64 bd 46 3f fa bc 35 ee 1b bd 12 1f f8 bd
       -0.055905953 -0.03054775 -0.03806897 -0.12115301
0001a0 4a 25 17 bd 64 a0 ee bc 76 86 1b 3d dc 0e 56 bd
       -0.036900796 -0.029129215 0.03797003 -0.052260265
0001b0 9e 2a 1d bd 0c c3 c2 bc 62 b8 b5 bc 1f 2f 2d bc
       -0.03837072 -0.023774646 -0.022182647 -0.010570317
0001c0 21 12 ae bc 8a 64 a3 3c f0 c2 99 bc 60 21 75 3d
       -0.021248879 0.019945402 -0.018769711 0.059846282
0001d0 9d 35 b7 3d f9 15 c8 bc 4e 38 d3 bd a0 9e b1 bd
       0.08945773 -0.02442454 -0.10313474 -0.086728334
0001e0 4a 33 cb bc 06 12 66 3d e6 18 c8 3c ff f4 0f 3d
       -0.02480473 0.056169532 0.024425935 0.035145756
0001f0 9f 0b be 3d 4b 6a af 3d b6 fc db 3c 3c fe 36 bd
       0.0927956 0.08565196 0.0268539 -0.04467605
000200 f7 35 00 bd b5 98 bb 3d 3d 87 94 3d 95 ea ef 3c
       -0.031301465 0.09159986 0.07252357 0.029286662
000210 9c 6a 4d 3d 74 b3 8c 3d 44 7a a6 3d 57 2d 4b 3c
       0.0501505 0.068701655 0.08128789 0.012400947
000220 aa 33 b8 3c a7 40 6b 3d 42 7a 76 bd 5e f9 ea 3c
       0.022485573 0.057434704 -0.060175188 0.02868336
000230 ba 77 2c 3d aa 40 15 3d 43 8c 85 3c 7a 11 ea 3d
       0.042106368 0.03643862 0.016302234 0.11429115
000240 69 3b 35 3d 13 28 86 3d 8b 7a 05 bc dc a8 1d bd
       0.04424611 0.06550612 -0.008146892 -0.038491115
000250 78 34 a8 3c 9a ed e7 bd 82 02 de bd 16 fc 1c be
       0.020532832 -0.11324616 -0.10840322 -0.15330538
000260 d8 33 99 bd ef 86 45 bd 97 fa dc bc e3 3e 52 3c
       -0.074805915 -0.048224386 -0.02697496 0.012832376
000270 23 6f 92 bd 52 f4 08 bc 46 64 09 bd 14 a5 bc bd
       -0.07150104 -0.008359032 -0.033542894 -0.09211174
000280 0a 7f c0 bd b7 8d a4 bd 67 7a 3d bd a2 a3 12 bd
       -0.09399231 -0.080348425 -0.04625931 -0.035800584
000290 fa b0 c9 3c 14 2f b4 3d b0 e1 3d 3d be a5 ec 3c
       0.024620522 0.08798042 0.04635781 0.028887626
0002a0 19 16 8a 3d 13 9e 92 3d 8c b3 95 bc 9a d6 b6 3d
       0.06742496 0.071590565 -0.018274091 0.08927651
0002b0 91 01 3e 3d 48 26 f4 3d 6a 1e a1 bd e2 7e b7 bd
       0.046388213 0.11921364 -0.07867129 -0.08959748
0002c0 20 4b 8d 3c 03 06 e2 bd f8 38 4f be d4 c1 16 be
       0.017247736 -0.11036303 -0.20236576 -0.14722377
0002d0 0a ec ab bd f7 6d 00 bd 85 a2 10 be 5f 0a b0 3d
       -0.0839463 -0.03135487 -0.14124496 0.08595728
0002e0 92 da d9 3d 88 31 b9 bd c4 43 3a 3e c7 b0 e5 3d
       0.10637392 -0.090426505 0.18189913 0.11215358
0002f0 3b a0 a1 bb 6c 93 0c 3c 33 32 3a bc eb 5e 98 bd
       -0.004932431 0.00858007 -0.0113645075 -0.07439979
000300 a3 50 9d 3d 1d 82 1e 3d 63 4a 1c bd 32 00 90 3d
       0.07681396 0.038698304 -0.03815688 0.07031287
000310 96 f5 81 3d 42 34 dd 3b 44 2c 7a 3c 83 9a 8f 3d
       0.0634567 0.0067506144 0.015269343 0.07011893
000320 7d 80 30 bc 42 4e 0c 3d 4f ea f2 3d 8d 73 01 3d
       -0.0107728215 0.03425432 0.11861097 0.03160434
000330 c3 e1 a8 bc 97 1b c4 3d fc e7 48 3c 15 97 f3 bc
       -0.020615464 0.09575575 0.012262341 -0.029735127
000340 30 9b c2 3c 92 16 3f 3d 2d 86 a3 bd 05 03 92 bd
       0.02375564 0.046652384 -0.079845764 -0.07129482
000350 5e 6d a0 3d fc 83 d5 bd 97 2a 3a bd fc da 0d 3c
       0.0783336 -0.10425565 -0.045450773 0.008658167
000360 9a 76 db 3d 39 74 6d 3d 37 de 05 3e 97 dd e5 3b
       0.10715981 0.057972167 0.1307305 0.007014941
000370 a9 10 1b ba 2f e4 76 3d 12 88 81 3d 4a 69 96 3d
       -0.00059152633 0.060276207 0.063247815 0.07344301
000380 25 41 49 3d e5 04 32 bd 07 f8 a9 bc ab 1c 42 3e
       0.049134392 -0.0434617 -0.020748151 0.18956248
000390 1d 12 f1 bd 78 e5 db bd 77 8f 90 3d c5 50 cd bb
       -0.11771033 -0.10737127 0.07058614 -0.006265732
0003a0 af a2 c6 bc 4c 8a be 3d f3 2f e6 3d 02 20 57 3c
       -0.024247495 0.09303722 0.11239614 0.01313019
0003b0 88 cc 57 bd 54 b3 42 3d 74 95 02 3e 70 ca 22 3d
       -0.05268529 0.047534302 0.12752324 0.03974384
0003c0 e3 49 48 3d 72 dc c1 3c d5 51 56 bd 30 85 e0 3b
       0.04889859 0.023664687 -0.052324135 0.0068518147
0003d0 d4 47 40 3b 11 33 11 3e 6f 45 8f bd 59 2d 47 bd
       0.0029339688 0.14179637 -0.06995665 -0.04862723
0003e0 29 4c 9f 3d 15 4b 0d bd eb ad 0d 3d e8 2e 62 3d
       0.07778198 -0.034495432 0.03458969 0.055220515
0003f0 04 c3 3e 3c d9 72 73 3d fe fe 0e bd 67 3f 2e 3d
       0.011643175 0.0594357 -0.03491115 0.042540934

Classifier.layer3.0.bias f4 [32]
000000 3d 2f 5f bc 98 51 81 bc bc 04 4b 3d 04 78 96 bb
       -0.013622102 -0.015785977 0.049565062 -0.0045919437
000010 40 e5 35 bd 93 85 85 3d 9c c8 f8 bc 37 2d d8 3b
       -0.044408083 0.06519618 -0.030369096 0.006597187
000020 8e 95 eb 3c ab f7 2e bd b3 26 29 bd 3b a1 9e 3c
       0.028757837 -0.042716663 -0.041296672 0.01936399
000030 fe 93 45 3c 32 7e 01 bd cb 17 ba 3c ea 07 3f bd
       0.01205921 -0.03161449 0.022716423 -0.046638407
000040 e0 2b fb 3b eb a0 52 bc a4 5f 16 bd 28 c7 7a bc
       0.0076651424 -0.012855749 -0.036712304 -0.015306272
000050 a4 a7 0e bd 35 b3 23 3d e7 6c d3 bc cd 93 d5 3c
       -0.034827843 0.039965827 -0.025808765 0.026071453
000060 cc f5 c7 3c e5 e7 45 bd 38 00 40 3d c7 e4 8a 3d
       0.024409197 -0.048316855 0.04687521 0.06781917
000070 41 84 fd 3c 07 18 03 bd 3c 1e 4f 3d a1 22 31 bc
       0.030946853 -0.032005336 0.050565943 -0.010811479

Classifier.layer3.1.weight f4 [32]
000000 d0 d0 6e 3f 0b fa 6c 3f e9 54 85 3f da 3c 6d 3f
       0.9328737 0.92569035 1.0416538 0.9267098
000010 1d 30 65 3f a1 16 81 3f bb f2 89 3f bf 40 6c 3f
       0.8952654 1.0085031 1.07772 0.92286295
000020 24 2f 72 3f 84 fa 73 3f aa 5f 7a 3f 8a 3c 70 3f
       0.9460318 0.9530413 0.9780222 0.93842375
000030 5f 03 65 3f 6b a4 56 3f 15 6f 5f 3f ef 52 76 3f
       0.8945827 0.8384463 0.8727887 0.96220297
000040 d2 e1 99 3f c1 fb 69 3f 5a 7a 91 3f af e7 7a 3f
       1.202204 0.9139977 1.1365464 0.9800977
000050 47 91 67 3f 8e 79 7b 3f 8d 24 6d 3f f8 49 85 3f
       0.9045605 0.9823235 0.926339 1.0413198
000060 e7 c1 74 3f 10 a1 81 3f f4 aa 87 3f 94 3c 82 3f
       0.9560837 1.0127277 1.0599046 1.0174737
000070 bc de 6a 3f 5d 03 73 3f b0 df 85 3f fe 7a 87 3f
       0.91746116 0.94927007 1.0458889 1.0584409

Classifier.layer3.1.bias f4 [32]
000000 ae 63 0f be 28 3c 11 be e2 42 ca bc 28 e3 0c be
       -0.14002869 -0.14183104 -0.024690095 -0.13758528
000010 b6 a2 64 be 45 db 5a 3d 8e 3a 1b bc c4 bc bb be
       -0.22327694 0.053431768 -0.00947441 -0.36667454
000020 7c c5 61 bb f7 6e 02 be b2 f8 2d ba 9a 8e 31 3d
       -0.0034449985 -0.12737642 -0.0006636485 0.043348886
000030 f0 85 fa bc f3 af 07 bf b5 4a 35 be 9b 5d 03 bf
       -0.030581445 -0.5300285 -0.1770428 -0.51314706
000040 ea 68 1a 3e c9 7c aa 3d e8 9b 39 bd d4 b8 a3 bd
       0.15079084 0.08324582 -0.0453147 -0.079942375
000050 af 29 f2 be 54 55 20 be 8f ce 06 3d f6 22 73 be
       -0.47297427 -0.1565755 0.032911833 -0.23743805
000060 15 44 1b bf 6e c6 4d be 9e 61 f0 bc c8 ea d3 3c
       -0.6065076 -0.20095226 -0.029343423 0.025868788
000070 8e a8 73 be b7 1c 1f bd fc 85 90 3d f7 13 97 3d
       -0.23794767 -0.038845744 0.070568055 0.07376855

Classifier.layer3.1.running_mean f4 [32]
000000 23 db ed 3e b5 00 01 c0 f7 03 01 bf bb 8f a7 bf
       0.4645625 -2.0156682 -0.50396675 -1.3090738
000010 d5 25 2b bf ec 3a 8a bf 13 66 02 be f5 b8 74 be
       -0.668546 -1.0799232 -0.1273425 -0.2389868
000020 6c 97 97 bf 69 e3 4d 3d 30 7e b2 bf 99 fa b3 bf
       -1.1843085 0.050265703 -1.3944759 -1.4060851
000030 d8 d9 0e c0 31 3e 59 3e 57 58 08 bf 6f d2 b9 bd
       -2.2320461 0.2121513 -0.53259796 -0.0907334
000040 cc 73 1d be d7 ea a8 bf 63 67 9e be 0b c2 1f bd
       -0.15376204 -1.3196667 -0.30938253 -0.039003413
000050 83 4c ad 3e 83 73 8c 3f 8d 5b b0 bf 41 38 b5 3e
       0.33847436 1.0972751 -1.3777939 0.3539448
000060 31 b9 59 be ab 7b 99 bf ab 44 ef 3e 20 d4 f8 be
       -0.21262051 -1.1990865 0.46732077 -0.4859934
000070 d0 e0 12 bf ca 5e a6 bf 31 6d 65 bf 62 02 7f bf
       -0.57374287 -1.2997677 -0.8961974 -0.9961301

Classifier.layer3.1.running_var f4 [32]
000000 e1 91 4c 3f 18 41 32 40 3c d9 f8 3f 7d 58 91 3f
       0.79910094 2.785223 1.9441295 1.135513
000010 8a 94 d2 3f ec 46 be 40 21 fa 4f 3f 6e 9c 2d 40
       1.645158 5.9461575 0.8124104 2.7126727
000020 da b5 85 40 d3 32 22 40 cc db d0 3f ac 85 5e 40
       4.1784487 2.534352 1.6317077 3.4769087
000030 61 f5 0f 41 94 00 fe 3e fe bc 20 40 49 7a c9 3e
       8.997407 0.49609816 2.5115352 0.3935111
000040 e1 ff 6f 3f 31 d9 8d 40 9e d7 29 3f a7 59 b1 3f
       0.93749815 4.4327626 0.6634463 1.3855485
000050 9e e3 a2 3f 5b 0b f2 3f 5d 16 12 40 0e 2b 78 3f
       1.2725713 1.8909715 2.282615 0.96940696
000060 57 01 cb 3f 8a 21 46 40 c8 3a ae 3f 81 d6 75 3f
       1.5859784 3.095797 1.3611689 0.9603043
000070 7d 5c 8e 3f ba 74 20 40 f9 61 a1 3f ab ed 95 40
       1.1121975 2.5071244 1.2608024 4.685262
